Assets/Scripts/RL/results/MyTrainingRun/Character/Character-15.onnx (onnx, 188197 bytes, 11 tensors)

discrete_act_size_vector f4 [1, 4]
00000000: 0000 c040 0000 4040 0000 4040 0000 4042
6.0 3.0 3.0 48.0

network_body._body_endoder.seq_layers.0.weight f4 [128, 155]
00000000: 1151 debb 2f17 5d3d e9a2 3d3d 129b 8d3d
00000010: efb4 a13d f4b3 003e a603 143d 3143 39bd
00000020: d3fe 983d f897 5b3d 64cb 48bd 9dcb 753d
00000030: ae46 0c3d 9d00 3bbe 52f1 24bd 9f83 18be
00000040: 88eb b2bd 07a0 673d 2087 f23d b917 2abd
00000050: 8bee 76bd 8898 01be 9ae5 9fbd 617d 74bd
00000060: 8286 46bd c22e 0e3e eb08 873b 7284 363e
00000070: dbc1 08be fbab 983d 310c ffbc 3ae8 91bd
00000080: c896 02bd de34 d23d cace 853c 6557 a0bd
00000090: 1b2d 093c 5904 4e3c 3eec 273b 9ecd 80bd
000000a0: 53af 3bbc 6aea b83c 5dbe 163d b6f6 9f3c
000000b0: 6083 073e daad aabd d684 2e3e b61b 06bd
000000c0: 3d08 493d 0d90 43bd 35ad 393d bcf7 d53d
000000d0: 5cba 91bd 610f 44be 9b1b ee3b ebbd 0dbe
000000e0: 299a a93d 938d 0cbe 1043 f73c 57a1 2a3d
000000f0: e3ba 32bc 1f6f 18be 9da8 9fba 506c 883d
00000100: 4efc bcbc 6aa8 b83c 91f6 64bc a09f f2bd
00000110: 5409 933d 8626 dabd 45f0 6d3c 8437 29bc
00000120: d1de 98bc 49b1 bdbc 3044 253e 8075 d5bc
00000130: 4d02 25bc 04ed 78bd 65d9 29bb a9fd 08bc
00000140: 579d bb3d f382 0abe 5d23 95bc 1ea0 bb3c
00000150: 71b2 b2bd 7803 483c f7d0 38bd 5671 edbc
00000160: 9935 3ebd 39e2 46bd 6358 9fbd 56b6 0e3b
00000170: abb7 dd3c 575a 5bbc 53f8 15be 5b8c e2bd
00000180: d9ef 0cbc b8a5 9e3c 0f65 89bc 79a8 97bd
00000190: 7942 d33d 5fa9 4b3d 112e 843c 2b8b ba3d
000001a0: 4bd9 453a 1055 a43c a998 1f3d 753b 603e
000001b0: 454e f9bc bdb1 ef3b 14bc 333d 01f1 a1bc
000001c0: e96a 063c d7be 583e b5dc c13c bade 883d
000001d0: 6c0c c4bd b2b5 16bd f50b 1cbe 66ac 9f3d
000001e0: a282 68bd e108 a0bc 48e7 fd3c e53f 7fbd
000001f0: 5526 463d c1c2 963d eda9 51bd dc03 8dbd
00000200: 8ac2 19be 8ea1 813c f95a 83bd 870e 9a3d
00000210: e45a de3c 64f9 acbd 719a 543c d618 65bd
00000220: d516 efbd 42a4 bbbd ca1a 123e f415 48bb
00000230: fcf5 023d 0e05 863d 600f aa3a 5f53 1ebd
00000240: 7b33 6abd cf6d a6bd c08f 3a3e fd12 eb3b
00000250: ff80 a7bc 959a 463c adcd 8bbb 9768 ba3d
00000260: e9ed c13c e7b0 ec3c 5f7e d63c c57d 263e
00000270: 96a9 4e3e 73d9 123d 33b2 adbd 4af5 c6bc
00000280: 0e22 46bd a70c 27bd d928 c9bd cc43 6ebd
00000290: 31e8 213d ee30 3a3e 3c82 163d 591b 023d
000002a0: 6e18 82bc 7b56 9b3d bda9 bc3d 1eb9 f23c
000002b0: fb49 56bd abb5 ad3d 5f8e a0bd 9c7e 04bd
000002c0: 37c4 1dbe b477 b53c 22a6 45bd 1be4 e13c
000002d0: 55b5 c3bd 1c5e e33d f199 d5bd 94db 293d
000002e0: 892b e73d c61e 9c3b a5bf 413e e2e8 2d3e
000002f0: 3432 a53d 14ea 0dbe cb91 9e3c 360d ae3d
00000300: 0eba a03d 3485 99bd f875 653d 21b5 a63d
00000310: 7891 0d3e 5e21 003d 7d4b f3bd ee96 493e
00000320: 254d 0a3e da1c 8cbd d31c 173d 4c20 ab3c
00000330: 70be 503d 336c 663c df09 9cbd 3260 1ebc
00000340: 34ff 1f3b fd98 cd3d 37b9 843c 2708 393d
00000350: 3395 65bc 267a a63c 3b5a 1ebc 2d7f ad3d
00000360: 2311 d1bd 3fba b8bd 7540 08be da24 7b3c
00000370: 8075 263d 6f35 86bd 807d 76bc 0e1c 63bc
00000380: c063 7a3c c428 dfba cf34 083e 31e0 f5bd
00000390: 280c e4bb dd2f 5dbd 168d d13d e210 9d3d
000003a0: 97db 8ebd 98ae c9bb bfb1 903d 0a5b 113e
000003b0: 6d8e dd3d 3a62 a53d 5822 943d 26e9 013e
000003c0: 0d7d 203e a56b 843c b7ed 8cbd de52 8b3c
000003d0: c9c4 29bd bca7 c2bd 98fd 593d 6662 36bd
000003e0: c4e0 bd3d ac56 90bb 513c 88bc f621 b23d
000003f0: 3bc3 29bd d18d 48bd c42d 283d 00c8 ddbc
-0.006784566 0.053977188 0.04629794 0.06914343 0.078958385 0.12568647 0.036136292 -0.045230094
0.07470479 0.053611726 -0.049022093 0.060008634 0.034247093 -0.18261953 -0.040269203 -0.1489396
-0.0873633 0.0565491 0.11842179 -0.04152653 -0.060286086 -0.12655842 -0.07807465 -0.059689883
-0.04846812 0.13885024 0.004120936 0.17823961 -0.133552 0.07454678 -0.031133743 -0.07124372
-0.031882077 0.1026399 0.016333956 -0.07829169 0.00837257 0.012574279 0.002562299 -0.06289218
-0.011455375 0.022572715 0.03680264 0.01952682 0.1323371 -0.08333941 0.1704286 -0.03274127
0.049080122 -0.0477448 0.0453312 0.10447642 -0.07115623 -0.19146492 0.0072664744 -0.13841979
0.08281357 -0.13725881 0.030183345 0.041657772 -0.010908815 -0.1488614 -0.0012180988 0.06661284
-0.023069527 0.022541244 -0.013974802 -0.11846852 0.071795136 -0.10651879 0.014522617 -0.010328177
-0.018660935 -0.023155825 0.16139293 -0.026057005 -0.010071349 -0.06077291 -0.002591693 -0.008361259
0.091608696 -0.13526516 -0.01820534 0.022903498 -0.08725441 0.012207858 -0.04512116 -0.028984707
-0.046437833 -0.048555586 -0.0778053 0.002177616 0.027065119 -0.013388238 -0.1464551 -0.11061927
-0.008602106 0.01936613 -0.016771821 -0.074051805 0.10315413 0.04972207 0.016135247 0.091085754
0.0007547333 0.020060092 0.038963947 0.21897681 -0.03043283 0.007314889 0.043880537 -0.01976824
0.0082042 0.2116655 0.023664812 0.06683107 -0.09572682 -0.036794372 -0.15238936 0.07796554
-0.056765206 -0.019535484 0.030994073 -0.062316794 0.0483764 0.07361365 -0.051187444 -0.06885502
-0.15015617 0.015824106 -0.06413836 0.07522302 0.02714295 -0.08446005 0.012976275 -0.05593189
-0.11674277 -0.09162189 0.14268032 -0.0030530663 0.03197287 0.06543933 0.0012974553 -0.038653728
-0.057178 -0.08126413 0.18218899 0.0071738944 -0.020447252 0.012121816 -0.004266462 0.0910198
0.023673015 0.028892947 0.026183305 0.16258915 0.2018188 0.035851907 -0.084812544 -0.024286885
-0.04837232 -0.04078355 -0.09822244 -0.058170125 0.039528076 0.18182728 0.036745295 0.031764362
-0.01588079 0.07584854 0.092120625 0.029629286 -0.052316647 0.08481916 -0.07839655 -0.032347307
-0.15406881 0.022151805 -0.04825414 0.02757459 -0.09556071 0.11101934 -0.104297526 0.04146917
0.112876005 0.0047644107 0.18920763 0.16983369 0.08066216 -0.13858825 0.019356629 0.084986135
0.07847987 -0.074961096 0.056020707 0.08140016 0.13825023 0.03128182 -0.118796326 0.19686481
0.13505991 -0.068414405 0.036892723 0.020889424 0.050962865 0.014063883 -0.0761907 -0.009666489
0.0024413588 0.10038946 0.016201599 0.04517379 -0.014012623 0.020321917 -0.009665067 0.084715225
-0.10208347 -0.090198986 -0.13305838 0.01532861 0.0406394 -0.065531604 -0.01504457 -0.013861669
0.015282571 -0.0017025699 0.13301395 -0.12005652 -0.006959457 -0.054000724 0.10231988 0.07669236
-0.06975477 -0.0061548464 0.070651524 0.14194885 0.10818181 0.08075376 0.07233113 0.12686595
0.15672703 0.01616461 -0.06881278 0.017007288 -0.041447435 -0.09504649 0.05322036 -0.044527434
0.09271386 -0.0044048633 -0.016630324 0.08697884 -0.041445952 -0.04896337 0.04105927 -0.027072906

network_body._body_endoder.seq_layers.0.bias f4 [128]
00000000: 0000 0000 0000 0000 0000 0000 0000 0000
00000010: 0000 0000 0000 0000 0000 0000 0000 0000
00000020: 0000 0000 0000 0000 0000 0000 0000 0000
00000030: 0000 0000 0000 0000 0000 0000 0000 0000
00000040: 0000 0000 0000 0000 0000 0000 0000 0000
00000050: 0000 0000 0000 0000 0000 0000 0000 0000
00000060: 0000 0000 0000 0000 0000 0000 0000 0000
00000070: 0000 0000 0000 0000 0000 0000 0000 0000
00000080: 0000 0000 0000 0000 0000 0000 0000 0000
00000090: 0000 0000 0000 0000 0000 0000 0000 0000
000000a0: 0000 0000 0000 0000 0000 0000 0000 0000
000000b0: 0000 0000 0000 0000 0000 0000 0000 0000
000000c0: 0000 0000 0000 0000 0000 0000 0000 0000
000000d0: 0000 0000 0000 0000 0000 0000 0000 0000
000000e0: 0000 0000 0000 0000 0000 0000 0000 0000
000000f0: 0000 0000 0000 0000 0000 0000 0000 0000
00000100: 0000 0000 0000 0000 0000 0000 0000 0000
00000110: 0000 0000 0000 0000 0000 0000 0000 0000
00000120: 0000 0000 0000 0000 0000 0000 0000 0000
00000130: 0000 0000 0000 0000 0000 0000 0000 0000
00000140: 0000 0000 0000 0000 0000 0000 0000 0000
00000150: 0000 0000 0000 0000 0000 0000 0000 0000
00000160: 0000 0000 0000 0000 0000 0000 0000 0000
00000170: 0000 0000 0000 0000 0000 0000 0000 0000
00000180: 0000 0000 0000 0000 0000 0000 0000 0000
00000190: 0000 0000 0000 0000 0000 0000 0000 0000
000001a0: 0000 0000 0000 0000 0000 0000 0000 0000
000001b0: 0000 0000 0000 0000 0000 0000 0000 0000
000001c0: 0000 0000 0000 0000 0000 0000 0000 0000
000001d0: 0000 0000 0000 0000 0000 0000 0000 0000
000001e0: 0000 0000 0000 0000 0000 0000 0000 0000
000001f0: 0000 0000 0000 0000 0000 0000 0000 0000
0.0 0.0 0.0 0.0 0.0 0.0 0.0 0.0
0.0 0.0 0.0 0.0 0.0 0.0 0.0 0.0
0.0 0.0 0.0 0.0 0.0 0.0 0.0 0.0
0.0 0.0 0.0 0.0 0.0 0.0 0.0 0.0
0.0 0.0 0.0 0.0 0.0 0.0 0.0 0.0
0.0 0.0 0.0 0.0 0.0 0.0 0.0 0.0
0.0 0.0 0.0 0.0 0.0 0.0 0.0 0.0
0.0 0.0 0.0 0.0 0.0 0.0 0.0 0.0
0.0 0.0 0.0 0.0 0.0 0.0 0.0 0.0
0.0 0.0 0.0 0.0 0.0 0.0 0.0 0.0
0.0 0.0 0.0 0.0 0.0 0.0 0.0 0.0
0.0 0.0 0.0 0.0 0.0 0.0 0.0 0.0
0.0 0.0 0.0 0.0 0.0 0.0 0.0 0.0
0.0 0.0 0.0 0.0 0.0 0.0 0.0 0.0
0.0 0.0 0.0 0.0 0.0 0.0 0.0 0.0
0.0 0.0 0.0 0.0 0.0 0.0 0.0 0.0

network_body._body_endoder.seq_layers.2.weight f4 [128, 128]
00000000: 7468 a93c 88f9 dabd 85f0 a13d ef4f 093e
00000010: c553 0bbd cd43 14bd 9a55 9dba 24b9 793c
00000020: 31fc bdbc 7b86 f13d b35e 91bd ba46 e23d
00000030: 749a 61be dc4e 143e 88ef 45be c43c b9bd
00000040: e515 b4ba b221 003d b31b 823c e24a 493e
00000050: a4c2 32bc 75d0 cabd 8fbf 9b3c 8676 b5bd
00000060: 3786 883e 5840 d63d 4dc4 903d 7557 9cbc
00000070: 9006 f53d 62fc 603c 6838 c0bd d093 c9bc
00000080: c956 ae3c c4f2 cebd 1d07 48bd 38b7 223e
00000090: 2238 e0bd 5091 2ebd 1c11 e5bb bcce 653d
000000a0: f6ce 07be 639a a03c 3b2e 353d be64 94bc
000000b0: 6ef6 8f3d 8b3e cebd 4d3e 8c3d 4842 cabc
000000c0: 2246 763d a15f a33d 6250 b9bd 01fa a63d
000000d0: c346 53bd 6da5 d7bc 5fb7 edbc 647e 0ebe
000000e0: 8961 01be 41c9 0fbe d393 043b 7d39 a6bd
000000f0: 1911 ee3b 22ff 773d d3d3 8d3d e0f7 0bbe
00000100: 8094 89be e670 dcbd e268 1a3d bde5 dabd
00000110: 176d bebd c27c 463d e704 2bbe 3d9b a2bb
00000120: e329 093d f5a5 6d3d 2c45 b0bd 75c4 893c
00000130: 7027 313d 3f37 023c 7eb9 133d a604 ce3d
00000140: 02ae e03d e2a1 4d3e cd81 9fbc 5814 033d
00000150: 54f0 80bd 7f2c 92bd ffed 0fbe 5987 d53d
00000160: f34f e7bd 7d8c f23c 419c ab3d 710c e43d
00000170: c475 a63d 9b50 fb3d 242a d13d 0c4e cc3d
00000180: 3b63 a9bd 838d 2d3c 93a0 46bc 9d63 2e3d
00000190: 1f7e cdbc b685 563d 1d96 c13d 401e 0fbd
000001a0: e329 f9bc c7c2 7f3d 45ba f73d 9beb cbbd
000001b0: 15b0 35bd d628 9fbe 6a77 413e 416b 53bd
000001c0: 9bee f6bd 4d9e 183e b6b8 8cbc 7240 43bd
000001d0: d06f 82bd 6146 f53c 9f66 ee3b 1b99 3d3d
000001e0: f883 b5bd 11c4 dabc cd95 7f3d f7e1 0cb9
000001f0: 39be f3bb e41e b63c fe07 99bd f82c bdbc
00000200: de81 bdbd 157a a7bc af7a 1ebe c79c 243d
00000210: 65ef 003d 19b3 89bd 0ffe bfbd 7c5c 773d
00000220: 7161 833b 994e b43d 8322 873c c807 d0bc
00000230: 2d9a 6e3d 25ba 9bbb 5080 893d b5bb 923d
00000240: 8514 c53d 249c 1abc c0d4 ee3b 9c08 99bd
00000250: 4785 053d 6f92 3fbc 0aad 19be db04 393d
00000260: e8d8 d4bc f1c0 033c 26df 2c3e 06a5 a03d
00000270: 47af 3c3d c3f7 a93d bb55 1dbc 2a7d 963e
00000280: 360a e73c c6c1 58bd 0ec9 0ebe 171e 5f3e
00000290: 5d08 e2bd ac89 2cbd 3eac 00be ebf8 a73d
000002a0: 33a0 693d 8fa6 f73c 5fba b7bd c56a e7bd
000002b0: b267 6d3d f9b4 e93d b7ee 29be b156 4cbd
000002c0: 10ad f43c 648a 44bc 0497 183d 1293 c7bb
000002d0: 0954 633d 382b bd3c b8a7 67be aea2 153d
000002e0: 2476 e13d 2c53 563d cf5c 4cbd 5bbc c4bd
000002f0: cf37 573d d876 4d3d f65c a3bc 26f8 1c3e
00000300: 96cb 60bd 0766 62be c314 b13d a4f2 163e
00000310: 6119 23bd 13c9 e0bc 564e b13d 8d22 a8bd
00000320: 5b83 443c 7e6e 19be d116 0f3d 7001 d33d
00000330: e7ba 263d 7bbb 7bbc e3d7 1dbd 5fa5 003e
00000340: dc06 d83b 1e47 1cbe 57c0 933d 52ca e0bd
00000350: 5b9a d3bd 9798 203d 6241 523d e1b8 0b3e
00000360: f66a e2bd 4504 5ebd 390d 3f3d 631a 9cbd
00000370: f239 f6bd 2681 40be 5396 f9bd 2c60 12bd
00000380: 7871 08be 36b4 273e 6cba 873d 6b85 4b3d
00000390: d44e 63bd adb3 40bd 8eb8 0b3d edcb e53d
000003a0: 69b7 fe3b f27b 143d b901 12be e6a6 923d
000003b0: b105 603d 61ed 60bc 5d4d 1e3d e009 513e
000003c0: e2b9 a13e c7bc 05bc cf8f f3bd 3f15 05be
000003d0: 5efd 77bd dff9 77bb 817b f9bd 63df 213d
000003e0: 1cf3 c0bd cf43 d5bd f282 30bd 63ab 9e3d
000003f0: bf44 013e 7119 9abd 0665 37bc b123 af3d
0.02067969 -0.106921256 0.079072036 0.13409398 -0.034015436 -0.036197472 -0.0012003661 0.015241895
-0.023191543 0.11793228 -0.070981406 0.11048646 -0.22031575 0.14483207 -0.19329655 -0.09044793
-0.0013739435 0.031282134 0.015882349 0.19657472 -0.010910664 -0.09903041 0.01901224 -0.08860497
0.26664898 0.10461491 0.070686914 -0.019084672 0.11964142 0.013732048 -0.09385759 -0.024606615
0.021281617 -0.101048976 -0.04883491 0.15890205 -0.109482065 -0.04261905 -0.006990565 0.05610536
-0.13262543 0.019604867 0.044233542 -0.018114444 0.070294246 -0.10070523 0.068478204 -0.024689808
0.060125478 0.07977224 -0.09048535 0.08153153 -0.051581156 -0.026323998 -0.029018102 -0.13915402
-0.12634863 -0.14041616 0.0020229712 -0.08116434 0.007265222 0.060546048 0.06925168 -0.13668776
-0.2687111 -0.10763721 0.03769768 -0.1068835 -0.09298151 0.048458822 -0.16701089 -0.0049623535
0.033487212 0.058019597 -0.086069435 0.01681731 0.0432505 0.007947742 0.03606557 0.1005948
0.10970689 0.20081285 -0.019471074 0.032001823 -0.06295839 -0.07137393 -0.14055632 0.10426206
-0.11294546 0.029608006 0.083794124 0.111351855 0.08127931 0.12271234 0.10213116 0.09975824
-0.0827088 0.010592821 -0.012123245 0.042575467 -0.025084553 0.05237361 0.0945246 -0.034940958
-0.030415481 0.062441614 0.12096075 -0.099570476 -0.044357378 -0.31085843 0.18893209 -0.051615957
-0.12057229 0.14904137 -0.01717792 -0.04766888 -0.06368983 0.029940786 0.007275417 0.04628859
-0.08863062 -0.02670482 0.06239872 -0.00013435619 -0.007438448 0.022231527 -0.074722275 -0.023092732
-0.09253286 -0.020443955 -0.15476488 0.040188577 0.031478304 -0.06723613 -0.0937463 0.060390934
0.0040094187 0.08804054 0.016495949 -0.025394335 0.058252502 -0.0047524148 0.06713927 0.071647085
0.096230544 -0.009436641 0.0072885454 -0.07472345 0.032597806 -0.011692627 -0.15007415 0.045170646
-0.025982335 0.008041606 0.16882 0.07843976 0.046065595 0.0829921 -0.009602959 0.29392368
0.028203111 -0.05291917 -0.13943884 0.21788822 -0.110367514 -0.04212348 -0.12565705 0.08201774
0.057037544 0.030230789 -0.08971094 -0.112996615 0.05796022 0.11411471 -0.16594969 -0.049887363
0.029867679 -0.0119958855 0.037253395 -0.00609053 0.055500064 0.023091897 -0.22622573 0.036532097
0.11008862 0.052325413 -0.049893197 -0.096062385 0.052543458 0.050162166 -0.019941788 0.15329036
-0.054881655 -0.22109233 0.08646538 0.14740998 -0.039819125 -0.02743963 0.086575195 -0.08209715
0.011994208 -0.14983556 0.03493387 0.103030086 0.040705588 -0.015364523 -0.038535964 0.12563084
0.0065926146 -0.15261504 0.0721442 -0.109760895 -0.10332175 0.03920802 0.051331885 0.13644744
-0.110555574 -0.05420329 0.04664347 -0.0762222 -0.12022771 -0.18799266 -0.12186875 -0.035736248
-0.13324535 0.16377339 0.06627354 0.049687784 -0.0554951 -0.047046352 0.034111552 0.112205364
0.007773329 0.036251016 -0.1425847 0.071607396 0.054692928 -0.013728471 0.038647998 0.20413923
0.3158713 -0.008162684 -0.11892664 -0.12996386 -0.060544364 -0.0037838144 -0.121817596 0.03951968
-0.094213694 -0.10413324 -0.04309363 0.07747533 0.12623881 -0.07524384 -0.011193519 0.085517295

action_model._discrete_distribution.branches.0.weight f4 [6, 128]
00000000: 1f32 7eba 73aa b7bb 77d0 0bbc afc5 cc3b
00000010: 3b2d 043c c321 45bb 5729 57ba 4313 01bc
00000020: bc07 293c bbdc 52bc ef8a c83b 76fb 093a
00000030: c724 99bc 58a3 503c e5bb 63ba a369 b23b
00000040: e734 c1bc 04dd 13bb 9338 84ba 9a38 603c
00000050: 5849 8cbb 9f58 07bb 36aa 2f3c 5aaa 2fbc
00000060: a11c 0f3c fcc5 36bb 516c c8ba 36db 9dba
00000070: b352 603b 10ab 6dbc 6dbf 273b 9cd7 cb3b
00000080: 530e 04b9 e34d 6e3b 6a00 5c3b eb5f 283c
00000090: 076b 513b f95c 1e3c f3f0 023c 37ae e83b
000000a0: 6385 8dba d9ea 8abb 68ad 2cbb 283a eab9
000000b0: 3fd9 4ebb d0e8 5c3c 7283 b438 7acf 51b9
000000c0: 3c43 b93b af31 d338 4eee 19bc 4918 0cbb
000000d0: 8270 fe3a b284 493c 7d89 b6bc a995 903b
000000e0: 3f60 c83b bd84 35b9 cf12 3eba dddf cc3b
000000f0: 9a2a 1e3c 574f 723c 3308 6dbb c74d 193c
00000100: d5ee 99bb 4b2d 623c db8b 253c b7d5 a7ba
00000110: 0304 d73b 4955 c03c 6d81 033c 68cf 84bc
00000120: 9883 42bc 8d2e 99bc b87d 21bb 5899 533b
00000130: 4aac 703a b2a8 763c 062f 8cba 3720 86bb
00000140: 3af2 8d3b 77ff e83b e389 373c 30d1 a63c
00000150: d9bb 033c 3b8b 91ba 306c 4f3c 0170 03ba
00000160: 3bd1 e339 1b62 06bc 5f40 e23b 6fdf cbbb
00000170: 8f6d 6f3b 48af 1cbc cbae 963c 49df 9339
00000180: 780a e13a afd4 a7ba 1d47 f9ba f55f 33bc
00000190: 4f4a 0839 98dc 58bc c8a4 263a f04e f339
000001a0: 0890 933c 6f72 fbba e2b6 a93c 373d 883b
000001b0: e003 eeba 2634 9e3c 4d7c ffbb 0986 2b3a
000001c0: f268 67bb 2d3f 843b 220c 54bc 971f 643a
000001d0: a257 ec3a adf1 cebb 08a1 133c a52a 023c
000001e0: 018f 8d3c 43ba 0e38 7bea 98bb ef00 f8bb
000001f0: be24 14bc 0aa3 dcbb 4b9d b53a e1a1 3ebb
00000200: 37c3 d4bb c56c 81bc a7b4 1abc cbef 193b
00000210: 92c4 553b 8908 80bb 4275 7abc 684e 3cbc
00000220: 8585 f43a 951f c0bc 3bec de3b ad3e 73bb
00000230: 2038 4e3c 0f41 303c 6047 23bc 314f a63b
00000240: 579c 5abc 2b8d 343c 1d21 4fbc 289f 81bb
00000250: c2f6 cebb 1139 983b 5aed cf3b 35dd da3a
00000260: 7ae4 b4bc c374 123c 6d74 293c 71ff 843b
00000270: 7ef4 013b cfc1 afbb 1b4b 35bb cdf0 d2bb
00000280: 3797 143c a6d7 27bc 8e70 193a cedf 1b3c
00000290: 4746 c23b b509 66bb 856f d93b 2795 963b
000002a0: d2c6 553c 3fe2 15bc e76f 783c c4c1 a83c
000002b0: 90d5 1bbc 20b9 67bb da65 62bc 29ee 003c
000002c0: 83e5 123c 3b58 c33b 5805 a8bb 8301 83ba
000002d0: 4aa8 efba fc85 953b 6f5f 323b 7312 94bb
000002e0: 5ac3 e0bb 505b 4f3a a8f8 803c af3f 5abc
000002f0: c0bf b0bc eb98 a3bb 8026 3dbc 9fc5 0738
00000300: 0799 94bc ca6a 89ba fac3 0eba 7d18 7fba
00000310: cb9b b8bb 8371 e6bb ff35 cbba 2765 323b
00000320: 2baa d43b 92c9 923b 45c5 243c 4334 f4bb
00000330: af34 e13b b58b 4b3b 8b81 513c 928d d53b
00000340: 3004 66b9 62bb 543b 40b9 27bc 60a1 193c
00000350: e723 703a 4003 57bb 3af3 23bc ce77 8b3c
00000360: 5697 44bc c205 983b edf0 983b c69f aeba
00000370: bcdb 083a b0e2 d2bb 25ea 4dba d689 333c
00000380: 030a 5e3b 33d4 31bc f8c6 a8ba 157b f8bb
00000390: cd20 cdba d767 1ebb 46f5 1cb8 9b78 c23b
000003a0: 509d df3b ab9b e53b 12d0 71bb 2bc0 84bc
000003b0: e3bf 39bb 4baa 5abc bd86 92bc 7b90 993a
000003c0: 3015 13bc 9f3a bcb9 20d8 f3bb fa81 f23b
000003d0: cac0 543a d3c8 be3b dd5d 47bb b717 bfba
000003e0: 7be8 153c 9e84 9e39 9db5 0abb a0eb 3abc
000003f0: c8b4 34bc 5234 6abb d58d 793b a58b f23b
-0.00096967997 -0.005605036 -0.008533589 0.0062491517 0.008067424 -0.0030079938 -0.0008207759 -0.0078781275
0.010316785 -0.012870009 0.006120078 0.0005263606 -0.018694295 0.012734257 -0.0008687361 0.005444722
-0.023584796 -0.0022562156 -0.0010087661 0.01368537 -0.004281204 -0.0020652188 0.010721734 -0.010721767
0.008734853 -0.0027889004 -0.001529107 -0.0012043479 0.003422898 -0.0145061165 0.0025596276 0.006220771
-0.00012593837 0.0036362342 0.0033569583 0.010276775 0.0031954662 0.009665721 0.007992017 0.007100846
-0.0010797199 -0.004239422 -0.0026348475 -0.00044675288 -0.0031562594 0.013483241 8.6075524e-05 -0.00020009084
0.005653767 0.00010070518 -0.009395195 -0.002137678 0.0019412192 0.012299703 -0.022282356 0.004412372
0.006114989 -0.00017310954 -0.00072507275 0.0062522725 0.009653712 0.014789424 -0.0036168217 0.0093569225
-0.0046976604 0.013804744 0.010104145 -0.0012804781 0.0065617575 0.023478167 0.008026463 -0.01621218
-0.011872195 -0.018698955 -0.0024641585 0.0032287445 0.00091809465 0.0150548685 -0.0010695166 -0.004093196
0.004331854 0.007110532 0.011202308 0.02036342 0.008040392 -0.0011104116 0.012660071 -0.00050139433
0.00043452703 -0.008202101 0.0069046463 -0.0062217037 0.0036533808 -0.009563275 0.018393895 0.00028204385
0.0017169258 -0.0012804474 -0.0019018386 -0.010948171 0.00012997653 -0.013236187 0.0006356952 0.00046407385
0.018013015 -0.0019183884 0.020717088 0.004157688 -0.0018159114 0.019311976 -0.0077968 0.0006543105
-0.0035310355 0.0040358515 -0.012942346 0.0008702217 0.0018031488 -0.006315431 0.009010561 0.007944738
0.017280104 3.4028908e-05 -0.004666624 -0.0075684707 -0.009041963 -0.006733303 0.0013856081 -0.0029088187
-0.006492998 -0.015798936 -0.009442485 0.0023488875 0.0032618386 -0.0039072675 -0.0152867455 -0.011493303
0.0018655515 -0.02345256 0.006803063 -0.0037116215 0.012586623 0.010757699 -0.009965748 0.0050753583
-0.013342938 0.011019985 -0.012642172 -0.0039557405 -0.006316037 0.0046454747 0.006345433 0.0016698005
-0.022081602 0.008938971 0.0103426995 0.0040587713 0.0019829567 -0.00536368 -0.0027663175 -0.006437397
0.009069256 -0.010244286 0.0005853259 0.009513808 0.005928788 -0.0035101 0.0066356086 0.004595417
0.013047891 -0.00914818 0.015163398 0.020600207 -0.0095113665 -0.0035358146 -0.013818229 0.007869282
0.008965853 0.0059614456 -0.00512759 -0.0009994957 -0.0018284407 0.0045630913 0.0027217527 -0.004518801
-0.006859225 0.000791003 0.015743569 -0.013320847 -0.021575809 -0.0049925945 -0.011544824 3.2370557e-05
-0.018139375 -0.0010484096 -0.0005446073 -0.0009731127 -0.0056338063 -0.0070325746 -0.0015503763 0.0027220936
0.006490012 0.0044795955 0.010056798 -0.007452519 0.0068727355 0.0031058614 0.012787233 0.0065171206
-0.00021936069 0.0032460322 -0.010237038 0.009376854 0.00091606233 -0.0032808334 -0.01000672 0.0170249
-0.011998972 0.0046393583 0.0046673925 -0.0013322763 0.0005220731 -0.0064357147 -0.00078550196 0.010958156
0.003388048 -0.010853815 -0.001287668 -0.007583032 -0.0015650034 -0.002417078 -3.7421727e-05 0.0059347874
0.006824173 0.0070070825 -0.0036897701 -0.016204914 -0.0028343133 -0.013346265 -0.017886514 0.0011716032
-0.008977219 -0.0003590183 -0.0074415356 0.0074007483 0.0008115886 0.00582228 -0.0030420937 -0.0014579211
0.009149666 0.00030234916 -0.002116538 -0.011408716 -0.01102943 -0.0035736752 0.0038078923 0.007401901

action_model._discrete_distribution.branches.0.bias f4 [6]
00000000: 0000 0000 0000 0000 0000 0000 0000 0000
00000010: 0000 0000 0000 0000
0.0 0.0 0.0 0.0 0.0 0.0

action_model._discrete_distribution.branches.1.weight f4 [3, 128]
00000000: 22d6 483c 73bb e33b e018 803c 5b74 b53b
00000010: 2ba1 6f3b 63d9 c239 1740 593c 0ec2 423b
00000020: 86e3 223b b721 ae3c 93d8 e4bb 993a 03bb
00000030: 3a32 a53a 43e3 8bbb 9dea 1cbc 95da 283c
00000040: eb36 f7ba ca64 df3a 85c3 a03c 45d6 0dbc
00000050: 62e6 a13b 6b61 acb9 4dfb 923c 566d 203a
00000060: d41e ba3b 079f 09bc f3bb ffbb dac9 593b
00000070: 3525 9aba dd76 cbb9 5bdf c4b9 0725 0bbc
00000080: 424f 983a 2b87 c93b 677c 823c 82f9 6c3b
00000090: 2bdc a138 cfd3 19bb 0b00 823c 99a0 443c
000000a0: 333c cebb e26d 4ebc 43fa 0fbb 420c eabb
000000b0: 79b0 baba 0cc6 ab3b fd73 26bc 3251 d7bb
000000c0: f893 d9ba 9923 9cbb 525f 09bc 3ba3 c4ba
000000d0: 188b 653b 3b9b a43a f480 9c3c 00e3 98bb
000000e0: 98e5 303c 16ce 8bba ed40 6a3b 6078 243c
000000f0: 5133 91ba c264 93bb b5c3 74bb 92c4 a7bb
00000100: 3ddb 023b 522e 5dbc 7b31 97bb aab7 4e3c
00000110: 0711 7bbb a258 ea3b 6753 71bb af7f 563c
00000120: b37e 2b3c f34b d23a b6a9 4a3b 258d 443b
00000130: 2ed3 423b 3a6d 52bc ab00 573c a728 8d3c
00000140: 33e3 d5bb 45ed 0a3c d7ab d03b 138d 1c3c
00000150: 3711 cab8 08ef 403b df1d 79ba afd7 bdbb
00000160: 7ae0 6cbb 2b31 6eba 0357 823a 9f9d 15bc
00000170: a800 3c3c d4cf c7ba 1f32 273b 55e8 48bc
00000180: 0c7d 163c 0450 40bb 9bec e3bb 3b49 323c
00000190: 9085 1c3c ffa8 ce3b 0fe0 0ebc a96f 873a
000001a0: 21eb 363a 0221 a23a d254 5cbb f247 dcbb
000001b0: 69ba 213c 7565 d1ba 0929 0cbb ca1e 2dbc
000001c0: 37dd dfbb a7bf ba3b 25bc 38bc 6953 05bc
000001d0: 959e c93b 5775 c3bb 3084 20bc 3eea 80b8
000001e0: 0eee 133c 5fa3 82bc 3028 1dbb d506 6dbc
000001f0: 23a4 34bb 1abe 7c3b 8a0d 943c 358a 573c
00000200: 4dfa 60ba 0872 3fbc e6d4 4a3c c4e5 353b
00000210: 4fc1 d2bb 1a75 e7bb 9fde 973b 1533 013c
00000220: 5b44 8ebc f19c a53b db86 213c ae9f 20bb
00000230: 4367 29bb b3f8 2f3c e94f 08bb f375 0c3c
00000240: 7bbf b83b 099b 033c 8d4c 9c3b 1df4 3c3b
00000250: ad7d f93b 646d 173c fd3a 19bb aa1a 0e3c
00000260: e03e 8eba 6faf b3bb 052c 133a 0f9d 2f3b
00000270: 7a6e 543c 86b4 1839 72ad 51bb 3d0e ceba
00000280: e590 f8bb 3ab4 dc3b bb8f b13b ab18 4b3b
00000290: 12c5 dabb f03c 473a 05c5 593b ac0d 21bb
000002a0: 930d 903b 8c59 c23c 8b97 1638 e4a5 8e3c
000002b0: 8846 0cbc c7c6 cdbb 8fa0 5d3b 4ca1 98bb
000002c0: 73ad 7bba 0749 bab8 58d0 533c a330 16bb
000002d0: eb00 89bc d338 513b 5ac8 16bb ba65 633c
000002e0: 65c6 bebb 9327 50bb c601 9a39 227c 373b
000002f0: 26f2 98b8 c216 d73a 932c 32bc afcf 313c
00000300: 9a02 bcbb 3cc9 c53b 80df 87bc 5a28 603c
00000310: 9682 0bbc 4306 22ba 3825 12bc 8a37 a6bb
00000320: bd31 063c ac9e 24bc b2a1 f43b b7f6 8a3c
00000330: 200c 80bc 06db 063b 0a1e c6ba adcf 8b3c
00000340: 3126 33bb 62b8 17bc f3fe be3b dde0 913c
00000350: 9dfe a83b a956 8b3b f304 fb3b f3aa aa3b
00000360: fa21 5d3c 9c49 413c 3540 e3bb 735a adbb
00000370: 8b46 f539 abbf 70bb eab6 a4bc fb9f fcbb
00000380: e27b efbb bd05 a8ba 3757 68bc 2571 e8ba
00000390: f5dd 77bc 77dd 4fbb 698e 80bb 4781 b2b9
000003a0: 766c a63b adfd e0bb 403a 883c 975d eebb
000003b0: 68b7 de3b cb40 03bb 4b13 4b3c 7b84 ec3b
000003c0: 2f14 733b 0213 a1bb ab9f 873b fdbf 06bc
000003d0: 602e e03b 0f3e 1c3c f27e 77bb 4b39 36bc
000003e0: 88b4 93bb a3a9 503c 0494 1abc 8f50 033b
000003f0: 1f99 f03a 87aa c83b 228b 24bc b338 4e3b
0.0122580845 0.006949836 0.015636861 0.0055375523 0.003656457 0.0003716453 0.013259909 0.0029717716
0.0024854853 0.02125631 -0.0069838255 -0.002002394 0.001260347 -0.004269035 -0.009577421 0.01030602
-0.0018860971 0.0017043587 0.019624481 -0.008657043 0.004940794 -0.00032878979 0.017942095 0.0006119808
0.0056799445 -0.0083997315 -0.0078043877 0.0033231885 -0.0011760356 -0.00038807737 -0.00037550446 -0.008492715
0.00116203 0.0061501465 0.01592846 0.003615946 7.718088e-05 -0.0023472195 0.015869161 0.01200118
-0.0062937974 -0.01259944 -0.0021969236 -0.0071425745 -0.0014243267 0.005242115 -0.01015949 -0.0065709585
-0.0016599884 -0.0047649858 -0.008384543 -0.001500226 0.0035025533 0.0012558469 0.019104458 -0.0046657324
0.010796927 -0.0010666277 0.0035744265 0.010038465 -0.0011077916 -0.0044980953 -0.0037348096 -0.0051198686
0.0019967102 -0.013499813 -0.004614053 0.012617031 -0.003830971 0.007151679 -0.0036823393 0.013091966
0.010467219 0.0016044363 0.003092391 0.0029991355 0.0029727924 -0.012843424 0.013122718 0.017231299
-0.0065273284 0.008479421 0.006368141 0.009555119 -9.635317e-05 0.0029439349 -0.00095030473 -0.0057935338
-0.003614454 -0.0009086306 0.0009944144 -0.009131818 0.011474766 -0.0015244433 0.0025512052 -0.0122624235
0.009185087 -0.0029344568 -0.006955696 0.010881717 0.009553328 0.006306767 -0.008720412 0.001033296
0.0006977786 0.0012369456 -0.0033619893 -0.0067224437 0.009871104 -0.0015975671 -0.0021386764 -0.010566423
-0.006831791 0.0056991163 -0.011275326 -0.008137562 0.0061529377 -0.0059649157 -0.009797141 -6.1471466e-05
0.009028925 -0.015947042 -0.0023980252 -0.014466961 -0.0027563653 0.0038565458 0.018072862 0.01315551
-0.00085822196 -0.011684902 0.0123798605 0.002775536 -0.0064317356 -0.00706352 0.004634693 0.007885714
-0.017366579 0.0050541093 0.009858812 -0.002450924 -0.0025848902 0.010740447 -0.0020799583 0.008573043
0.0056380606 0.008032569 0.0047698678 0.0028832026 0.0076138587 0.009242389 -0.0023381107 0.008673349
-0.0010852478 -0.00548356 0.00056141644 0.0026796495 0.012965793 0.000145631 -0.003199425 -0.0015720796
-0.007585632 0.006735352 0.0054187453 0.0030990045 -0.0066763246 0.0007600328 0.0033229005 -0.00245748
0.0043961494 0.02372434 3.5903922e-05 0.017413087 -0.008561738 -0.0062797996 0.0033817624 -0.0046579
-0.0009600736 -8.8827735e-05 0.012928091 -0.0022917173 -0.01672407 0.003192474 -0.0023007602 0.013879234
-0.0058219903 -0.003176187 0.0002937449 0.0027997573 -7.2930285e-05 0.0016409981 -0.010874885 0.010852738
-0.005737615 0.006035952 -0.016586065 0.013681496 -0.008515021 -0.00061807426 -0.008920006 -0.0050725387
0.0081905695 -0.010047596 0.0074655646 0.016963346 -0.015630782 0.0020577325 -0.0015115154 0.017066801
-0.0027335996 -0.009260269 0.005828732 0.017807418 0.0051573054 0.004252274 0.007660502 0.005208367
0.01349687 0.011797335 -0.0069351443 -0.0052903234 0.000467826 -0.0036735337 -0.020106751 -0.007709501
-0.007308469 -0.0012819093 -0.01418095 -0.0017733915 -0.015128602 -0.0031717697 -0.0039232266 -0.00034047125
0.0050788475 -0.006866178 0.016629338 -0.0072743404 0.006796766 -0.0020027633 0.0123947365 0.0072179413
0.0037090888 -0.004915596 0.004138907 -0.0082244845 0.006841466 0.00953628 -0.0037764874 -0.011122058
-0.004507605 0.012735757 -0.009434704 0.002003703 0.001835618 0.006123844 -0.0100429375 0.00314669

action_model._discrete_distribution.branches.1.bias f4 [3]
00000000: 0000 0000 0000 0000 0000 0000
0.0 0.0 0.0

action_model._discrete_distribution.branches.2.weight f4 [3, 128]
00000000: 43f3 873c 7da1 65bc d1d6 333c f8d1 e4bb
00000010: 1bd4 40bc 3b69 2e3a 3245 d13b 42e5 323c
00000020: 71c9 363b 68dd 833b 7a3d e239 ee4a b7bb
00000030: ceed 123c 5724 143b 1fcf c4bb eb00 52bb
00000040: 971d a1b9 23a7 c93b 910c 82bc bbb9 963c
00000050: 95f4 5f3c cafc 7ebc 9b77 e93b 4f5a 183b
00000060: 7519 c2ba 31df 02bb 3728 66ba 4b38 923b
00000070: 8dd4 ecbb 302a fd3a 191a 353b fe90 01bc
00000080: 32b0 b9bb ce2b 913a 5212 d1bb e598 dd3b
00000090: 5c53 9f3b 3ca8 30ba fb36 5cbb 73d2 623c
000000a0: 256d 493c 025e 073c 507d 593b 9296 783b
000000b0: da7d 3b3c f4dc 493b f191 843b 0a8a a138
000000c0: c378 e4bb c6c2 bcbb 00e4 a23c 18c1 8c3c
000000d0: ea6c caba d8de 2bbb 45c6 fb3b 4a5c 333c
000000e0: 0eff 393c d267 103b 3f84 51bc 7b30 7c3a
000000f0: 1b16 df3a 8d83 a93c 9069 b4bb e816 f63b
00000100: c970 933a fb4c debb ec58 96bb 84bc 0cbc
00000110: 27f7 873b bee2 2ebc cd0a 4e3b 3db8 babc
00000120: 1ca7 c7bb c376 f13a 2f1e 7d3c 5cea 40bb
00000130: 9757 e03a 6abc 5a3a c77d 2239 ce86 a7ba
00000140: 82cd 52bc 62d5 bd3a dd5f e9ba cf18 293b
00000150: e299 643a 463e 33bc 8933 05bc 5b95 c13b
00000160: af7a 683c 2907 2a3c 4d20 4ebc 92ea 9fbb
00000170: b097 503c edd1 74ba c918 253c e36f caba
00000180: ab37 37bb bfce 6dba c31d 463c 06c2 143c
00000190: 7f11 2bbc 93b1 cebb d2c3 1c3c 72ce 823c
000001a0: 23df 2e3a 2cc5 8d3c 1541 98bb e509 73bb
000001b0: 609a 183a 6b64 9eba ab9d ab3c a688 033b
000001c0: 3d0e ce3a 0fb1 49bb d778 13bc dfe0 203b
000001d0: ba33 453c 1f7f c8bb 2750 2d3c d2ec 703b
000001e0: 739f d43b 2ad1 de3b f7ed 263c 6cf2 03bc
000001f0: 2fdd 47bb f325 f6ba 3c0d 9dbb 2755 c43b
00000200: d96a 2dbc 4435 c83b 4fa2 3dbc 8797 b9bb
00000210: bbe8 1bba a6f9 0fbb 31fc a53c a85e eaba
00000220: 5c8b 13bc ea8b ceba 8963 93bc cdd9 abbb
00000230: 436f 20bc 1c23 33bc bc9f 84bb 6034 7639
00000240: 099e 093b 7907 cc3b 328c 35bc 6a89 6cba
00000250: db16 143c 9db0 343b 2fdb e5ba 07aa 413b
00000260: fcea be3b 8c68 1d3c 3cb3 053c 3282 12bc
00000270: 3a00 e83b c1af 873b 9e87 9abb 7f58 36bc
00000280: 4c65 02bc 0f53 7abc 857d f8bb 4bd4 5abc
00000290: 1f0f 3d3c 62ec 4bbc 4b8c b0bb b7b9 53bc
000002a0: ae5c 273b 518b 80bb fa49 923c 6b85 83bb
000002b0: 7dfd f23a b05d 8abb c74e 813c bcc9 14bb
000002c0: 74b4 c03c 98ac c03b 12dd 75b9 1bdb 6b3a
000002d0: fd60 a5bb dbaf 96ba b26d 0a3b 8b15 3bbc
000002e0: b53e fe3b 5b74 11bc b096 d3bb 9af5 49bc
000002f0: 3f09 b8bb 9862 a5ba 0e3e 8c3a 3893 40bc
00000300: 2431 ad3b 8ba0 a03a a837 b6bb d694 9ebb
00000310: a90e c9bb 2578 12bc b7c0 f6bb ad85 02bc
00000320: 6883 6e3b 4400 2d3c 4909 163c 6889 ff3b
00000330: a83d fbbb fb4f f9bb ead0 8a3a 2521 373b
00000340: e395 9aba 6b55 7fbb f30d 843b 835e 03bb
00000350: 7564 3d3b b3f4 2ebb 682e e93b ef98 e93a
00000360: 77fc fcbb 8d4e f93b 5835 3ebc d43f 8a3c
00000370: 5250 f33b 57db b13b b7fb 9a3c 5783 94bc
00000380: 068f 3d3c 3065 40bc 9a0e f4ba 9631 32bc
00000390: 4f98 9d3c 9ce9 81bb ae39 ca3b cfc7 2a3b
000003a0: d2f1 adba 9a35 f5bb cf56 3a3c 25cc 843c
000003b0: 3753 853c 86f6 973b a5c3 573c 6f41 7f3c
000003c0: 7be0 473b 1219 063c ed3d 8dbc 485a 663c
000003d0: 3871 563c f790 21ba d5ed ebbc 835b aebb
000003e0: 3041 123c 3238 e2ba 5c00 c9bb 12b9 a43b
000003f0: 187b 35bc 48ff 9e3b c080 01bb 1b9a 9f3b
0.016595488 -0.014015553 0.010976509 -0.006983038 -0.01176932 0.0006653254 0.0063864226 0.010918917
0.0027891065 0.0040241964 0.00043151883 -0.005593649 0.00896783 0.0022604668 -0.006006136 -0.0032044004
-0.0003073036 0.0061539575 -0.015875133 0.01839911 0.013669153 -0.015563199 0.007124854 0.0023247187
-0.0014808612 -0.0019969458 -0.0008779796 0.004462277 -0.0072274865 0.0019314941 0.0027633964 -0.007908104
-0.005666756 0.0011075677 -0.006380358 0.006762611 0.004862232 -0.0006738936 -0.0033602107 0.01384412
0.0122940885 0.008262159 0.0033186264 0.0037931544 0.01144358 0.0030801864 0.004045718 7.70279e-05
-0.0069724037 -0.0057605235 0.01988411 0.017181918 -0.0015443836 -0.0026225355 0.0076835477 0.010947296
0.011352314 0.0022034538 -0.012787878 0.0009620261 0.0017020138 0.020692611 -0.005505748 0.007510055
0.0011248823 -0.006784079 -0.004588237 -0.0085898675 0.004149336 -0.010674177 0.0031439543 -0.02279293
-0.006092919 0.0018422235 0.015449091 -0.0029436564 0.0017115948 0.0008344116 0.0001549638 -0.0012781264
-0.01286638 0.0014483149 -0.0017805059 0.002580214 0.000872044 -0.01094014 -0.008129963 0.005907697
0.014189406 0.010377684 -0.012580943 -0.004880258 0.012731478 -0.00093391427 0.01007671 -0.0015444722
-0.0027956765 -0.000907164 0.012092057 0.009079462 -0.010441183 -0.0063077896 0.009568172 0.015967581
0.0006670823 0.017305933 -0.0046464303 -0.0037084755 0.00058213435 -0.001208437 0.020949205 0.0020070462
0.0015720796 -0.00307757 -0.009000978 0.0024548096 0.012036258 -0.0061186696 0.010578192 0.003676225
0.0064887344 0.0067998366 0.010188571 -0.008053403 -0.0030496826 -0.001877962 -0.0047928374 0.0059915963
-0.0105845565 0.0061098654 -0.011574342 -0.0056638154 -0.00059474603 -0.002196887 0.020261856 -0.0017880993
-0.009005394 -0.001575825 -0.017991798 -0.0052444697 -0.009792152 -0.010933664 -0.004047362 0.000234799
0.0020998737 0.0062264767 -0.011080788 -0.0009023162 0.009038652 0.002757109 -0.0017536635 0.0029550807
0.005826352 0.009607445 0.008160409 -0.008942174 0.007080105 0.0041408245 -0.004715874 -0.011129498
-0.007958721 -0.015278592 -0.0075833225 -0.013356279 0.01153925 -0.012446495 -0.005387818 -0.012922696
0.002553742 -0.003922858 0.01785754 -0.0040137074 0.001853868 -0.004222594 0.015784634 -0.002270325
0.023523547 0.00587995 -0.00023447376 0.0008997188 -0.0050469623 -0.0011496501 0.0021122512 -0.01141871
0.00775894 -0.008877839 -0.0064571723 -0.012326622 -0.0056163366 -0.0012617884 0.0010699646 -0.01175385
0.005285399 0.0012254877 -0.005560834 -0.00483952 -0.006135781 -0.0089397775 -0.0075302976 -0.007966441
0.0036394242 0.010559145 0.009157487 0.0077983625 -0.007667262 -0.0076084114 0.0010590826 0.002794334
-0.0011793937 -0.0038960825 0.004029983 -0.0020045347 0.0028898988 -0.0026696145 0.0071161278 0.0017822067
-0.007720526 0.007608241 -0.011609398 0.016876139 0.0074253464 0.0054277587 0.018918855 -0.018129034
0.011569744 -0.011742875 -0.0018620074 -0.01087608 0.019237665 -0.003964616 0.0061714267 0.0026059037
-0.0013270921 -0.0074831964 0.011373236 0.016210625 0.016275031 0.004637542 0.013169204 0.015579565
0.003049879 0.008184688 -0.017241443 0.014059611 0.013088517 -0.0006163264 -0.02879993 -0.0053209676
0.008926675 -0.0017259179 -0.006134076 0.005026945 -0.011076711 0.0048522092 -0.001976058 0.0048706657

action_model._discrete_distribution.branches.3.weight f4 [48, 128]
00000000: 6d0a d3bb 3492 2b3c dfae 3ebb 4c00 283c
00000010: 6706 1bbc 9367 663c da8e 753c 0d57 35bc
00000020: bac1 fc3b 2326 4b3c 26a7 b8bb 73d9 1cbc
00000030: e22c 7e3c a3a7 983b 4d58 813b 8f13 56bc
00000040: 45f2 c8ba b997 91bb cbe9 a23b 6839 673b
00000050: 4fcb b5b9 d185 03bb 1e74 2ebc 9340 c53b
00000060: 3d54 4e3b bdb1 c2bb c5f3 c6bb 7054 3fba
00000070: 9521 b63b 6c46 00bb 7b6f e63b bb72 05bc
00000080: f463 b9bc 2d17 c43b c373 f63a efde a0bc
00000090: 7d3b d5ba d188 c4bb d35f 46bc f789 bdbb
000000a0: 327f 1d3c 63a2 49bc 0719 28b8 f7f6 ae3b
000000b0: e337 853b 3bea 7abc da40 0f3b 9fe7 1f39
000000c0: 54de 9d3b 9aa6 513c db1a 1bbc 5748 4a3c
000000d0: d3c3 363c dd97 303c f2b2 fbba 2343 9a3b
000000e0: bad8 c93b 4149 10bc 2491 273c 8b13 ea39
000000f0: 5e0f 2b3c d50e 5cbc 7e1f 32bb 8fb5 a8bb
00000100: b775 b93b 896b 483c 6d1b 2dbc 0dc6 3d3a
00000110: 4fa0 baba f630 9ebb 4c81 0bbc c320 08bc
00000120: a5d9 d0b8 9e66 babc b811 6bbc 9220 78bb
00000130: 6bf9 073c 83f2 2abc 88b3 0c3c df93 11bb
00000140: 897a af35 67ca 63bc 7002 bc3a 60a1 c53b
00000150: e2e3 933c f719 f8bb abc6 af3b a52b 1d3a
00000160: 8706 9b3b b743 bcba db79 5c3c af4d f5ba
00000170: 42e5 67bc 0e6f 23ba 4598 f8bb c84e 5834
00000180: 2454 1f3c 8b84 3a3c 1fdf 513c 1ee8 033c
00000190: f842 90bc b0c7 99ba f34c 8dbb 3066 7aba
000001a0: 7abe 51bc da82 d739 e6c2 933c 0876 5ebc
000001b0: 6e0c 82bb c696 463b 1335 833c 76ea 34bc
000001c0: 438d fc39 88a0 d7bb c8db 37bc 5873 3e3c
000001d0: e229 d43b c3c7 0e3b 783e d03c cbea 113b
000001e0: 552b e4bb 61dc ba3a e72f 583b 6feb 863c
000001f0: f32f c43a 9722 29bc ccb5 a6bb d6df 1bba
00000200: ccb4 05bc 0c08 9139 7d0c 98bb 553b d4ba
00000210: 67f7 3e3b ef70 03bc 4bc9 d7bb ad40 603c
00000220: 9573 783c 800c 6cbc 2c54 0fbc 3650 1fbb
00000230: 45d5 7ebb 5017 01bc d790 f53b 97b1 1ebb
00000240: bc09 cc3b 11ea a03b 3d71 4ebc 7bc4 503c
00000250: a792 3a3c 2f57 6339 0aef e33a adc6 f83b
00000260: 4046 55bc 8f8f ab3c c9f8 8ebb a63b 32bc
00000270: a3fc 473b 35d3 a8b9 68cf e43b 6256 a9bb
00000280: 46a6 98bc f156 1dbc bd49 16bc f11f 23ba
00000290: ff19 86bc 74b3 11ba af27 1ebc 11df a8bb
000002a0: 17c0 7fbb 83e6 763b c50b 3fba 53dd 4a3b
000002b0: 7560 3b3b aa50 ef3b 2702 703b ebe9 903a
000002c0: c2c8 d23b dfc2 99bb bfa9 863b eeee 993b
000002d0: cb66 213b af17 af3b 379c 9c3c 8fc7 94bc
000002e0: 0878 793c cfc1 49ba a584 b1ba 92a5 76bc
000002f0: 1528 c6bb c7c4 a0bb ae66 b63b 1e72 0fbb
00000300: c90d 15bb 97d3 abbb 6820 f3ba ea78 54bc
00000310: 43b0 643b 5aa9 033c 4183 393c 52bc ecbb
00000320: 71ed 9a3a 776f 1dbb 4d64 e5ba bbd2 9b3a
00000330: 685f 553b 7145 3a3c a3bd e63b 5e34 0fba
00000340: 0fd3 853c a337 e5ba 03ce 473b b066 dc3a
00000350: 3529 4a3b 931c ca3b f9f1 863b b76a 483c
00000360: 7cbe 1d3b 181c f43b 8a58 f2bb b96d 9f3b
00000370: 9036 e0bb b3a5 8e3b 63c7 3dbc 935c c6bb
00000380: 305e f4bb b307 00bb 2abc 333c da00 0f3b
00000390: 7436 a83b 9eb8 b6bc c150 28bc 31a5 26bb
000003a0: 2838 ddbb b756 3e3c 6613 c53a a2ba 053c
000003b0: f3c8 61b9 270b 963b 3d26 b93b 1ff9 8d3c
000003c0: 8bb5 5bbc 4fc5 af3b 4fbc 00bc 77ed 903b
000003d0: c44a 3d3c 5ef4 8abb 6cda 843c a213 8f3b
000003e0: f530 03bc 22f3 943c 7c34 3c3b 2bf6 a53b
000003f0: ebb1 343a 9a5b cdba 67a9 acbb 1740 c1bc
-0.006440452 0.010471869 -0.002909593 0.010253977 -0.009461976 0.01406278 0.014987672 -0.011068118
0.0077135237 0.012399229 -0.00563516 -0.009573328 0.015513631 0.0046586557 0.003947294 -0.013066187
-0.0015330991 -0.0044431356 0.004971718 0.003528202 -0.00034674487 -0.0020068774 -0.010647802 0.0060196607
0.0031483315 -0.005941598 -0.00607154 -0.0007298654 0.0055582025 -0.0019573225 0.0070323325 -0.00814503
-0.02263067 0.005984208 0.001880281 -0.019637553 -0.0016268339 -0.005997755 -0.012107807 -0.005784269
0.009612845 -0.012306782 -4.007763e-05 0.005339499 0.0040655 -0.015314634 0.0021858723 0.00015249707
0.0048177633 0.012796069 -0.009466852 0.012346349 0.011155087 0.0107783945 -0.001920311 0.0047077104
0.006159869 -0.008806528 0.010227475 0.0004464652 0.010440676 -0.013431271 -0.0027179415 -0.0051485966
0.0056597847 0.01223267 -0.010565621 0.00072392897 -0.001423845 -0.004827614 -0.0085147135 -0.008308592
-9.958752e-05 -0.02275401 -0.014347486 -0.003786121 0.008299212 -0.010433796 0.008587725 -0.0022213382
1.3074178e-06 -0.013903237 0.0014343988 0.0060312003 0.018052999 -0.0075714546 0.0053642592 0.0005995578
0.0047310027 -0.0014363442 0.013456787 -0.0018715168 -0.01415378 -0.0006234505 -0.0075865113 2.0145228e-07
0.0097246505 0.01138414 0.012809544 0.0080509465 -0.017610058 -0.0011732485 -0.0043121516 -0.000955197
-0.012801761 0.00041105488 0.01803727 -0.0135779455 -0.003968767 0.003030227 0.016016519 -0.011042228
0.00048170434 -0.006580416 -0.0112218335 0.01162418 0.0064747194 0.0021786548 0.025420412 0.0022265192
-0.0069631734 0.0014256352 0.0032987536 0.016469685 0.0014967903 -0.010323188 -0.00508759 -0.0005946135
-0.008160781 0.0002766255 -0.0046401606 -0.0016191999 0.0029139163 -0.008022531 -0.0065852753 0.013687295
0.015164276 -0.014407277 -0.0087480955 -0.0024309284 -0.0038884443 -0.007879093 0.007494073 -0.0024214739
0.0062267464 0.0049107154 -0.01260024 0.012742157 0.011387504 0.00021680885 0.0017389965 0.0075920434
-0.013017237 0.020942478 -0.0043631536 -0.010878479 0.0030515573 -0.00032200819 0.0069827326 -0.0051677683
-0.018633973 -0.009603248 -0.009172854 -0.0006222716 -0.016369818 -0.00055580516 -0.009653016 -0.0051535447
-0.0039024407 0.0037674017 -0.00072878256 0.0030954673 0.0028591428 0.007303317 0.0036622377 0.0011056041
0.0064326236 -0.00469242 0.004109591 0.004697672 0.002462792 0.0053433995 0.019117458 -0.018161563
0.015226372 -0.0007696421 -0.001354356 -0.0150541235 -0.0060472586 -0.00490627 0.0055664396 -0.0021888088
-0.0022743812 -0.0052437293 -0.0018549087 -0.012968281 0.00348951 0.008035982 0.011322797 -0.007224598
0.0011820031 -0.0024022737 -0.0017501205 0.0011888364 0.0032558087 0.011369095 0.0070416494 -0.00054628204
0.016335992 -0.0017487895 0.0030487783 0.0016815271 0.0030847315 0.006167957 0.004118201 0.012232474
0.0024069836 0.007449638 -0.0073958086 0.004865375 -0.006842442 0.004353249 -0.011583182 -0.006053516
-0.007457517 -0.001953584 0.010970155 0.0021820576 0.0051334444 -0.02230483 -0.0102731595 -0.0025428052
-0.006751079 0.011617354 0.0015035688 0.0081621725 -0.00021532532 0.004578966 0.0056503103 0.017330704
-0.013409982 0.005364097 -0.007857396 0.0044228393 0.01155347 -0.0042405566 0.016217433 0.004366354
-0.008007278 0.018182341 0.0028717807 0.005064746 0.0006892967 -0.0015667558 -0.005269218 -0.02359013

action_model._discrete_distribution.branches.3.bias f4 [48]
00000000: 0000 0000 0000 0000 0000 0000 0000 0000
00000010: 0000 0000 0000 0000 0000 0000 0000 0000
00000020: 0000 0000 0000 0000 0000 0000 0000 0000
00000030: 0000 0000 0000 0000 0000 0000 0000 0000
00000040: 0000 0000 0000 0000 0000 0000 0000 0000
00000050: 0000 0000 0000 0000 0000 0000 0000 0000
00000060: 0000 0000 0000 0000 0000 0000 0000 0000
00000070: 0000 0000 0000 0000 0000 0000 0000 0000
00000080: 0000 0000 0000 0000 0000 0000 0000 0000
00000090: 0000 0000 0000 0000 0000 0000 0000 0000
000000a0: 0000 0000 0000 0000 0000 0000 0000 0000
000000b0: 0000 0000 0000 0000 0000 0000 0000 0000
0.0 0.0 0.0 0.0 0.0 0.0 0.0 0.0
0.0 0.0 0.0 0.0 0.0 0.0 0.0 0.0
0.0 0.0 0.0 0.0 0.0 0.0 0.0 0.0
0.0 0.0 0.0 0.0 0.0 0.0 0.0 0.0
0.0 0.0 0.0 0.0 0.0 0.0 0.0 0.0
0.0 0.0 0.0 0.0 0.0 0.0 0.0 0.0
