Assets/Scripts/RL/results/MyTrainingRun/Character/Character-51.pt (torch, 334236 bytes, 18 tensors)

discrete_act_size_vector f4 [1, 4]
00000000: 0000 c040 0000 4040 0000 4040 0000 4042
6.0 3.0 3.0 48.0

network_body._body_endoder.seq_layers.0.weight f4 [128, 155]
00000000: 60cc b0bd 4c3c 7d3d dc16 90bc 4e38 9b3d
00000010: aa3b 863b 0085 1cbe 9d0b 8bbd 27f4 393b
00000020: 309a 72be 34b2 0fbc 35f3 04bd 8c16 d2bd
00000030: b56c 30bd 81ea cc3d 081c 2abe 37c8 a4bd
00000040: 7d8b 22bd 4956 81bb fd1f 2b3e 1579 413d
00000050: 0b5e eebb 174d d3bd f8dc db3b 9e0a bebd
00000060: ed52 773c b659 cbbc 1c7a a43d 8875 98bd
00000070: bfa5 32bb e0bb d8bd 069d a53c 8da7 393d
00000080: 316a b03d 9568 c13d c12d 023e 5ca1 a1ba
00000090: 8be5 9d3c 9dcb a1bd 18ef e7bc 10cc 253e
000000a0: 79b7 00bd a1d9 6dbd 412a 86bd 37b0 dd3b
000000b0: c81f 993c e9a1 32bd 099c abbc c488 133d
000000c0: 7dc0 a03d 6335 e13d 626b 143d 599d 863d
000000d0: 0498 91bd 90c2 e73d 6947 2e3e 0a27 193d
000000e0: 720e e8bd 1916 873d 2c6f cf3b c42e cb3d
000000f0: 605d e0ba 28b1 603e c994 0dbd 6a1c a33c
00000100: dde5 623d 4c6d 69bd 6f0e 1dbe 18af 0bbe
00000110: ed27 54be 2e86 423c e148 6f3d bead f9bc
00000120: 6b33 363e 4322 56bd 024a a53d d54a aabd
00000130: 3702 fdbd 1e4b c13c f4ee 4ebc f44c e6bd
00000140: 5bb8 9e3d bba2 1a3c e0a6 86bd ad92 bd3d
00000150: 4565 88bd 8c05 b4bd 4560 443d a7ba c9bd
00000160: acf0 b8bd a4a6 72bd e20c 083b d775 8fbd
00000170: 0d1b d33c b65f 463d 6335 77bb c8a3 04be
00000180: 2662 fc38 5e31 5ebd d6d2 eabc 6eaf 45bd
00000190: b967 fbbd 5aee 00bd 56bd b3bc 89f4 043e
000001a0: b4f9 583d f48f d6bb c4b7 9cbd 2163 d5bc
000001b0: e793 a3bd dd10 fd3c 7970 013e c95c 383e
000001c0: 6706 24bd a172 c33c ef3e d5bd b6cc cabc
000001d0: f4c0 69bc 4a16 043c f8f1 6d3a 6780 b33d
000001e0: 566e 14be 1f5f 7b3c d24d c63d ad9c e73d
000001f0: 6431 a53d 3b40 d13c d884 db3d 65f6 9fbc
00000200: 7fba 44bd a06c a0bb 7cc8 083e ea50 20be
00000210: f4a4 7a3d fa1d 8b3d f68c cb3a 4d4e b63d
00000220: f38a 8c3d 932f e3b8 3c71 85bc 2e77 253d
00000230: 6d97 b13d c0cc 38be fa6e 273d 121b bdbd
00000240: ce32 88bd 5332 dcbc 9286 69bd d20d adbd
00000250: 910d c03c 88b5 f8bd b167 58bd dd02 b8bc
00000260: 1751 233d 064f 5dbc 2e5f 2abd 9507 ec3d
00000270: cea4 e8bb 6b52 09be 83ba 11bd 75a3 ba3b
00000280: fcd8 bdbd 9efc c4bc a153 2e3d 209e d23d
00000290: fc2b 213d d879 b63b dc34 23bc 287e 4d3b
000002a0: b44d 82bc 16b7 b63c 4ef9 6fbc 1edb 963e
000002b0: 28b4 a3bd d1d7 113d 18e5 e23b 760d 2ebc
000002c0: 921c f0bc 6dc1 bc3d 2641 093d dd6b 843d
000002d0: 1068 82bd 8cdd a03d e135 a13d 2cb3 463a
000002e0: f1cf abbd c620 8d3c 4d2c d43c 4c14 d7bc
000002f0: 2971 d03d 8169 8dbd 15b1 8b3d 3a00 17bd
00000300: 4aa2 893d c3a9 86bc 217a 0e3d 8c7e 81bd
00000310: e232 c13d 5a4a c4bc c9fc 02be 7b7f 5ebd
00000320: 35d3 fa3a 1e01 b6bc c943 6ebd b6af 0abd
00000330: c07d d43b bd40 e9bd 2942 e13d adff 65bd
00000340: 6cf2 f93d 57ca bcbc e040 9ebd 6b71 943d
00000350: 1ee6 0a3d 9747 1abd 8ace 4f3d 967e 15bd
00000360: 921a 2abd 9805 a13d 101b d0bc d59d 1ebd
00000370: 740e 92bd bcd4 bfbd 1bf0 373d 9542 193d
00000380: 108e 76bd 8dbb 76bd 592f 41be cb33 7a3d
00000390: bdb0 19be 7de0 08bd e6f3 be3b 94bf e03d
000003a0: e61d aabc 3aa0 c6bd d416 06be 31c4 603d
000003b0: 110f 803d 92ec 323e 76ae bfbd 378e bd3d
000003c0: 18d8 47bd 296e c6bd c786 cc3c 5341 28be
000003d0: 7751 98bc dba1 0f3d 4c89 043d d30f 3e3d
000003e0: 8c2f a9bd 98a4 e7bd 4825 333d 5567 2ebd
000003f0: 2444 1abe 4d09 cfbd 7e4e 46bc af7c 7cba
-0.086327314 0.06182508 -0.017589025 0.07579099 0.004096468 -0.1528511 -0.067893244 0.0028374286
-0.2369163 -0.008770514 -0.032458503 -0.10258207 -0.04307242 0.100056656 -0.16612256 -0.080460005
-0.039683808 -0.0039470536 0.16711421 0.047234613 -0.0072743944 -0.10317438 0.006709691 -0.09279369
0.015095455 -0.024823051 0.08031103 -0.07444292 -0.0027259437 -0.10582709 0.020216476 0.045325805
0.086140044 0.094437756 0.12712766 -0.0012331414 0.019274494 -0.07900164 -0.028312251 0.16191125
-0.031424973 -0.058068875 -0.06551028 0.006765391 0.018691912 -0.04361144 -0.020948427 0.0360191
0.07849214 0.10996511 0.03623522 0.065729804 -0.07109073 0.11316407 0.17019428 0.037390746
-0.1133088 0.06596012 0.0063303914 0.09921029 -0.0017117672 0.2194258 -0.03456572 0.01991101
0.055394996 -0.056989 -0.15337537 -0.13641012 -0.20718355 0.011872811 0.058419112 -0.030478355
0.17793052 -0.05227877 0.080707565 -0.08315054 -0.12353938 0.023595389 -0.012630213 -0.112451464
0.07750007 0.009438212 -0.06574798 0.09256492 -0.06659941 -0.087901205 0.047943372 -0.09850054
-0.090302795 -0.059240952 0.0020759632 -0.07004898 0.025769735 0.04843112 -0.003772103 -0.12953103
0.00012034578 -0.0542463 -0.028664988 -0.048263006 -0.12275643 -0.03147731 -0.021940868 0.12983908
0.05297251 -0.0065479223 -0.07652238 -0.026048245 -0.079871945 0.03089183 0.12640561 0.18004145
-0.04004517 0.02385837 -0.10412394 -0.024755817 -0.014267195 0.008061955 0.00090768887 0.08764725
-0.14495215 0.015342503 0.09682812 0.113091804 0.08066061 0.025543323 0.10718697 -0.01952667
-0.04802942 -0.0048957616 0.13357729 -0.15655866 0.061192468 0.06792827 0.001552968 0.089016534
0.0686244 -0.00010833065 -0.016289346 0.04039686 0.0867146 -0.18046856 0.04087732 -0.09233679
-0.06650315 -0.026879465 -0.057013102 -0.08449902 0.023443969 -0.12143999 -0.052833263 -0.022462303
0.039872255 -0.01350761 -0.041594677 0.11524884 -0.0070997244 -0.13410346 -0.035578262 0.005695755
-0.09269902 -0.024046239 0.042560223 0.10284066 0.039348587 0.005568724 -0.009961333 0.0031355713
-0.015906192 0.022304099 -0.014646841 0.29464048 -0.079933465 0.03560621 0.0069242828 -0.0106233265
-0.029310498 0.092165805 0.033509396 0.06465886 -0.063675046 0.07854757 0.07871605 0.0007579799
-0.08389271 0.017227542 0.02590003 -0.026254795 0.101778336 -0.06904889 0.06820885 -0.03686545
0.06720407 -0.01643837 0.03478444 -0.06322965 0.09433533 -0.023961235 -0.12791742 -0.054320794
0.0019136431 -0.02221733 -0.058170114 -0.033858977 0.006484717 -0.11389301 0.10998947 -0.056152035
0.122044414 -0.023045702 -0.07727218 0.07248195 0.033910863 -0.03766593 0.05073408 -0.036497675
-0.041529246 0.07862395 -0.02540353 -0.03872474 -0.07131663 -0.09366748 0.044906717 0.037417013
-0.060194075 -0.060237456 -0.18865718 0.06108455 -0.15008827 -0.033417214 0.005827415 0.10974041
-0.02076621 -0.096985295 -0.13094646 0.054874603 0.06252874 0.17473057 -0.09359448 0.09255641
-0.048790067 -0.0968898 0.02496661 -0.16431169 -0.018593533 0.035066467 0.0323575 0.04640181
-0.08261022 -0.11310691 0.043736726 -0.042579014 -0.15065056 -0.10109196 -0.012103675 -0.00096316164

network_body._body_endoder.seq_layers.0.bias f4 [128]
00000000: 0000 0000 0000 0000 0000 0000 0000 0000
00000010: 0000 0000 0000 0000 0000 0000 0000 0000
00000020: 0000 0000 0000 0000 0000 0000 0000 0000
00000030: 0000 0000 0000 0000 0000 0000 0000 0000
00000040: 0000 0000 0000 0000 0000 0000 0000 0000
00000050: 0000 0000 0000 0000 0000 0000 0000 0000
00000060: 0000 0000 0000 0000 0000 0000 0000 0000
00000070: 0000 0000 0000 0000 0000 0000 0000 0000
00000080: 0000 0000 0000 0000 0000 0000 0000 0000
00000090: 0000 0000 0000 0000 0000 0000 0000 0000
000000a0: 0000 0000 0000 0000 0000 0000 0000 0000
000000b0: 0000 0000 0000 0000 0000 0000 0000 0000
000000c0: 0000 0000 0000 0000 0000 0000 0000 0000
000000d0: 0000 0000 0000 0000 0000 0000 0000 0000
000000e0: 0000 0000 0000 0000 0000 0000 0000 0000
000000f0: 0000 0000 0000 0000 0000 0000 0000 0000
00000100: 0000 0000 0000 0000 0000 0000 0000 0000
00000110: 0000 0000 0000 0000 0000 0000 0000 0000
00000120: 0000 0000 0000 0000 0000 0000 0000 0000
00000130: 0000 0000 0000 0000 0000 0000 0000 0000
00000140: 0000 0000 0000 0000 0000 0000 0000 0000
00000150: 0000 0000 0000 0000 0000 0000 0000 0000
00000160: 0000 0000 0000 0000 0000 0000 0000 0000
00000170: 0000 0000 0000 0000 0000 0000 0000 0000
00000180: 0000 0000 0000 0000 0000 0000 0000 0000
00000190: 0000 0000 0000 0000 0000 0000 0000 0000
000001a0: 0000 0000 0000 0000 0000 0000 0000 0000
000001b0: 0000 0000 0000 0000 0000 0000 0000 0000
000001c0: 0000 0000 0000 0000 0000 0000 0000 0000
000001d0: 0000 0000 0000 0000 0000 0000 0000 0000
000001e0: 0000 0000 0000 0000 0000 0000 0000 0000
000001f0: 0000 0000 0000 0000 0000 0000 0000 0000
0.0 0.0 0.0 0.0 0.0 0.0 0.0 0.0
0.0 0.0 0.0 0.0 0.0 0.0 0.0 0.0
0.0 0.0 0.0 0.0 0.0 0.0 0.0 0.0
0.0 0.0 0.0 0.0 0.0 0.0 0.0 0.0
0.0 0.0 0.0 0.0 0.0 0.0 0.0 0.0
0.0 0.0 0.0 0.0 0.0 0.0 0.0 0.0
0.0 0.0 0.0 0.0 0.0 0.0 0.0 0.0
0.0 0.0 0.0 0.0 0.0 0.0 0.0 0.0
0.0 0.0 0.0 0.0 0.0 0.0 0.0 0.0
0.0 0.0 0.0 0.0 0.0 0.0 0.0 0.0
0.0 0.0 0.0 0.0 0.0 0.0 0.0 0.0
0.0 0.0 0.0 0.0 0.0 0.0 0.0 0.0
0.0 0.0 0.0 0.0 0.0 0.0 0.0 0.0
0.0 0.0 0.0 0.0 0.0 0.0 0.0 0.0
0.0 0.0 0.0 0.0 0.0 0.0 0.0 0.0
0.0 0.0 0.0 0.0 0.0 0.0 0.0 0.0

network_body._body_endoder.seq_layers.2.weight f4 [128, 128]
00000000: dda2 2b3e 60e9 95bb 56b0 d53d fbac 75bd
00000010: 9c76 c63d 190f 1abd 4a24 17bd cfed a43d
00000020: f290 a23c 850c 7fbd 0909 88bd c70f af3d
00000030: 291b e5bd dd8e bdbc 3639 063d 2764 88bd
00000040: 41a1 b43c afd0 0b3d 2f80 4c3e 5c97 1b3d
00000050: 0eb7 8abd e986 1bbd 5bb1 a13d 9e1a df3b
00000060: eb7a d5bd 6b1a 8a3c f422 cfbd 16ce 7ebe
00000070: 2158 323e 9add 413d 8a95 d3bc 18ba a5bd
00000080: fe6e cd3d da4a d53c 0e7a adbd bce0 663d
00000090: c122 b33c 8244 9fbc 5447 94bd 2afa d43c
000000a0: 78a7 c7bd 4d33 07bd 0098 023e 7daa 0bbc
000000b0: 231b babd b598 cd3d 15fe 293e 4914 94bd
000000c0: 3fe8 8b3d 242b 003e 6555 2abe fd99 73bd
000000d0: de8e a03c 1651 c0bd afbc d0bc c020 513c
000000e0: be6b 903b 0ede 3ebb 2df0 53bd 92fe 823d
000000f0: 1c13 f33d b05f 4dbd 6599 0f3e 0714 c0bc
00000100: c2b3 ecbb 14e6 29bc 898a ecbb d092 acbd
00000110: ce93 9cbc a362 1f3e ed80 483d 7a40 fcbd
00000120: 4606 be3d abd1 883d ee1a dfbd f876 033d
00000130: d7ef 33bd e32c 67bd 486a c5bb b213 2e3d
00000140: e593 b53d d99c 0dbd 661c c83c 0008 36bd
00000150: ae7c 523d 2798 1c3e 35cd 3f3d 79aa efbd
00000160: 08e3 2e3c f57f ad3c b239 cdbd a7ae 973d
00000170: 28e0 033d 95f4 f7bd 9881 5c3d 4d95 633d
00000180: 1400 48bd 7d92 353d bc4a 1dbe 17c5 f5bd
00000190: 49bb 00be 7965 a4bd a0e6 8bbc 007a bd3d
000001a0: a6a7 fb3c 8a7f ef3d 962b 143d 55d7 df3d
000001b0: b992 203e ff38 f8bd 6db3 1ebd 5385 8c3d
000001c0: 9b28 8f3d a8fe 0fbd 23fe 353d a789 44be
000001d0: d724 a13d 3c83 353d 823e 21bd e16a 123d
000001e0: e258 5abd 0afb a43d 93f7 8c3d fdef 003d
000001f0: e0ce 303d a911 6f3e e416 53be 99e2 21bd
00000200: c9a4 f83c 6868 2fbd 0aeb fbbd 77b3 033e
00000210: 7a2a c73d 1b77 8fbd f8cd fd3d c6e2 febd
00000220: 66da 17be a158 aa3d 70bb 393d 218c 4bbc
00000230: e036 523e a196 453d 6ecd 61be 7737 083d
00000240: faf8 683d f776 0ebd 55fe a9bc 182d a43b
00000250: 083e 143e 0d0e 94bc 98d1 0f3e 868e 073c
00000260: 4366 923d f2ff a83d 369b 0e3d 0a0e 833d
00000270: b3d5 693d c0c8 44bd 3866 b4bd 6c2b 363d
00000280: 239a 8a3d 3a9b d2bd 1e80 d43d ec7e 2d3c
00000290: 482d 48be ba1f d03d 27fd e23d bb7c 8dbc
000002a0: 9bc5 cfbd 36ca 4c3d aa68 893d b0fb bbbc
000002b0: afb8 a3bb 3f2c b43d 5ce4 bfbc 1457 4e3d
000002c0: 82c7 e1bd d81b 973c a5a5 a43c 0673 00bd
000002d0: 45e9 f4bb 1efd a13c 280c 0bbe 4e3a c33d
000002e0: ccc8 4e3c ba69 30be 2c67 b6bc 4ce3 223b
000002f0: 0a92 ffbb 47be afbd ae52 003e d721 3fbe
00000300: 41fa dd3b 3ce7 e43d 9559 743d 8662 0fbe
00000310: 8651 57bd aec9 1bbe c605 4e3d 8d1c d03d
00000320: d1b5 d53d 89fe 5bbe 507f 273e bef7 153c
00000330: d68f 72bc f5cd 36bc 5c9a 75be f2ef 9f3c
00000340: 4b72 b7bd 8386 d0bd b2e4 d2bd abd3 89bd
00000350: 686a 2a3d ee4d f43d 9a49 80bc c7c9 2a3e
00000360: ebd1 7e3c c1b2 1abe e6b2 e43c f626 183d
00000370: 60dd b4bc 78df 0dbe 35cf 08bd 96dd 40bd
00000380: f0b4 f63c 6a4e 2fbd 6cfb b8bc 4aec 023d
00000390: 61a8 8ebd d11c 75bd ccc4 973d 2e96 91bd
000003a0: f054 863b 8394 08be c71e bdbd 63b7 c73c
000003b0: 748c 5cbd 4c27 1fbe 9eed dfbc 136f 9fbd
000003c0: eb25 ed3b 51ae 9c3d c0ec 19be 17d6 b4bd
000003d0: 202d 29bd 729a 8abd b707 cfbd 5ed6 3f3b
000003e0: eb55 2bbd 3c89 a53c 4b72 33bd ef1e 9f3d
000003f0: bbcd ff3d cabc 463d be61 35bd 472d 193b
0.16761346 -0.0045749396 0.10434024 -0.05997942 0.09690592 -0.037612054 -0.036899842 0.08053171
0.019844506 -0.0622678 -0.06642348 0.08547931 -0.11186821 -0.023139412 0.032769404 -0.066597275
0.022049548 0.034134563 0.19970773 0.037986144 -0.06773196 -0.037970457 0.07895156 0.006808593
-0.10423835 0.0168583 -0.10114089 -0.24883303 0.17416431 0.047330476 -0.025828142 -0.08092135
0.10030936 0.026036669 -0.08470546 0.056366667 0.021867158 -0.019441847 -0.07240167 0.025998194
-0.09748739 -0.03300791 0.12753296 -0.008524534 -0.09087207 0.10038892 0.16600831 -0.072304316
0.06831407 0.12516457 -0.16634138 -0.059473027 0.019599374 -0.09390466 -0.025480596 0.012764156
0.004407375 -0.0029124054 -0.05174272 0.06396212 0.11868879 -0.050140083 0.14023359 -0.02344705
-0.0072235772 -0.010369796 -0.007218663 -0.0842644 -0.019113448 0.1556497 0.04895108 -0.123169854
0.0927854 0.06680616 -0.10893808 0.03209588 -0.0439299 -0.05643929 -0.0060246326 0.04249925
0.08866099 -0.03457341 0.024427604 -0.044441223 0.051388435 0.15292417 0.04682656 -0.11702437
0.010674246 0.021179179 -0.1002077 0.07406359 0.032196194 -0.12107197 0.053834528 0.055562306
-0.0488282 0.044329155 -0.1536054 -0.120004825 -0.12571444 -0.08027167 -0.017077744 0.09251785
0.03071959 0.11694248 0.03617438 0.10929743 0.1568097 -0.12120246 -0.038745333 0.06861367
0.06990167 -0.03515497 0.044431817 -0.19193135 0.07868355 0.044314608 -0.039366253 0.03574646
-0.05330742 0.080556944 0.068831585 0.03147887 0.04316604 0.2334658 -0.20614201 -0.03952274
0.030352013 -0.04282418 -0.123006895 0.12861429 0.09724899 -0.070051394 0.12392801 -0.12445597
-0.14829406 0.08317686 0.04534477 -0.012423546 0.20528746 0.048239354 -0.22051021 0.03325602
0.056878068 -0.034781422 -0.020751158 0.0050102584 0.14476788 -0.018073106 0.14044797 0.008273726
0.07148411 0.08251943 0.03481599 0.06399162 0.057088565 -0.048043013 -0.08808559 0.044475004
0.067676805 -0.10283513 0.10375999 0.010589343 -0.19548523 0.10162301 0.11083441 -0.01727139
-0.10145112 0.04999753 0.06709416 -0.022947162 -0.0049963812 0.08797502 -0.02342432 0.050376013
-0.11024381 0.018445894 0.020098517 -0.031359695 -0.007474097 0.019774016 -0.13578856 0.09532605
0.012621116 -0.17227831 -0.022265993 0.0024854718 -0.0077993916 -0.085812144 0.1253154 -0.18665253
0.0067742174 0.11176917 0.059655745 -0.14002427 -0.05256798 -0.15213653 0.050298475 0.10161696
0.10435069 -0.21483816 0.1635716 0.009153305 -0.014804801 -0.011157502 -0.23984665 0.019523595
-0.089573465 -0.10181906 -0.102975264 -0.067298256 0.041605383 0.119289264 -0.015660096 0.16678534
0.015552978 -0.15107252 0.027917337 0.03714653 -0.022078216 -0.13854778 -0.033400733 -0.04708632
0.030115575 -0.04279939 -0.022580825 0.031963624 -0.069657095 -0.059841935 0.07410583 -0.071087226
0.004099481 -0.13337903 -0.09234386 0.024379438 -0.053844884 -0.15542334 -0.027334984 -0.077848576
0.007237186 0.07650436 -0.15031719 -0.08829897 -0.0413028 -0.06767739 -0.10108893 0.002927206
-0.041829985 0.02020704 -0.04381017 0.07769572 0.12490412 0.048519887 -0.044282667 0.0023372935

network_body._body_endoder.seq_layers.2.bias f4 [128]
00000000: 0000 0000 0000 0000 0000 0000 0000 0000
00000010: 0000 0000 0000 0000 0000 0000 0000 0000
00000020: 0000 0000 0000 0000 0000 0000 0000 0000
00000030: 0000 0000 0000 0000 0000 0000 0000 0000
00000040: 0000 0000 0000 0000 0000 0000 0000 0000
00000050: 0000 0000 0000 0000 0000 0000 0000 0000
00000060: 0000 0000 0000 0000 0000 0000 0000 0000
00000070: 0000 0000 0000 0000 0000 0000 0000 0000
00000080: 0000 0000 0000 0000 0000 0000 0000 0000
00000090: 0000 0000 0000 0000 0000 0000 0000 0000
000000a0: 0000 0000 0000 0000 0000 0000 0000 0000
000000b0: 0000 0000 0000 0000 0000 0000 0000 0000
000000c0: 0000 0000 0000 0000 0000 0000 0000 0000
000000d0: 0000 0000 0000 0000 0000 0000 0000 0000
000000e0: 0000 0000 0000 0000 0000 0000 0000 0000
000000f0: 0000 0000 0000 0000 0000 0000 0000 0000
00000100: 0000 0000 0000 0000 0000 0000 0000 0000
00000110: 0000 0000 0000 0000 0000 0000 0000 0000
00000120: 0000 0000 0000 0000 0000 0000 0000 0000
00000130: 0000 0000 0000 0000 0000 0000 0000 0000
00000140: 0000 0000 0000 0000 0000 0000 0000 0000
00000150: 0000 0000 0000 0000 0000 0000 0000 0000
00000160: 0000 0000 0000 0000 0000 0000 0000 0000
00000170: 0000 0000 0000 0000 0000 0000 0000 0000
00000180: 0000 0000 0000 0000 0000 0000 0000 0000
00000190: 0000 0000 0000 0000 0000 0000 0000 0000
000001a0: 0000 0000 0000 0000 0000 0000 0000 0000
000001b0: 0000 0000 0000 0000 0000 0000 0000 0000
000001c0: 0000 0000 0000 0000 0000 0000 0000 0000
000001d0: 0000 0000 0000 0000 0000 0000 0000 0000
000001e0: 0000 0000 0000 0000 0000 0000 0000 0000
000001f0: 0000 0000 0000 0000 0000 0000 0000 0000
0.0 0.0 0.0 0.0 0.0 0.0 0.0 0.0
0.0 0.0 0.0 0.0 0.0 0.0 0.0 0.0
0.0 0.0 0.0 0.0 0.0 0.0 0.0 0.0
0.0 0.0 0.0 0.0 0.0 0.0 0.0 0.0
0.0 0.0 0.0 0.0 0.0 0.0 0.0 0.0
0.0 0.0 0.0 0.0 0.0 0.0 0.0 0.0
0.0 0.0 0.0 0.0 0.0 0.0 0.0 0.0
0.0 0.0 0.0 0.0 0.0 0.0 0.0 0.0
0.0 0.0 0.0 0.0 0.0 0.0 0.0 0.0
0.0 0.0 0.0 0.0 0.0 0.0 0.0 0.0
0.0 0.0 0.0 0.0 0.0 0.0 0.0 0.0
0.0 0.0 0.0 0.0 0.0 0.0 0.0 0.0
0.0 0.0 0.0 0.0 0.0 0.0 0.0 0.0
0.0 0.0 0.0 0.0 0.0 0.0 0.0 0.0
0.0 0.0 0.0 0.0 0.0 0.0 0.0 0.0
0.0 0.0 0.0 0.0 0.0 0.0 0.0 0.0

action_model._discrete_distribution.branches.0.weight f4 [6, 128]
00000000: 475f 8bba 938c 8b3c 7a0e 58bc 5abc 22ba
00000010: 236c c0bb 7960 0cbb dd85 f03b e480 2dbc
00000020: d0fd 853c a3ba 71b9 8b85 ffbb 9d71 28bc
00000030: 8180 9139 d773 0fbc b8e0 ccbb c8e6 153c
00000040: aa2f 9bba 0185 3f3b 1b8c 90ba 713b 30bc
00000050: 07b2 c03b e5a7 44bc bb3a 0abb c794 53bc
00000060: 7baf 253c 72e7 243c 338b 84bc dc38 b0bb
00000070: d7c4 d73b 9137 303b db87 813c fb82 ffbb
00000080: 1575 5fbc a99d 093b b7a8 fb3b 4d82 ee3b
00000090: 9be7 213c 4cd5 093c bf21 39bc 735a 583c
000000a0: fb88 213c 7be8 a3bb 54ad bbb9 4f69 c7bb
000000b0: 7217 563b 93f3 093b b606 a03b 9374 c93b
000000c0: 37b6 21bc facc 8bbb 54f5 bbba 682c 673c
000000d0: 1489 8d3c a1fc 1e3c ed93 35bc f509 653b
000000e0: b53d fe3a 030d 8dba 8d90 583c b39a b7ba
000000f0: b7e5 00bc 6d25 5b3c 0528 8b3b c57c 1a3b
00000100: 3327 f03b b1fd 1a3c cf32 eebb d7de eabb
00000110: 2bd8 ccba 81f7 b33b b1f4 24bc cb72 353c
00000120: 8fd8 26bc 7450 9c3c 9b4a 47bc e831 cebc
00000130: d00c 0b3c 22d0 17bb d36a 8a3c 8550 7bbc
00000140: 0b06 4fbc 03b5 92ba 075c c5bb 8f1f 3a3b
00000150: 6037 003b 3a6e b83b 858e df3b fb94 aa3b
00000160: 1dc5 973b edf8 32bc 50b8 743b 27f7 89bb
00000170: 7312 433b 4da3 183b 7074 1c3c edf0 b5bb
00000180: da65 8d3b babb 1a3b b7db 783c 2c08 06bb
00000190: 062e 803b 17a4 a7ba 7509 0a3c f60c 43ba
000001a0: ea2c 87bb abc6 3b3b 79eb 92bb 1faa 93bc
000001b0: 1042 23bb 4311 983b 4bbf adbb db74 89ba
000001c0: ae8e 2c3c e2ed 343c 9f41 b53b 97aa bdbb
000001d0: cb6e 93bb 682f 1b3b efd4 173b 73e6 6539
000001e0: 83a5 62bb ea8c 773c 8f98 2fbc f5e8 5dbb
000001f0: 537a 9abc a263 6c3a a32d 073c 0582 bf3c
00000200: b329 10bb 7a07 913b f4f6 01bc 0c1e c13a
00000210: 28db db3a 9ea8 01bb 4fb9 b53b ff42 9f3c
00000220: 37c6 9ebb 611e 4a3b e7ff 053c c29c 39bc
00000230: 87b3 573c 5374 3ebc d791 033a 8d47 2b3c
00000240: 79e5 1ebc dbe1 b7bb 6d5b fc3b c2c9 1e3b
00000250: af7e f2ba 5280 65bb 5d7d aa3a 6bdf 15bb
00000260: 9728 623b 4d09 2d3c eb54 ff3b 8b19 a2bb
00000270: 5b55 46bc f22f 28bc bdcf 31ba 62fb 8bbb
00000280: 0c71 28bc 9112 26bc d9e2 81bc 081e 0b3b
00000290: 7cc1 a1bb 73d3 80bc 26a3 c53b f19d 0abc
000002a0: 4ff4 75bb 2d85 1e3c 8347 7d3c 7bbe 903b
000002b0: 32bc b4bb 97c8 4ebb 25fb 113c 1a06 503c
000002c0: 88d3 ffba ef8d 53bb 09ee 433b c9f6 20bc
000002d0: 1bcd e6bb 57b3 bebb 027e 5c3b bc14 adbb
000002e0: 10ae 35bc 57f0 5a3a df41 bdbb 00c5 ce3b
000002f0: 3991 44ba f2c7 d0b9 659f 71bc 3eba 8dbc
00000300: 8ad6 d6bb 4c70 29bc d316 a1bb 20ab 00bc
00000310: 107c 193c 7c46 95bb dd38 a03b 4b9e 33bc
00000320: 6d06 89ba fbb9 483c eb5c 943b 2ba8 47bb
00000330: 7853 11bc bd7d fdbb ba5e 7c3a 1df6 fe3b
00000340: 2c9b 863b 6af3 4d3c 139c f53a c833 d83b
00000350: 3fc4 653c 6eac 96bb cba5 203c 6f76 353c
00000360: 352d 543b e435 19b9 075c 7bbb 2079 18bc
00000370: 2330 0ebb 1081 96bb 5868 50ba ea79 64ba
00000380: ab95 2ebb a3c6 343c 1b07 8c3c 9e2a cbbb
00000390: 6b7a 173c 9571 4c3c 6f4e 9f3a 6f1a 09bc
000003a0: b8d1 903b 882b 53bb 0819 e53a 0675 09bb
000003b0: ab95 03bc aaae 8bbc 0abb c23b bb10 0f3c
000003c0: 8000 ed3a 28a6 09bc 27d3 1abc c8cf 8abb
000003d0: c105 b7bb f3d4 9639 3aba 4dbb fb89 023c
000003e0: 8329 9abb b51a 903b 7333 883b 5a41 4a3b
000003f0: 6f2f 15bb db6c 323a b3ab 143a aae0 173c
-0.0010633253 0.017034804 -0.013187045 -0.0006207876 -0.005872266 -0.0021419807 0.0073401765 -0.010589812
0.016356379 -0.00023053079 -0.007797902 -0.010280994 0.00027752298 -0.008755646 -0.0062523745 0.009149261
-0.0011839767 0.0029223564 -0.0011028083 -0.010756359 0.0058805975 -0.01200292 -0.0021092135 -0.012913889
0.010112639 0.0100649465 -0.016179657 -0.005377872 0.0065847444 0.002688859 0.015811851 -0.0077975965
-0.013638754 0.0020998514 0.0076800245 0.0072787167 0.009881879 0.00841267 -0.01129955 0.0132051585
0.009859319 -0.005002079 -0.0003579656 -0.006085552 0.0032667783 0.0021049723 0.0048836125 0.00614793
-0.009870104 -0.0042663785 -0.0014340081 0.014109708 0.017277278 0.009703786 -0.011082632 0.0034948562
0.0019397052 -0.0010761324 0.013218057 -0.0014007896 -0.007867268 0.013375622 0.004246714 0.0023572904
0.0073288917 0.009459899 -0.0072692405 -0.007167678 -0.0015628388 0.0054921512 -0.010068105 0.011074732
-0.0101834675 0.019081332 -0.012163783 -0.025170282 0.008486941 -0.0023164828 0.01689664 -0.015339022
-0.012635718 -0.0011192862 -0.0060229334 0.0028400158 0.0019564256 0.0056283744 0.0068224096 0.005205748
0.004631652 -0.010923606 0.0037341304 -0.004210371 0.0029765635 0.0023290694 0.009549245 -0.005552402
0.00431512 0.002361043 0.015189103 -0.0020451648 0.0039117364 -0.0012789991 0.008425106 -0.0007440591
-0.004125227 0.002865235 -0.004483637 -0.018025456 -0.0024911202 0.0046407296 -0.005302345 -0.0010487096
0.010532064 0.011043044 0.0055315043 -0.005788158 -0.0044992915 0.002367938 0.002316769 0.00021924991
-0.0034583516 0.01510928 -0.010717525 -0.0033860777 -0.018857157 0.0009017532 0.008250627 0.023377428
-0.002199751 0.00442594 -0.007932413 0.0014733686 0.0016773688 -0.0019784342 0.005545772 0.019441126
-0.0048454064 0.003084086 0.008178688 -0.011328878 0.013165361 -0.011624414 0.0005018985 0.010454071
-0.009698265 -0.005611641 0.0077013285 0.0024229144 -0.001850089 -0.0035019112 0.0013007332 -0.0022868763
0.0034509057 0.0105612995 0.0077921054 -0.0049468926 -0.012105311 -0.010265337 -0.00067829696 -0.0042719105
-0.010280859 -0.0101362625 -0.01585524 0.0021227617 -0.004936395 -0.015725827 0.0060314117 -0.008460508
-0.0037529652 0.009675306 0.015458944 0.0044172383 -0.0055155987 -0.0031552666 0.008909975 0.012696767
-0.0019517997 -0.0032280644 0.0029896519 -0.009824463 -0.0070434934 -0.005819719 0.0033644442 -0.0052820127
-0.011088863 0.00083518535 -0.0057756747 0.0063101053 -0.00074984465 -0.00039821822 -0.014747475 -0.017300721
-0.006556337 -0.010341715 -0.004916051 -0.007853299 0.009367958 -0.0045555215 0.004889591 -0.010963033
-0.0010454186 0.012251372 0.0045276782 -0.0030465226 -0.008869998 -0.0077359364 0.00096271525 0.007780804
0.0041078534 0.0125702415 0.001873853 0.0065979697 0.0140238395 -0.004598192 0.009805153 0.0110756
0.0032375578 -0.00014611293 -0.0038354413 -0.009306222 -0.0021696172 -0.004593022 -0.0007950119 -0.00087156764
-0.0026639502 0.011033687 0.017093232 -0.0062001487 0.009245495 0.012478252 0.0012154112 -0.008368119
0.0044195317 -0.0032221992 0.0017478773 -0.0020974292 -0.008031289 -0.01705106 0.005942707 0.008732016
0.0018081814 -0.008401431 -0.009449757 -0.0042361952 -0.0055854027 0.0002876889 -0.0031391517 0.007967467
-0.0047046556 0.004397715 0.004156524 0.0030861706 -0.0022763868 0.0006806382 0.0005671337 0.009269873

action_model._discrete_distribution.branches.0.bias f4 [6]
00000000: 0000 0000 0000 0000 0000 0000 0000 0000
00000010: 0000 0000 0000 0000
0.0 0.0 0.0 0.0 0.0 0.0

action_model._discrete_distribution.branches.1.weight f4 [3, 128]
00000000: 120a e53b b74e 9a3b 0dda 233c bae5 dc3b
00000010: dae9 f13b 4aa6 083c 720c 063c b3a1 53bc
00000020: fb3c adbb a7e7 a23a 6af6 cb3b 9d68 e83b
00000030: 74cc b13c e8a8 f139 9f3d 2a3c 1ff8 803b
00000040: ab86 843b 5190 0abc 6793 2e3c 8c92 2c3c
00000050: 4ecc 36bc 3055 473b a39e a1bc 48b1 a73b
00000060: a81c 513c 7137 24bb 4337 4cbc 8773 993a
00000070: 4be8 753c 92be 1a3c aafa c63b 84ef b73b
00000080: a923 32bb 2105 883b 66ea 833b 5bf7 8939
00000090: 3a23 0dbc cbba 22bc 326a 463a 1b86 53bc
000000a0: 6a77 413b 1dc7 dbbc d32a 07bc 9d57 47bc
000000b0: 8714 debb bf97 563b 85b0 a539 5f43 fc3a
000000c0: dc60 a439 47e1 d8bb a7e1 e539 4585 b3bb
000000d0: 47fd 92bb 7033 fcbb 15ee ddbb 3bb5 76bb
000000e0: e3b9 093c 7156 1c3c f5bc 77bb 2d92 e9bb
000000f0: 2ecd c6bb c24b 5d3a 0e9b 373c bad8 763c
00000100: b86f 793b 9c26 43bb 59e0 44bc 3968 a2bb
00000110: 4cb0 8fbb 47b5 8bbc 87c4 a7bb 6774 a3bb
00000120: bfdc 92ba 9392 223c ef3a 6a3c 75bf fdba
00000130: 3aeb 533c 63a6 ff3b ab44 d0b9 e31f 853b
00000140: defc 033c b400 9abb 079d 633c 2f74 3d3a
00000150: 1b0c fa3b 2614 473c 6baf 3a3b a034 603c
00000160: 31e5 3e3c 8e56 91bc 9001 48bc 3f51 b43c
00000170: 3f99 6eba 8ff1 bf3b 43c2 a53b 4295 77bb
00000180: 2b8a 123c 45ad 50bb 5298 ac3b ab0d 9ebc
00000190: 772b fa3b 337f 223c e977 1439 a3ef bb3b
000001a0: 97a4 19bb 0d5e 903a 67d7 743b 6060 8a3b
000001b0: fe3f b93b ddaa 243b 18ac fa3b 105c 01bc
000001c0: 4eee 313c ab05 ae3c d240 47bc 78d4 fbbb
000001d0: 5b00 61bc c3af 1cbc e3cb 6a3c 0704 97bb
000001e0: 4ad9 58bb 524f baba bd44 2bbb 9543 6c3b
000001f0: 95a4 11bb f054 803b 15c7 d23a e4c3 b03b
00000200: bb54 1e3c b7b8 aa3b 687e 0b3c d072 0d3c
00000210: 5686 3c3c 02dd f23b 49b4 163c e2f6 94ba
00000220: f34b 973a 830e b6bb 1d56 f93b 6152 4b3c
00000230: 0f46 abbc 6b20 80bc ff42 983b 98bb 22bb
00000240: 207c 283c 8d31 88b9 8edb 073b 5fc8 4bbc
00000250: bd77 a13c 7089 823c 0780 bc3c 24e9 bf3a
00000260: f02a 51bc 85bc 1e3a 9982 b03b 0f3d 403b
00000270: 55ff 363c 0bce 46ba 376f 62bb 7fd4 e73b
00000280: 2094 6bbc 70c6 9f3b cbbc 283c 7af1 a5bb
00000290: d76a 0bbc 3902 2cbb f8c2 e13b e6e4 33bc
000002a0: 26ec ba3b b80a a33c 781f 4ebb 0a32 d83b
000002b0: b40a 2abc eb91 913b a75b 113c 6f67 8b3c
000002c0: e8cb 3dbc e9d5 c73b d746 96bb 6818 cdbb
000002d0: 47c0 063c 8d66 0c3b bfa7 373c ce8d 13bc
000002e0: 9ad0 773b 80e2 63bc 6f74 60bc 18a0 4f3a
000002f0: d883 143c 4f4f ba3b 05cb 2bbc e860 09bc
00000300: 6303 ae3a c78c 1dbc 2a75 ae3b acd4 99bb
00000310: 27c9 6d3a b869 53bc 57c2 31bc 9360 06bc
00000320: 7066 debb da75 b1bb 5d32 2cba 8d90 aabb
00000330: 8894 8fb9 079b af3a 1cd8 11bc a3e3 f03b
00000340: f4e1 c8bb 53ff 59bc 6b8e 5dbb a2ba 7839
00000350: 0b35 1bbc 1316 cc3b 725a f9ba 6d2d d33b
00000360: 83c6 fdbb 6bfa 3bbc cbea ce3b 90f0 933b
00000370: f608 2d3c bbd4 ee3b 2610 973b 0a25 89b9
00000380: bbe0 d8ba bf3e babb 7ff0 5ebb 53d8 26bc
00000390: bbbc 38bc afb7 093b 21aa 063c 0340 d8bb
000003a0: 3248 9cbb 6596 eebb 7be2 bd39 356c aa3b
000003b0: f7e9 e93b 75e9 05bc 7f6f 9fbc 5582 13bc
000003c0: 557f 39bb 5312 b6bb f940 0e3a 67cc f6bb
000003d0: 506a acbb d014 e63b 2f96 d83b a288 a23a
000003e0: f2cc debb 9746 dcbb 9bac 8437 8267 1a3c
000003f0: 6446 a6bc e7fa 9cb9 634f 7a3b 306b 683c
0.006989726 0.0047090906 0.010000718 0.0067412527 0.0073826136 0.008340428 0.008181678 -0.01291697
-0.0052868105 0.0012428657 0.006224443 0.007092549 0.021703936 0.00046092947 0.010390668 0.0039358283
0.004044374 -0.008457259 0.010655261 0.010532986 -0.0111571085 0.0030415766 -0.019728964 0.005117569
0.01276318 -0.002505746 -0.012464347 0.0011707403 0.015008996 0.00944485 0.006072362 0.0056132693
-0.00271819 0.004151002 0.004025745 0.0002631497 -0.008614356 -0.00993223 0.0007568925 -0.012910391
0.002952064 -0.026828343 -0.008249956 -0.012166885 -0.0067773494 0.0032744256 0.0003160277 0.0019246152
0.00031352683 -0.006618652 0.00043846408 -0.0054785335 -0.0044857594 -0.0076965615 -0.0067727664 -0.0037644643
0.008406135 0.009542094 -0.0037801836 -0.007128021 -0.00606694 0.000844177 0.0112064015 0.01506632
0.0038060974 -0.0029777652 -0.012016379 -0.004956272 -0.00438503 -0.017054213 -0.0051198634 -0.0049882415
-0.0011204703 0.009922641 0.014296277 -0.0019359427 0.0129345 0.0078018173 -0.00039724013 0.004062639
0.008055894 -0.004699791 0.013892419 0.00072270905 0.0076308376 0.0121508 0.0028485905 0.013684422
0.011651323 -0.017741468 -0.012207404 0.022011397 -0.0009101815 0.0058576535 0.005058558 -0.0037778174
0.008944075 -0.0031841558 0.0052671814 -0.019293627 0.007634576 0.009918022 0.0001415905 0.005735354
-0.002344405 0.0011014357 0.0037359835 0.0042229146 0.0056533804 0.0025126257 0.0076499097 -0.007895485
0.010860039 0.021242937 -0.01216145 -0.0076852404 -0.013732995 -0.009563389 0.014330837 -0.0046086344
-0.0033088499 -0.0014214313 -0.00261335 0.0036051024 -0.0022223343 0.0039163753 0.001608106 0.0053944457
0.009663756 0.005210008 0.008514024 0.00863333 0.011506638 0.0074116 0.009198257 -0.0011365081
0.001154302 -0.005555929 0.0076091425 0.012409777 -0.02090743 -0.015640458 0.0046466584 -0.0024831053
0.0102835 -0.0002597686 0.002073023 -0.012437909 0.019710416 0.015934676 0.023010267 0.0014641625
-0.012766585 0.0006055313 0.005386662 0.0029333269 0.011169274 -0.00075838034 -0.0034551152 0.007074892
-0.0143785775 0.0048759505 0.010298918 -0.0050641866 -0.008509359 -0.0026246442 0.006889697 -0.010979867
0.0057044206 0.019902572 -0.0031451862 0.006597762 -0.010378528 0.0044424436 0.008871949 0.017017094
-0.01158426 0.006098498 -0.0045860815 -0.006259013 0.008224553 0.002142343 0.011209427 -0.009005977
0.0037813545 -0.013908982 -0.013699635 0.0007920279 0.009064637 0.005685724 -0.010485415 -0.008384921
0.0013276156 -0.009616083 0.0053240256 -0.004694542 0.00090708066 -0.012903623 -0.010849557 -0.008201736
-0.006787114 -0.0054156603 -0.0006568784 -0.00520522 -0.0002738575 0.0013397642 -0.008901622 0.007351355
-0.0061304513 -0.013305503 -0.0033806812 0.00023720649 -0.009473096 0.0062282174 -0.0019024147 0.006444624
-0.0077446117 -0.0114732785 0.0063146106 0.0045147613 0.0105612185 0.007288543 0.0046100793 -0.00026158273
-0.0016546467 -0.0056837494 -0.0034017859 -0.010183412 -0.011275466 0.0021014025 0.008219273 -0.0065994277
-0.0047693485 -0.007281112 0.0003621763 0.0052008876 0.0071384865 -0.008173336 -0.019462345 -0.009003242
-0.0028304656 -0.0055563836 0.0005426552 -0.007531691 -0.005261697 0.007021524 0.0066097 0.0012400339
-0.0067993337 -0.006722282 1.5816002e-05 0.009424092 -0.020297237 -0.00029941575 0.003819429 0.014185712

action_model._discrete_distribution.branches.1.bias f4 [3]
00000000: 0000 0000 0000 0000 0000 0000
0.0 0.0 0.0

action_model._discrete_distribution.branches.2.weight f4 [3, 128]
00000000: 2c62 9cbc eb5f 3b3a 2fae edbb 68a9 69bb
00000010: 11ac bebc 87ef 223c 1a3d 623b 7bc3 923c
00000020: 3dc5 6e3c d1b6 bc3b 7316 823b 7c59 81bc
00000030: 2335 3f3c 0e04 40bc e510 853b b39e b2bc
00000040: 20e0 583a cb63 4bbb f41c b2ba 1d02 ef3b
00000050: ade2 043d 8b85 913b 6abb f83b ecf3 a73b
00000060: fa9b e93b 3b78 1d3c eb3b 9ebb 45fb cb3b
00000070: 3377 fdbb 6763 d3bb f9c5 963a 23b5 38bb
00000080: 4ac1 f1bb c2b9 8cba 3140 9839 a545 25bc
00000090: d316 f9ba 873c ffbb b899 743c 99c2 993b
000000a0: 1893 cebb a8c9 9d3b 10e2 89bb faee dd3b
000000b0: 53c5 f33a 8bed 933c 7f06 ab3b bf4c dd3b
000000c0: bcab 253c 9a95 37b9 bbe4 94bb feea 233b
000000d0: 4897 30bc 8aee 243c 26a0 a9bb d5ed e13a
000000e0: db57 f83b 7da0 a4bb 5306 c6bb b819 ee3b
000000f0: afb3 4f3c 0253 c83b b79f 8bbb 528c 1e3c
00000100: bdf9 68bb 942b 36bc 80ca 48bb af1c 44bc
00000110: bd9c c6bb 64e0 3bbc 551e ecbb acf2 c3bb
00000120: 4595 223c e5f4 5abb 26e9 2dbb 2a9e 07ba
00000130: bd54 36bc 694b 2ebb a510 6cbc ba3a 7d39
00000140: 50aa a73b 584f 1bbb 6769 7b3b 5f8d ce3b
00000150: 7f1d 6bbc d4a9 253c 358b d23b d806 7d39
00000160: 501e d23b e880 bf3b 1308 45b9 0263 ebbb
00000170: d093 0c3c 3021 f1ba 3d2b df3b 9f21 41bc
00000180: b642 2a3c 5007 023b a588 523b bd77 53bb
00000190: 67fc 383c 23e8 b6bb 87aa 01bc eb43 393b
000001a0: fb44 5dbc 520a 713c 90d8 48bc 4b0b 95bc
000001b0: fe27 37bc 56cf b93b 332b 03bb 83f6 123c
000001c0: 2922 bdbb 6d39 b43b 0675 18bc 2e84 3e3b
000001d0: c253 24bc 32d3 b03c a6f1 013c e3af f23b
000001e0: 1239 d1ba 774b 33bc 2fe9 243c 12e7 1ebb
000001f0: 483d 21bc 7aa4 703b 8649 053a b377 15bc
00000200: ff9d a33a 8ff2 1a3c 2014 a7bb 39b7 48bb
00000210: f267 79bb 5740 cb3b 0eb0 c839 fb52 523b
00000220: fdfe ff3a ed17 533a 2f8a 073b 1b7f 013c
00000230: 4f0d 0d3c 1716 b03b 874b 26bb 6b1a c13a
00000240: 2c29 05bc cc10 213b 053a c4bb 5d9b d7bb
00000250: 5a02 12bc 2f18 233b 9796 8f3b f239 24bc
00000260: 8ae1 8cba 52f5 023c 80bd d5bb b895 ae3b
00000270: c30d 57bc 4ecb 82bc 30e8 243c 7258 07bc
00000280: 0b21 d23b c858 dfbb 2dda a13a 79ec 323c
00000290: 31fb a4bc ba6c 57bb c0aa ebbb da3d 14ba
000002a0: 0b4b 83bb 5d4e 17bb 0bd8 1939 4a71 4f3c
000002b0: 4826 783b 30be 6b3c f59c d1bb 8bc4 a5bc
000002c0: d5b8 80bc 6fe1 e1bb 618f c43b 0eb9 95ba
000002d0: 0096 58bc 3824 8aba d69c 433c 7cdf 34bb
000002e0: c8a3 5a3b 8b32 17bb f21e a63b fa40 f3bb
000002f0: fb0b 753c 4308 6a3b 7c4d 2aba b711 37bb
00000300: 5791 0f3a 65a0 c8ba 5d91 bfba 2eb2 9bba
00000310: e980 3b3c 6b9f fc3b 1756 9d38 f66a 003c
00000320: 2722 12bb d3e4 90ba d142 12bb 3f0e 91bb
00000330: 3072 923b 17f5 abbb c881 43bb 563a 0abc
00000340: 520a e0bb 8e7a 37bc 84d1 1fbc bca0 133b
00000350: 13a8 103c e3c4 2ebb fbbb 2fbc b065 97bc
00000360: 7068 83bc 606e 2fbc 3326 cabb 45ff a2bb
00000370: 8ff2 02b8 4d35 5f3c 7aa4 333b 454b 5fbc
00000380: 9147 313c 4bce 8dbc bc28 193b c394 3bbc
00000390: 650a c03c bf53 55bc 9d28 6abb 6047 8fbc
000003a0: b568 043c 5dd1 f6bb 4b94 75bb 0bd1 65bc
000003b0: ad95 b63b 4b77 9ebb e5bc 81bc 31e7 40bb
000003c0: 122c 8cbb 189e 26bc a329 c1bb 2098 72bc
000003d0: d347 b8bb d4a7 aebc f0ba f038 add2 df39
000003e0: dffa 6cbb aa08 14b9 ed29 5e3c aab6 a6ba
000003f0: 0a2f 073c 8a06 1d3c bb33 ac3b 38b0 f83a
-0.01908978 0.0007147777 -0.0072534303 -0.0035653953 -0.023275407 0.009944803 0.0034521283 0.017915478
0.014573392 0.005759098 0.0039699613 -0.01578974 0.011670384 -0.011719717 0.004060852 -0.02180419
0.00082731433 -0.0031034823 -0.0013588951 0.007293953 0.032442737 0.0044409684 0.007590701 0.0051255133
0.0071291896 0.009611185 -0.00482892 0.006225022 -0.007735157 -0.0064510587 0.0011503092 -0.0028184138
-0.007377778 -0.0010736512 0.00029039526 -0.010087405 -0.0019003995 -0.007789198 0.0149292275 0.0046923873
-0.006304156 0.004815299 -0.004207857 0.006772873 0.0018598236 0.018057605 0.0052192803 0.0067535336
0.010111745 -0.00017507971 -0.0045438684 0.0025011892 -0.010778256 0.010066638 -0.005176562 0.0017237017
0.0075788326 -0.0050240145 -0.0060432344 0.0072662495 0.012677117 0.006113411 -0.004260983 0.00967701
-0.0035549246 -0.011118788 -0.0030638278 -0.011969729 -0.006061165 -0.011467073 -0.0072057643 -0.0059798565
0.009923284 -0.0033410129 -0.0026536672 -0.00051734096 -0.011128602 -0.002659524 -0.014408265 0.00024149838
0.0051167384 -0.0023698416 0.0038362385 0.006303474 -0.014350294 0.010111291 0.006425286 0.0002413051
0.006412305 0.0058442242 -0.00018790392 -0.0071834335 0.008580163 -0.0018396731 0.0068105743 -0.011787801
0.010391882 0.0019840784 0.0032124904 -0.0032267414 0.011290646 -0.005581872 -0.007914192 0.0028269242
-0.013505216 0.014711933 -0.012258664 -0.018193861 -0.0111789685 0.0056704683 -0.0020014762 0.008969906
-0.0057718945 0.0055000097 -0.009305244 0.0029070484 -0.010029735 0.02158508 0.007931149 0.0074062212
-0.0015962443 -0.010943285 0.010065361 -0.0024246615 -0.009841271 0.003671913 0.0005084503 -0.009122777
0.0012483 0.009457245 -0.0050988346 -0.0030626787 -0.003805634 0.0062027383 0.00038278144 0.0032092917
0.0019530948 0.00080525764 0.002068173 0.007903839 0.00860913 0.005373727 -0.0025374608 0.0014732605
-0.008127492 0.0024576662 -0.005988362 -0.0065798 -0.0089116935 0.002488624 0.0043819654 -0.010023581
-0.0010748368 0.007993059 -0.0065228343 0.0053279065 -0.01312584 -0.015966084 0.010065123 -0.008260833
0.0064126304 -0.0068160035 0.0012348347 0.010920637 -0.020139309 -0.0032871203 -0.007191986 -0.00056549686
-0.0040067486 -0.002308748 0.000146717 0.012661288 0.0037864614 0.014388606 -0.0063968846 -0.02023532
-0.015713135 -0.006893329 0.0059985374 -0.0011422948 -0.013219357 -0.0010539358 0.011939248 -0.0027599027
0.0033361781 -0.0023070897 0.005069607 -0.0074235173 0.01495647 0.003571049 -0.00064965314 -0.0027934143
0.00054766744 -0.001530659 -0.0014615465 -0.0011878663 0.011444309 0.007709434 7.502379e-05 0.0078380015
-0.0022298188 -0.0011054523 -0.0022317658 -0.004426747 0.0044691786 -0.005247723 -0.0029831994 -0.00843676
-0.006837168 -0.011198653 -0.009754542 0.0022526225 0.0088291345 -0.0026667647 -0.01072597 -0.018481106
-0.01604101 -0.010707468 -0.0061691045 -0.004974278 -3.1220316e-05 0.013623548 0.0027411268 -0.0136287855
0.010820285 -0.017310282 0.0023370227 -0.011449042 0.023442456 -0.013020455 -0.0035729774 -0.017490089
0.008081605 -0.0075322823 -0.0037472423 -0.0140268905 0.005572042 -0.004835998 -0.015837142 -0.0029434676
-0.0042777145 -0.010169528 -0.005894856 -0.014806777 -0.0056237965 -0.021320261 0.000114789116 0.0004269084
-0.0036160273 -0.00014117607 0.013559801 -0.0012719233 0.008250961 0.009584079 0.00525519 0.0018973416

action_model._discrete_distribution.branches.2.bias f4 [3]
00000000: 0000 0000 0000 0000 0000 0000
0.0 0.0 0.0

action_model._discrete_distribution.branches.3.weight f4 [48, 128]
00000000: 0d2e 3abc 95d6 e13b dae9 f0bb baff 72bc
00000010: 6b95 593b f2a8 323b cd3e b93b aa0c 8abb
00000020: a7ac d53a 1b62 4cbc f343 003c 8751 cfbb
00000030: c25b 343c e7cc 24bc 7aad 25bc 970f 5c3c
00000040: 9f6b 4bbc 1698 89ba 83f9 aeba e77e e63b
00000050: 7a79 1abc 3b32 94bb a923 81bb f396 873c
00000060: ea36 7bbc 2cf1 0cbb eb95 903b 230f 26bc
00000070: 5f55 cdbb 88bf 053c 7210 06bc 0d6f b2bb
00000080: 732b 05bc e7bb b03b 543b 323a 9459 843b
00000090: 0692 b8bc 9691 3b3a eca1 44bc 7331 9c3c
000000a0: 03b3 bfbb 655d 73bc 0b0d 753b 62c8 833c
000000b0: df2c c83a c0bd bb3b 97ae 9dbc d357 0e3c
000000c0: 6042 25bc ac12 cbb8 6257 753c 0f4e 873b
000000d0: af82 143c 58e9 b5bb 638b 673b fb69 8bbb
000000e0: 4d71 7bbc 17a7 533c bf7d 453b 8a05 033b
000000f0: 6313 e43a 05b2 053c 7982 073b c70a 3fbc
00000100: aba0 d13b 5223 67bc 8b99 7c3b 3caf 99bb
00000110: 8bc1 dc39 a50d 133b ab47 e4ba 30b5 7dbb
00000120: e496 843c fadb 72bc f837 853a 255c 63bb
00000130: e58a 013c 0f08 3b3c 5500 6bbc b219 77bb
00000140: 2ea9 2dbb 23fc 9d3b 2223 d6bc 5520 4439
00000150: 23eb 673b 9f2b 423b 3287 663c 5df6 553b
00000160: e780 903b 3336 b3b8 78a3 8d3b fbf6 a73b
00000170: fbff f33a 1a6b 463c 6b82 c83b 0756 8839
00000180: d3a8 b83b b737 b0b9 3201 75bc 67dc 4abb
00000190: 47c7 f33b ab5b 6f3b 8f12 17ba f88b 1f3a
000001a0: 5207 183a ad99 613b 1a8b a4bb d5d1 bcbb
000001b0: 3630 963b 1ca1 cc3b e589 03bc 0056 85bc
000001c0: a797 19bc da61 10bb 4744 833a 130f 3bbc
000001d0: c29a f0b9 265a afba 0faa 823c 3b0f a03b
000001e0: 6b5d 4d3b 51f7 2a3b ff57 4d3b bb3e 88bc
000001f0: 138a c33b b8db 013c 5d72 e7ba f313 a53c
00000200: f0c8 253b 11e6 ac3c 0bee ff3a 4048 f93b
00000210: 1bc1 2abc 4210 24bc 9529 d4ba 5a77 ffbb
00000220: 3b7f 483c a205 1eb9 123f 1f3b b2e7 823b
00000230: 6e54 a4bb 78e6 c2bb 8087 d03a 77fd a43b
00000240: 63c3 8f3a 7a1b df3b d5eb 483b 372f ad3b
00000250: 1fe3 86bc d27a 4dba a3b8 033a 69cb a4ba
00000260: 5ce0 423a 96c9 02bc 5582 91ba 6a98 363c
00000270: bab2 993c 6708 41bc a976 253b 5b77 0e38
00000280: 3f80 d73b e746 a5bb 17e3 bbbb 956c 9a3b
00000290: 024b f1bb 1358 0ebc 77ff a2bb 37e9 40ba
000002a0: 2192 453b 55b2 e5ba af4e 213c 8247 c3bb
000002b0: 3aba 943b 6c71 1e3c d261 46ba 3dc3 8f3b
000002c0: 43de b93b cf7e 05bc 49c3 a6bb 7dc3 7f3c
000002d0: e658 81bc 3799 5abb 4c05 38bb 2983 c93a
000002e0: eb63 283c 4d2e e939 f296 10bc da34 9dbb
000002f0: 5947 abbb fed5 463c 4271 23bc 8bb5 6e3c
00000300: a3f0 61bc 65c4 0039 401f d7ba 1a99 4c3c
00000310: f267 d3bb 5f51 d4ba 43a4 b5bb e577 f6bb
00000320: 1b72 86bc fe11 103c fd7a 3c3b 2523 b53b
00000330: abcc 833c 1a6f b43b ed1d 693b 1775 babb
00000340: 1dea 71bc 1225 5e3c 0504 68bc e5cd 3d3c
00000350: 175e 7e3c a0ea ed3a 42e3 353b ab07 1dbb
00000360: 0b6a b4ba 4a22 60bb 3419 a0bc 6846 563c
00000370: 2010 4b3c ef27 e8b9 49c4 ad3b 7db6 02bc
00000380: d363 ddbb a754 353c 0c0f ca3b 878e d4bb
00000390: 505c d83c 755a 8f3c 172b 5dba 0220 2fbc
000003a0: ebc3 b73b 5541 543c 75f5 d43b 8af0 76ba
000003b0: c833 20ba 8db1 1b3c bf52 3b3c 6777 c2bb
000003c0: 9896 1cbc ab71 823b 30e9 0c3c e2ba 41bc
000003d0: 1527 4bba 5d09 febb a5bb e9bc e7ea 79ba
000003e0: 9fdc b8ba 4a94 a1bb 438b c03b 6217 d8bb
000003f0: 609b 29bb 1976 383c 07a8 4c3b 5b92 6bbc
-0.011363518 0.0068920352 -0.007352096 -0.014831478 0.0033200632 0.0027261344 0.0056532384 -0.0042129355
0.0016302065 -0.012474562 0.0078287 -0.0063268575 0.011008205 -0.010058618 -0.010112161 0.013431451
-0.012415796 -0.0010497596 -0.0013349507 0.007034171 -0.009428376 -0.0045225895 -0.0039410186 0.01655147
-0.015332917 -0.0021506054 0.004412403 -0.010135445 -0.0062662805 0.00816334 -0.008182632 -0.005445367
-0.008128035 0.0053934935 0.0006799002 0.004038999 -0.022530567 0.0007155178 -0.012001496 0.019066548
-0.0058501973 -0.01485381 0.0037391807 0.01608676 0.0015272162 0.005729407 -0.01924829 0.008687931
-0.010086626 -9.683272e-05 0.014974447 0.0041291784 0.0090643605 -0.0055514984 0.0035330884 -0.004254577
-0.015346837 0.012918255 0.0030134765 0.0019992315 0.0017400797 0.008160119 0.0020677133 -0.011660284
0.006397327 -0.014107542 0.0038543667 -0.004690079 0.0004210587 0.0022438553 -0.0017416378 -0.0038712732
0.016185232 -0.014822954 0.0010163775 -0.0034692374 0.00790665 0.011415496 -0.014343341 -0.0037704525
-0.0026498544 0.004821317 -0.0261398 0.00018704061 0.0035387955 0.002962805 0.014070319 0.0032648065
0.0044098976 -8.5454805e-05 0.0043224655 0.005125878 0.0018615717 0.012110496 0.0061190627 0.00026004037
0.00563536 -0.00033610847 -0.014953898 -0.0030954124 0.007439527 0.0036523144 -0.00057629583 0.00060862256
0.00057994307 0.0034423873 -0.005021465 -0.0057623186 0.004583384 0.0062447917 -0.008028482 -0.01627636
-0.009374536 -0.002203098 0.0010014855 -0.011417168 -0.0004589167 -0.0013378307 0.01595023 0.004884628
0.00313362 0.0026087353 0.0031332967 -0.016631475 0.0059673875 0.00792592 -0.0017657984 0.020151114
0.002529677 0.021105798 0.0019525898 0.00760749 -0.0104220165 -0.010013642 -0.0016186709 -0.0077962102
0.012237365 -0.00015070153 0.0024299067 0.0039949054 -0.0050149476 -0.005947884 0.0015909523 0.005035098
0.0010968264 0.0068086954 0.0030658145 0.0052851695 -0.016465722 -0.0007838431 0.00050247664 -0.0012572828
0.0007433945 -0.007982632 -0.0011101464 0.011144737 0.018761981 -0.011781788 0.002524773 3.3966597e-05
0.0065765674 -0.0050438526 -0.0057338583 0.004712651 -0.007363678 -0.008687991 -0.0049743014 -0.00073589705
0.0030146914 -0.001752446 0.00984542 -0.005959452 0.0045388015 0.009670597 -0.0007567677 0.004387288
0.0056722476 -0.008147909 -0.005089198 0.015610573 -0.01578946 -0.0033355483 -0.002807933 0.0015374172
0.010277729 0.0004447572 -0.008825051 -0.00479756 -0.005227011 0.012135981 -0.009975733 0.01456965
-0.013790282 0.00012280194 -0.0016412511 0.012487674 -0.0064516 -0.0016198567 -0.005543263 -0.0075216168
-0.016411832 0.008793352 0.002875983 0.005527871 0.016088804 0.0055064084 0.0035570816 -0.0056902277
-0.01476529 0.013558643 -0.014161115 0.011584734 0.015525362 0.0018151589 0.0027753864 -0.002396087
-0.0013764513 -0.0034200125 -0.019543268 0.01307831 0.012393981 -0.0004428024 0.00530294 -0.007978079
-0.0067562847 0.011067546 0.0061663445 -0.006486717 0.026411206 0.017499188 -0.0008436902 -0.010688784
0.005608072 0.0129550295 0.0064989873 -0.00094199984 -0.00061112316 0.009502781 0.011433302 -0.005934644
-0.009557389 0.0039808354 0.008600518 -0.0118243415 -0.0007749659 -0.007752581 -0.028531859 -0.00095335994
-0.0014103836 -0.0049310075 0.0058759763 -0.0065945843 -0.0025879964 0.011258625 0.0031228082 -0.014378156

action_model._discrete_distribution.branches.3.bias f4 [48]
00000000: 0000 0000 0000 0000 0000 0000 0000 0000
00000010: 0000 0000 0000 0000 0000 0000 0000 0000
00000020: 0000 0000 0000 0000 0000 0000 0000 0000
00000030: 0000 0000 0000 0000 0000 0000 0000 0000
00000040: 0000 0000 0000 0000 0000 0000 0000 0000
00000050: 0000 0000 0000 0000 0000 0000 0000 0000
00000060: 0000 0000 0000 0000 0000 0000 0000 0000
00000070: 0000 0000 0000 0000 0000 0000 0000 0000
00000080: 0000 0000 0000 0000 0000 0000 0000 0000
00000090: 0000 0000 0000 0000 0000 0000 0000 0000
000000a0: 0000 0000 0000 0000 0000 0000 0000 0000
000000b0: 0000 0000 0000 0000 0000 0000 0000 0000
0.0 0.0 0.0 0.0 0.0 0.0 0.0 0.0
0.0 0.0 0.0 0.0 0.0 0.0 0.0 0.0
0.0 0.0 0.0 0.0 0.0 0.0 0.0 0.0
0.0 0.0 0.0 0.0 0.0 0.0 0.0 0.0
0.0 0.0 0.0 0.0 0.0 0.0 0.0 0.0
0.0 0.0 0.0 0.0 0.0 0.0 0.0 0.0
