Assets/Scripts/RL/results/MyTrainingRun/Character/Character-0.pt (torch, 334207 bytes, 18 tensors)

discrete_act_size_vector f4 [1, 4]
000000 00 00 c0 40 00 00 40 40 00 00 40 40 00 00 40 42
       6.0 3.0 3.0 48.0

network_body._body_endoder.seq_layers.0.weight f4 [128, 155]
000000 da 38 0d be a7 4e 2d bd d3 86 0f bd 3e 1b 09 be
       -0.13791218 -0.042311337 -0.035040688 -0.13389298
000010 53 6a 68 3d 51 55 05 3d 71 87 7c bd 2d 83 fb 3c
       0.056742024 0.032552067 -0.061652604 0.030702198
000020 48 93 de 3a be 59 f2 bd 82 a5 09 3d c5 fa db 3c
       0.0016981149 -0.11833523 0.033605106 0.026852975
000030 eb 83 cb bc 18 c4 05 3c 25 b7 05 be bc 27 ac bc
       -0.024843177 0.008164428 -0.13058145 -0.02101504
000040 26 e8 80 bd 3c 9c 4d 3d 4e 26 b0 bc 96 21 32 bd
       -0.06294279 0.050197825 -0.02150264 -0.04348906
000050 0c 44 f4 3c 88 93 7e bd 00 fe 6f 39 39 d2 2a be
       0.029817604 -0.062152416 0.00022887439 -0.16681756
000060 59 92 59 3d 68 04 a4 3b 6f 45 79 3c a1 65 e0 3b
       0.053118084 0.005005408 0.015214308 0.0068480526
000070 7a fa 17 bc 3a 56 12 3d a6 bb 3f bd b6 20 57 3d
       -0.009276027 0.035726763 -0.046809815 0.05252143
000080 9a a1 9a bd cf f8 b3 3d e5 f0 ed 3d bd 4d 92 bd
       -0.07550354 0.08787691 0.116182126 -0.07143734
000090 42 ed 94 bd 5c f9 15 3c 86 cf a7 3c f2 19 a1 3d
       -0.07271816 0.00915369 0.020484697 0.07866277
0000a0 b7 48 bd bd 7a 62 2a be 16 e8 ce 3d 39 d3 ea bd
       -0.09242385 -0.16639128 0.10102861 -0.11466069
0000b0 27 ff 3f 3d 51 6b 8e bd 52 93 2c bd 92 01 a7 3d
       0.04687419 -0.06954063 -0.042132683 0.081545964
0000c0 18 98 50 3e 6b 6e 2c bc a9 40 53 3a f2 cc 82 bd
       0.20370519 -0.010524373 0.00080586463 -0.063867465
0000d0 53 f5 b6 3d 3a 94 26 3d ec 95 07 be ea 83 fc 3c
       0.08933511 0.040668704 -0.13240784 0.03082462
0000e0 b8 c7 9b bd d9 fb 91 3d 86 f4 13 3c 96 a8 cf 3d
       -0.07606453 0.07128114 0.009030467 0.10139577
0000f0 fa f6 11 3d 35 cd 79 3d 96 b7 80 3d 89 ca e8 3d
       0.035635926 0.060986716 0.06285016 0.113667555
000100 da 7d 97 bc 10 23 19 be f1 d6 e8 bd 89 3f 57 be
       -0.018492628 -0.14954782 -0.11369122 -0.2102033
000110 3f b8 80 3d 95 e7 bd bc e8 a4 58 3c 50 a5 1f 3e
       0.06285142 -0.023181716 0.01322291 0.15590405
000120 cd 1a ea 3b 3d ca 2e be 47 b0 16 bc ff ee 75 3c
       0.007144308 -0.17069335 -0.009197301 0.015010594
000130 89 7d 0f 3d 2e 7a bb 3d 5d 4e 08 3e a9 36 46 3a
       0.03503183 0.09154163 0.13311143 0.00075612456
000140 c5 0f 07 3e 52 47 47 3c e9 dc 00 bc fb e0 fc 3d
       0.1318961 0.012163 -0.007865169 0.12347599
000150 98 2e 1c be a2 b7 9f 3d 58 fe 86 3d ac 99 d4 bd
       -0.15252149 0.07798697 0.06591481 -0.10380873
000160 02 ee 89 bd 00 70 fd 3c cf 25 1a 3e 37 57 9e bd
       -0.067348495 0.030937195 0.15053485 -0.07731479
000170 7f 7b 4a be 58 a2 81 3d 33 6b e4 bc c2 e7 38 b8
       -0.19773673 0.06329793 -0.027883148 -4.408486e-05
000180 bb 1c 11 bd 91 fa fe bc ba 8b e8 bd 89 0a 2b 3d
       -0.03542779 -0.031125339 -0.11354776 0.041758094
000190 67 58 23 3e c9 c7 93 3d 82 32 7d bd 58 4e 00 be
       0.15951692 0.0721584 -0.061815746 -0.12529886
0001a0 78 19 3c bd 2c cb c2 bd 72 32 04 3e 84 40 40 3d
       -0.045922726 -0.09511408 0.12909868 0.046936527
0001b0 85 a2 fb bd d2 ea 01 3d de 93 be 3d f6 08 0f 3c
       -0.122868575 0.031718083 0.09305547 0.008730164
0001c0 02 68 85 3d 8f 92 1a 3d 6f 92 a3 3d 04 66 03 be
       0.065139785 0.037737425 0.07986914 -0.12831885
0001d0 16 b2 0a be f5 8d 4d bd 49 fd 34 bc e3 21 01 bc
       -0.13544497 -0.05018421 -0.011046716 -0.007881614
0001e0 bb 49 bb bd 82 92 67 bd 08 75 d1 3c a8 59 a2 bd
       -0.09144922 -0.056536205 0.0255685 -0.07927257
0001f0 15 16 64 bd 14 0d 27 3c 8d 04 c2 bd d3 62 b3 3d
       -0.05568512 0.010195989 -0.09473524 0.087590836
000200 3b 14 79 3d 83 4d a8 3c 1d d6 62 bd 9e 6c 6c 3d
       0.06081031 0.020544773 -0.055379976 0.057720773
000210 78 34 25 bd b7 51 5e 3d d7 42 5f 3d 88 72 31 3d
       -0.04033324 0.054277148 0.054507103 0.043322116
000220 1b 37 17 3b cb c9 a5 bb 0e 1c 6c bc 10 b5 0b be
       0.0023073617 -0.005059456 -0.014410986 -0.13643289
000230 f1 96 c0 3d b0 9f 56 bd d0 4e 14 bd 30 bc 45 3d
       0.0940379 -0.052398384 -0.036207974 0.048275173
000240 06 78 a1 3d 00 68 b0 3c 82 5a b4 bd e6 05 27 3c
       0.07884221 0.021533966 -0.088063255 0.010194277
000250 bd 81 76 bd 3b f1 a5 3d 2e 56 d5 3d 04 46 44 3e
       -0.06018232 0.08102652 0.10416828 0.19167334
000260 41 9f 8c bd 47 74 91 3d 66 53 cc 3b 3c 8c 6f 3c
       -0.06866313 0.07102256 0.006235528 0.014620837
000270 5f 56 aa 3b 51 49 38 bd 34 b2 8a 3c 0e eb 6e 3d
       0.0051982845 -0.044991795 0.016930677 0.058329634
000280 63 c3 b0 3c 4f f6 76 3c bf 64 85 bc 58 eb 3f 3d
       0.021577543 0.015073373 -0.016283391 0.0468553
000290 e8 1c 84 3c 42 34 ec bc aa 55 e7 3b d2 c6 52 bd
       0.016127065 -0.028833512 0.0070597725 -0.05145914
0002a0 09 e9 c9 bd 43 8e 71 3c a9 cc 9a bd 26 5b af 3d
       -0.09858901 0.0147433905 -0.07558567 0.08562307
0002b0 9f 2b ba 3d fd d1 4b 3d 9b b0 8e 3d a0 1e 8b bd
       0.09090351 0.049760807 0.069672786 -0.06792951
0002c0 94 8e 3c 3e 66 e8 46 bb 83 58 02 be be ec c5 3c
       0.18413764 -0.0030350923 -0.12729077 0.024160739
0002d0 a2 cd 01 3d c0 02 11 3d 74 e1 ba bd a5 9c 50 bd
       0.031690247 0.035403013 -0.09125033 -0.050930638
0002e0 e2 7d a7 bd fd 47 e1 3d 07 18 ea 3c a9 87 c9 3c
       -0.08178307 0.11000059 0.02857591 0.02460082
0002f0 a1 47 57 3c 12 c8 90 3d 41 7b a4 bd a6 46 05 be
       0.013139636 0.070694104 -0.08031321 -0.13015231
000300 dd bd 31 bb 4c 05 c5 3d df 92 71 3c c4 19 62 bd
       -0.0027121224 0.09620151 0.014744489 -0.055200353
000310 5b a0 2a 3e e1 f3 b1 bd c9 53 65 bd e1 b6 fe 3d
       0.16662733 -0.08689094 -0.055988107 0.12437225
000320 cd be dc 3d bf 1d 17 be 58 ec 96 3c 9d 6f e9 3d
       0.1077858 -0.14757441 0.018423244 0.11398242
000330 08 f9 9f 3d 86 b6 b1 bc ff 69 57 bd 70 07 02 be
       0.07811171 -0.02169348 -0.05259132 -0.1269815
000340 06 5b 50 bb d2 d0 3c 3d 4c 95 0a bd b4 2c d4 bc
       -0.0031792535 0.046097584 -0.033833787 -0.025900222
000350 f6 3b db bd 74 85 38 bc f1 a9 ea bb 4a f1 e2 bb
       -0.10704796 -0.011262286 -0.007161372 -0.0069257366
000360 23 c9 13 3c d1 82 f4 3b c4 39 6e bd 7e 7d 28 be
       0.009020123 0.0074618836 -0.05816056 -0.16454121
000370 6c 09 07 bd 9f a6 db 3b 55 02 5b bb 0f 05 ba bc
       -0.03296797 0.0067032124 -0.0033418138 -0.02270749
000380 c4 d1 97 be 43 48 1c 3a 76 67 de bd 76 64 8d bd
       -0.29652226 0.00059616956 -0.10859577 -0.06903927
000390 e3 e5 83 3d 31 c7 4b 3d cd ef eb bd 6c 5f 47 bd
       0.06440332 0.04975051 -0.11520348 -0.048674986
0003a0 ab ac 37 3d 67 d8 35 bd 2a f2 85 3c 28 06 f5 bd
       0.044842403 -0.04439583 0.016350824 -0.11964065
0003b0 bf 06 a5 3b ad 3f d4 3c 64 c8 0d 3e 9a 5e b8 bd
       0.0050362046 0.02590927 0.13845974 -0.09002419
0003c0 f0 fe 3a bc 66 b3 bd 3d 16 94 cc bc a9 07 fe bc
       -0.011413321 0.09262733 -0.024972957 -0.031009512
0003d0 6b af 1e bb d8 f5 a9 3d ad 8b 78 bd f3 fa 48 3d
       -0.0024213444 0.08298844 -0.06068008 0.04906745
0003e0 d4 91 8f 3c 18 0e aa bd 5a 98 a1 3c 7e da 28 bc
       0.017525591 -0.083034694 0.019725967 -0.010305999
0003f0 d5 1e 42 3d ba b7 c4 3c fe 22 09 3e 13 6d d3 3b
       0.047392685 0.024013389 0.13392255 0.0064522116

network_body._body_endoder.seq_layers.0.bias f4 [128]
000000 00 00 00 00 00 00 00 00 00 00 00 00 00 00 00 00
       0.0 0.0 0.0 0.0
000010 00 00 00 00 00 00 00 00 00 00 00 00 00 00 00 00
       0.0 0.0 0.0 0.0
000020 00 00 00 00 00 00 00 00 00 00 00 00 00 00 00 00
       0.0 0.0 0.0 0.0
000030 00 00 00 00 00 00 00 00 00 00 00 00 00 00 00 00
       0.0 0.0 0.0 0.0
000040 00 00 00 00 00 00 00 00 00 00 00 00 00 00 00 00
       0.0 0.0 0.0 0.0
000050 00 00 00 00 00 00 00 00 00 00 00 00 00 00 00 00
       0.0 0.0 0.0 0.0
000060 00 00 00 00 00 00 00 00 00 00 00 00 00 00 00 00
       0.0 0.0 0.0 0.0
000070 00 00 00 00 00 00 00 00 00 00 00 00 00 00 00 00
       0.0 0.0 0.0 0.0
000080 00 00 00 00 00 00 00 00 00 00 00 00 00 00 00 00
       0.0 0.0 0.0 0.0
000090 00 00 00 00 00 00 00 00 00 00 00 00 00 00 00 00
       0.0 0.0 0.0 0.0
0000a0 00 00 00 00 00 00 00 00 00 00 00 00 00 00 00 00
       0.0 0.0 0.0 0.0
0000b0 00 00 00 00 00 00 00 00 00 00 00 00 00 00 00 00
       0.0 0.0 0.0 0.0
0000c0 00 00 00 00 00 00 00 00 00 00 00 00 00 00 00 00
       0.0 0.0 0.0 0.0
0000d0 00 00 00 00 00 00 00 00 00 00 00 00 00 00 00 00
       0.0 0.0 0.0 0.0
0000e0 00 00 00 00 00 00 00 00 00 00 00 00 00 00 00 00
       0.0 0.0 0.0 0.0
0000f0 00 00 00 00 00 00 00 00 00 00 00 00 00 00 00 00
       0.0 0.0 0.0 0.0
000100 00 00 00 00 00 00 00 00 00 00 00 00 00 00 00 00
       0.0 0.0 0.0 0.0
000110 00 00 00 00 00 00 00 00 00 00 00 00 00 00 00 00
       0.0 0.0 0.0 0.0
000120 00 00 00 00 00 00 00 00 00 00 00 00 00 00 00 00
       0.0 0.0 0.0 0.0
000130 00 00 00 00 00 00 00 00 00 00 00 00 00 00 00 00
       0.0 0.0 0.0 0.0
000140 00 00 00 00 00 00 00 00 00 00 00 00 00 00 00 00
       0.0 0.0 0.0 0.0
000150 00 00 00 00 00 00 00 00 00 00 00 00 00 00 00 00
       0.0 0.0 0.0 0.0
000160 00 00 00 00 00 00 00 00 00 00 00 00 00 00 00 00
       0.0 0.0 0.0 0.0
000170 00 00 00 00 00 00 00 00 00 00 00 00 00 00 00 00
       0.0 0.0 0.0 0.0
000180 00 00 00 00 00 00 00 00 00 00 00 00 00 00 00 00
       0.0 0.0 0.0 0.0
000190 00 00 00 00 00 00 00 00 00 00 00 00 00 00 00 00
       0.0 0.0 0.0 0.0
0001a0 00 00 00 00 00 00 00 00 00 00 00 00 00 00 00 00
       0.0 0.0 0.0 0.0
0001b0 00 00 00 00 00 00 00 00 00 00 00 00 00 00 00 00
       0.0 0.0 0.0 0.0
0001c0 00 00 00 00 00 00 00 00 00 00 00 00 00 00 00 00
       0.0 0.0 0.0 0.0
0001d0 00 00 00 00 00 00 00 00 00 00 00 00 00 00 00 00
       0.0 0.0 0.0 0.0
0001e0 00 00 00 00 00 00 00 00 00 00 00 00 00 00 00 00
       0.0 0.0 0.0 0.0
0001f0 00 00 00 00 00 00 00 00 00 00 00 00 00 00 00 00
       0.0 0.0 0.0 0.0

network_body._body_endoder.seq_layers.2.weight f4 [128, 128]
000000 78 2f 0c bd 7f 86 a7 3d 84 17 87 3d 23 f7 09 3e
       -0.034224957 0.0817995 0.06596282 0.13473181
000010 8c f3 2c 3b 3f 95 a3 bd 60 75 aa bc fd 66 b9 bc
       0.0026390282 -0.07987451 -0.020807922 -0.022632116
000020 2a 06 b8 3d cb a4 20 3e e9 ef 53 bd 64 aa d2 bd
       0.08985551 0.15687864 -0.051742468 -0.10286406
000030 10 24 60 3d 6a 14 25 3e 54 6b 9e 3c 7d 9c 8d 3c
       0.054721892 0.16121069 0.019338287 0.017286533
000040 1a af 0d be c6 52 b4 3b c6 43 ea bd 72 66 f2 3a
       -0.13836327 0.0055030314 -0.11438708 0.0018493666
000050 4a 8b 9b 3c a6 1c f3 3c 5a c5 d3 bc 14 af 3e be
       0.018987317 0.029676747 -0.02585094 -0.18621475
000060 bc 89 dc 3c e4 51 cc 3d 29 00 1c 3e 48 38 0f 3c
       0.026921146 0.09976557 0.15234436 0.008741446
000070 3e cb 9c 3d 1a 9e 3d 3d c7 85 41 3c 4c b0 2a bd
       0.07655953 0.046293356 0.01181168 -0.041672036
000080 6a 69 ee bd 17 61 78 bd b0 c8 0c 3e f7 9e 17 3e
       -0.116412 -0.060639467 0.13748431 0.14806734
000090 b1 a0 90 3d a3 72 bb 3d 2d b3 bf 3b 3f 89 14 bd
       0.070618995 0.091527246 0.005850217 -0.0362637
0000a0 c6 ca 00 be 6a af 88 bd c0 97 da 3d 56 8c 8e 3d
       -0.12577352 -0.066740826 0.10673475 0.06960361
0000b0 3b b8 eb bc d0 cf 4b bd ed 42 0b 3e a2 71 00 3e
       -0.028774371 -0.049758732 0.13599749 0.12543347
0000c0 0e 00 f8 3c 10 da 8a bd 6a 38 cd bc ab ed 9e bd
       0.030273464 -0.06779873 -0.025051314 -0.07760175
0000d0 6f 22 20 3b eb cf 13 3d 37 ee b3 bc b3 1c ab 3d
       0.0024434587 0.036086958 -0.021964176 0.08355083
0000e0 5b a6 32 3d 99 de ba bd 23 d4 b0 3d 23 8c 43 bc
       0.04361568 -0.091244884 0.08634212 -0.011935267
0000f0 37 bb 8f 3d 5f e2 64 bd cf 35 4f 3e 34 42 ab 3d
       0.0701813 -0.055879947 0.2023537 0.083622366
000100 80 df 92 3d 13 38 42 3e df 63 a7 bd 40 18 ab bc
       0.071715355 0.18966703 -0.08173346 -0.020885587
000110 93 45 94 3d 41 b0 1d be 4e 8f 5c bc 7f e5 cb 3c
       0.07239833 -0.15399267 -0.013461901 0.024889706
000120 e6 b1 2c 3e d1 b3 37 bd 2e 70 a1 3d 2f cf 60 3c
       0.16864738 -0.04484922 0.07882725 0.013721271
000130 2b 2f a8 3d d8 68 cb bc cd bd 44 bc 8f ec 3e 3e
       0.082121216 -0.024830267 -0.012008143 0.18644927
000140 2b 6b 1e 3e 6d 0d 18 be c9 46 31 bd 58 17 9d bc
       0.15470569 -0.14848872 -0.043280397 -0.01917617
000150 15 72 9e bc 8d 5c be 3d 89 6a c3 3d 95 56 8a 3a
       -0.019341508 0.092949964 0.09541804 0.0010554368
000160 66 14 8e 3d 0e ec ac bd 68 7f a7 bb 32 6c 20 bd
       0.069374844 -0.08443461 -0.0051116236 -0.039165683
000170 cf 93 a3 bd 9a c1 a0 3d 2f b3 99 3c fb 46 58 be
       -0.079871766 0.078494266 0.0187622 -0.21120827
000180 b8 ad 9d bd 70 1a a1 3c 39 68 79 bd e3 f8 66 bd
       -0.0769915 0.019665927 -0.06089041 -0.0563897
000190 0d 5a c6 3d db 5a 02 3e 6d 73 38 bd ae 7e bc 3d
       0.096851446 0.12729971 -0.045031954 0.0920385
0001a0 1b d5 34 bd 05 68 8b bd a1 5b b0 3b c3 36 25 be
       -0.044148546 -0.068069495 0.0053820168 -0.16134171
0001b0 f0 a7 72 3d 04 46 81 bd 47 ac e6 bd 5b 1e 93 bd
       0.05924219 -0.063121825 -0.11263328 -0.07183524
0001c0 14 12 a1 3a 29 18 57 bd 0c cb 3c bc 1b 33 13 be
       0.0012288713 -0.052513275 -0.0115230195 -0.14374964
0001d0 c0 da dc 3d 3a 1a c1 3c 42 7e 07 3d 6f 62 fa bd
       0.10783911 0.023572076 0.033079393 -0.12225806
0001e0 92 df 84 3d 11 60 11 3d dc 59 a3 3c 96 1a 1f 3d
       0.06487955 0.035492007 0.01994031 0.038843714
0001f0 b4 15 fd 3a a1 21 a6 bb 29 fc 73 bd 7f d5 b8 3d
       0.0019308836 -0.005069927 -0.05956665 0.09025096
000200 d4 f7 a0 3c 37 8d c4 bd 92 09 93 3d f6 d0 4b 3d
       0.019649424 -0.09597247 0.0717956 0.049759828
000210 93 ae 23 3d 30 f7 85 3e 61 57 41 3d 85 a4 bc bd
       0.03996141 0.26165152 0.04720247 -0.09211067
000220 0f 35 8b 3d ff d9 29 bc 11 39 82 3c 8a 8d b0 3d
       0.067972295 -0.010366916 0.015896352 0.086207464
000230 9a c4 5a 3e 32 4b 91 3d 4a b8 02 3c c5 cf 9e bd
       0.2136406 0.070944205 0.007978508 -0.07754473
000240 2e 96 e7 bb ad 66 24 3d 26 8f 0f be 51 4d c2 3d
       -0.0070674634 0.04013698 -0.1401945 0.09487403
000250 5e 6d 01 be 97 b6 65 bd f5 a4 d1 3d 78 87 8b bd
       -0.12639377 -0.056082334 0.10236541 -0.06812948
000260 e3 b8 22 3d 1a b2 90 3d de 6e 80 3a 75 93 95 3d
       0.039727103 0.0706522 0.0009798666 0.07303516
000270 f8 ce c4 bd 05 c7 03 be cd 86 01 3e f8 12 c5 3c
       -0.09609789 -0.12868889 0.12649079 0.024056897
000280 ca b9 23 be 65 ce 52 3e 5b 07 89 3c 40 82 cc 3c
       -0.15988842 0.20586546 0.01672714 0.024964452
000290 c1 a6 8e bd 45 14 f5 bd 81 92 c5 3d 58 3a 4e bd
       -0.069653995 -0.11966757 0.09647084 -0.05034861
0002a0 17 6e 08 3e d8 df 00 3e bd 23 57 bd 55 13 30 3c
       0.13323246 0.1258539 -0.052524317 0.010746797
0002b0 e0 f5 66 3c 24 92 1b 3e eb 47 b1 bd 2b ef 65 3d
       0.014096707 0.15192467 -0.086562954 0.05613629
0002c0 5d 3e a0 bc 40 71 c4 bd 00 1f aa 3b 28 5f 5c 3d
       -0.019560987 -0.09591913 0.005191684 0.053801686
0002d0 0e 7b 8f bd 53 fe c0 bd ca 33 97 bd 9b b4 14 bd
       -0.07005893 -0.094235085 -0.07382925 -0.03630505
0002e0 a6 08 9c 3d e1 d1 23 3e d7 0f 92 bd f7 b3 a9 3d
       0.07618837 0.15998031 -0.071319275 0.08286279
0002f0 08 94 89 3d 04 28 3d 3d e0 3e 45 bd 57 72 03 3d
       0.06717688 0.04618074 -0.048155665 0.032091465
000300 28 c4 75 bb 6b 5d 30 3d 8a 0a 24 bd bc 35 62 bd
       -0.0037500951 0.04305784 -0.040049113 -0.055227026
000310 cc 59 2f 3d a5 99 96 3c d4 c5 2a bd 58 72 b4 bd
       0.042810246 0.01838381 -0.04169257 -0.08810872
000320 5e 46 9c bd 3c 50 cf bd 60 a2 13 bc 02 b2 88 bb
       -0.07630609 -0.10122725 -0.009010881 -0.004171611
000330 9d 6b f4 bd 65 37 1b 3e e3 9a 28 3e 73 55 c8 3d
       -0.11934588 0.1515785 0.16465335 0.09781923
000340 1f 0b 8e 3d 3d 86 b5 3c e0 4a 1a be 67 c3 f3 3c
       0.06935715 0.022158736 -0.15067625 0.029756261
000350 45 f5 79 3c ea de 73 3c 25 1c 97 3d 69 0b 14 3d
       0.015256231 0.01488469 0.07378415 0.036143694
000360 be 58 08 be 12 9c a5 3d 83 51 8e bc 6a f1 53 3c
       -0.13315102 0.08086409 -0.017372852 0.012935976
000370 16 ab ae 3c af 0a 92 3d 17 47 17 be 63 0e 04 be
       0.021321815 0.07130944 -0.14773212 -0.12896113
000380 12 78 c6 bd 20 ee 82 3e 0d eb 04 3e 2c 0d 27 bd
       -0.0969087 0.255723 0.1298029 -0.040784046
000390 37 09 d3 bd 92 14 2c 3d 59 83 db bc dd 07 7b 3d
       -0.10304492 0.042011805 -0.02679603 0.061286796
0003a0 8d 5e 1e 3d ab aa ba 3d 36 c1 d9 3d c2 7e d9 3d
       0.03866439 0.091145836 0.10632555 0.1061988
0003b0 70 5f 1c 3e 65 95 97 bd af 2c 1d be b3 56 80 bd
       0.15270782 -0.074015416 -0.15349077 -0.062665366
0003c0 1a 2a 4b 3c 89 2e da bd a8 f3 0b 3e 4b 6c 84 3d
       0.0124001745 -0.10653407 0.13667166 0.06465968
0003d0 ba d1 0d be 34 8d 17 3e 63 21 10 be bd 19 a9 bb
       -0.13849536 0.14799958 -0.14075236 -0.005160539
0003e0 76 cf 00 be 64 8c 6b bd 4b 06 fe bd f8 ab ca ba
       -0.1257914 -0.057506934 -0.12403544 -0.0015462628
0003f0 5a 76 e1 bc 1f f2 58 be 04 17 fa 3d 42 4e 8c 3c
       -0.027522255 -0.21186112 0.12211421 0.01712716

network_body._body_endoder.seq_layers.2.bias f4 [128]
000000 00 00 00 00 00 00 00 00 00 00 00 00 00 00 00 00
       0.0 0.0 0.0 0.0
000010 00 00 00 00 00 00 00 00 00 00 00 00 00 00 00 00
       0.0 0.0 0.0 0.0
000020 00 00 00 00 00 00 00 00 00 00 00 00 00 00 00 00
       0.0 0.0 0.0 0.0
000030 00 00 00 00 00 00 00 00 00 00 00 00 00 00 00 00
       0.0 0.0 0.0 0.0
000040 00 00 00 00 00 00 00 00 00 00 00 00 00 00 00 00
       0.0 0.0 0.0 0.0
000050 00 00 00 00 00 00 00 00 00 00 00 00 00 00 00 00
       0.0 0.0 0.0 0.0
000060 00 00 00 00 00 00 00 00 00 00 00 00 00 00 00 00
       0.0 0.0 0.0 0.0
000070 00 00 00 00 00 00 00 00 00 00 00 00 00 00 00 00
       0.0 0.0 0.0 0.0
000080 00 00 00 00 00 00 00 00 00 00 00 00 00 00 00 00
       0.0 0.0 0.0 0.0
000090 00 00 00 00 00 00 00 00 00 00 00 00 00 00 00 00
       0.0 0.0 0.0 0.0
0000a0 00 00 00 00 00 00 00 00 00 00 00 00 00 00 00 00
       0.0 0.0 0.0 0.0
0000b0 00 00 00 00 00 00 00 00 00 00 00 00 00 00 00 00
       0.0 0.0 0.0 0.0
0000c0 00 00 00 00 00 00 00 00 00 00 00 00 00 00 00 00
       0.0 0.0 0.0 0.0
0000d0 00 00 00 00 00 00 00 00 00 00 00 00 00 00 00 00
       0.0 0.0 0.0 0.0
0000e0 00 00 00 00 00 00 00 00 00 00 00 00 00 00 00 00
       0.0 0.0 0.0 0.0
0000f0 00 00 00 00 00 00 00 00 00 00 00 00 00 00 00 00
       0.0 0.0 0.0 0.0
000100 00 00 00 00 00 00 00 00 00 00 00 00 00 00 00 00
       0.0 0.0 0.0 0.0
000110 00 00 00 00 00 00 00 00 00 00 00 00 00 00 00 00
       0.0 0.0 0.0 0.0
000120 00 00 00 00 00 00 00 00 00 00 00 00 00 00 00 00
       0.0 0.0 0.0 0.0
000130 00 00 00 00 00 00 00 00 00 00 00 00 00 00 00 00
       0.0 0.0 0.0 0.0
000140 00 00 00 00 00 00 00 00 00 00 00 00 00 00 00 00
       0.0 0.0 0.0 0.0
000150 00 00 00 00 00 00 00 00 00 00 00 00 00 00 00 00
       0.0 0.0 0.0 0.0
000160 00 00 00 00 00 00 00 00 00 00 00 00 00 00 00 00
       0.0 0.0 0.0 0.0
000170 00 00 00 00 00 00 00 00 00 00 00 00 00 00 00 00
       0.0 0.0 0.0 0.0
000180 00 00 00 00 00 00 00 00 00 00 00 00 00 00 00 00
       0.0 0.0 0.0 0.0
000190 00 00 00 00 00 00 00 00 00 00 00 00 00 00 00 00
       0.0 0.0 0.0 0.0
0001a0 00 00 00 00 00 00 00 00 00 00 00 00 00 00 00 00
       0.0 0.0 0.0 0.0
0001b0 00 00 00 00 00 00 00 00 00 00 00 00 00 00 00 00
       0.0 0.0 0.0 0.0
0001c0 00 00 00 00 00 00 00 00 00 00 00 00 00 00 00 00
       0.0 0.0 0.0 0.0
0001d0 00 00 00 00 00 00 00 00 00 00 00 00 00 00 00 00
       0.0 0.0 0.0 0.0
0001e0 00 00 00 00 00 00 00 00 00 00 00 00 00 00 00 00
       0.0 0.0 0.0 0.0
0001f0 00 00 00 00 00 00 00 00 00 00 00 00 00 00 00 00
       0.0 0.0 0.0 0.0

action_model._discrete_distribution.branches.0.weight f4 [6, 128]
000000 2f dc 08 b9 23 6e ae bc da e9 f8 38 1b 20 38 bc
       -0.00013051995 -0.021292752 0.0001186912 -0.011238123
000010 a7 41 97 ba bb fc b5 3a 7d 13 4c bc 4c 86 2a 3b
       -0.0011539952 0.0013884524 -0.012455818 0.0026019989
000020 a2 e8 0b bc 4d 16 cf b9 49 86 a4 bc 8d 59 d2 b7
       -0.008539351 -0.00039498732 -0.020083563 -2.5075651e-05
000030 d0 28 87 3c a2 00 ab bb 18 8a 40 3b 10 ee c6 b8
       0.016498953 -0.0052185813 0.0029379185 -9.485718e-05
000040 ab ce aa 3c d3 85 08 3c b5 45 b6 3b 34 fc ae 39
       0.0208505 0.008332687 0.005562509 0.00033375772
000050 bd 4f a7 bb 10 4d a7 3c 4b 1a 5c bb 4f e0 9d 3b
       -0.005105941 0.020422488 -0.0033585008 0.0048179994
000060 bf f2 d1 bb cf 9f 25 3c 5a db 1a 3b 17 e5 7d 3b
       -0.0064071114 0.010108902 0.002362928 0.0038741285
000070 4f bc 25 bc 87 53 27 3c ba 65 d7 bb f8 99 e7 bb
       -0.010115697 0.010212786 -0.006573406 -0.007067915
000080 05 01 c1 bb c3 b4 00 b9 fd 2f dc bb 5b bb 15 3b
       -0.005890014 -0.0001227437 -0.006719588 0.0022847268
000090 95 01 dd bb d7 28 10 3c 7f f9 ec 3b 75 61 81 bb
       -0.0067445734 0.0087987995 0.0072318907 -0.0039483854
0000a0 00 bd c5 3a 53 22 1c 3b 79 9e 2e 3b cd f4 55 ba
       0.0015086234 0.002382417 0.002664475 -0.00081617833
0000b0 4b 0e 42 bb 27 90 22 3c ba 01 92 3b 1f 7a f7 bb
       -0.002961057 0.009922064 0.004455772 -0.0075523998
0000c0 59 d5 08 bc ff fd 24 bc ae 4d 1b 3c 83 a5 3e ba
       -0.008351647 -0.010070323 0.0094789695 -0.0007272588
0000d0 c5 fb ef 3a 03 5e b6 bb db 75 82 bb 91 a5 b2 3b
       0.0018309286 -0.0055654063 -0.0039813346 0.005451866
0000e0 7b fb f9 3b 39 27 82 3b 67 4d 11 bc a3 7d b3 3b
       0.0076288558 0.003971961 -0.008868552 0.0054776235
0000f0 de b6 0e 3c 70 b8 14 bb 18 2e 5a 3c 88 97 2a ba
       0.008710591 -0.002269294 0.013316654 -0.0006507565
000100 d2 f3 f1 ba 03 a1 91 3c 1d 34 fd ba 50 36 21 bc
       -0.0018459505 0.017776972 -0.0019317899 -0.009839609
000110 15 66 56 3c 1d bb 1c bc 8c b0 0b 3c 58 49 f9 3b
       0.013085862 -0.009566096 0.008525979 0.00760762
000120 9c a8 c1 3b 22 f9 b6 ba 2f 6d 24 bc 78 07 4d 3b
       0.0059099924 -0.0013959745 -0.010035797 0.003128497
000130 70 b5 51 bb c1 1d 8f 3b 21 61 1d bc bf 73 82 bc
       -0.0031999014 0.0043675606 -0.009605677 -0.015924333
000140 75 6d c3 3b 60 ce e5 3b cf ef c7 bc 97 67 7a bb
       0.005963976 0.007013127 -0.024406342 -0.0038208717
000150 c8 3b 24 bc 2d c4 e0 bb bd 36 ff bb d2 18 44 bb
       -0.010024019 -0.0068593235 -0.0077885077 -0.002992202
000160 03 cf 07 3b ba 7d ae 3b 0a dd 49 bb 93 6a 83 bb
       0.0020722754 0.0053250464 -0.0030801916 -0.0040105074
000170 e3 48 b6 3b a0 01 3d ba 87 50 84 3b 76 ed 95 bc
       0.005562888 -0.000721002 0.00403792 -0.018301707
000180 8e 14 2b ba d2 ae 16 3c 8f 35 b0 bb c3 3b 4c bc
       -0.0006526195 0.009196954 -0.0053774784 -0.01246542
000190 d8 83 1c bc 7e 11 86 bc eb a3 38 bc 3f e3 7a bc
       -0.009552918 -0.016365763 -0.01126955 -0.015312969
0001a0 27 8d 26 3c 88 d6 f4 bc de 94 22 3b 17 75 c2 39
       0.010165489 -0.029887453 0.002480797 0.00037089802
0001b0 78 30 57 3b c5 0e c0 bb 48 45 45 ba cc 73 27 bc
       0.0032835286 -0.0058611357 -0.00075252773 -0.010220479
0001c0 7a 98 56 bc de 48 46 3b 70 78 d4 3b cf 91 7b 3b
       -0.013097877 0.0030255835 0.006484084 0.003838647
0001d0 05 98 2f 3c c7 09 b0 3b 22 24 de bb 6a 41 80 bb
       0.010717397 0.0053722593 -0.0067792097 -0.003914048
0001e0 0f 50 e7 bb eb 6f 1e 3b c8 74 81 bb 80 20 d9 3b
       -0.0070591043 0.0024175595 -0.003950689 0.0066261888
0001f0 52 ef 4a bc 92 fe 0a 3c 97 48 79 bc 0c 5c bc 3b
       -0.01238616 0.008483546 -0.015215061 0.0057482775
000200 1f 40 99 bb bf 3d 9e 3b 30 54 ec 3b 46 74 b3 3a
       -0.0046768333 0.004829138 0.0072121844 0.0013691268
000210 1f 3c e0 3a 8b 40 cc 3a 6a ef 03 bc 33 55 c7 3b
       0.0017107761 0.00155832 -0.008052686 0.0060831546
000220 eb 74 72 ba f3 82 af 3b 43 91 72 3c 1f d6 e9 3b
       -0.00092489895 0.0053561865 0.014805141 0.007136121
000230 2c 39 2c bb 40 65 1c 3c 1f ea 21 bb e0 21 83 3a
       -0.0026279194 0.009545624 -0.0024706197 0.0010004602
000240 28 78 7f 3b 2f d9 cf 3b 8a ea ce 3c 72 11 98 bc
       0.003898153 0.006343029 0.025258321 -0.018563006
000250 ef 0b 8f bb 20 04 7c bc 18 aa 50 3c cd 44 ca 3b
       -0.0043654363 -0.015381843 0.012735866 0.0061727525
000260 5e b7 06 bb f7 55 40 3b 72 e0 57 bc 95 30 3a bc
       -0.0020556073 0.0029348114 -0.0131760705 -0.011364122
000270 af e9 e2 3b 04 74 0c ba 1f ca b3 3c af e5 2d bc
       0.00692483 -0.0005357864 0.021946965 -0.010613843
000280 55 29 0d bc 9c 43 ac 3a 7b 5f 7a bb c6 0d 0a bc
       -0.008615811 0.0013142708 -0.0038203883 -0.008426135
000290 4b 18 43 3c a8 c6 fe ba db 6a eb ba 57 11 26 bc
       0.011907647 -0.0019437866 -0.0017960923 -0.01013597
0002a0 3a 0c a4 3b 87 99 8e 3b df 28 8d 3c 4a 97 54 3c
       0.0050063403 0.004351798 0.017231403 0.012975523
0002b0 03 83 2b 3c 8a b7 00 3c 2b 75 e0 3b d3 61 71 3b
       0.010468247 0.007856259 0.006849905 0.003683199
0002c0 80 21 98 bb 55 1e 5b 3b fb 85 f4 3b 27 a2 a3 39
       -0.0046426654 0.0033434827 0.007462261 0.00031210596
0002d0 c8 cb 9c ba 74 3c 38 3c e7 46 af bb e3 74 33 3a
       -0.0011962587 0.011244882 -0.0053490284 0.00068457256
0002e0 6b 7d 26 3c c3 a3 f1 3b 23 ee f6 3b f4 cc 90 3a
       0.010161738 0.0073742582 0.0075357123 0.0011047409
0002f0 b5 3e f7 ba 07 0d 4c 3b 37 53 85 3c a8 d7 87 bb
       -0.0018863293 0.0031135695 0.016275031 -0.0041455813
000300 2f ad 4f 3b b3 59 9a 3a 32 4a 99 3b c2 50 6c 3b
       0.0031688919 0.0011776 0.004678034 0.0036058878
000310 17 d1 00 bc bc 82 84 bb 4d 3a fd 38 0f 52 6c bb
       -0.007862351 -0.004043905 0.000120748395 -0.0036059653
000320 28 5d 78 bc c5 c8 6e bc 17 01 82 3b be 2a 1d bc
       -0.015158929 -0.014574234 0.003967415 -0.00959271
000330 78 4a 6b 3c e5 c9 cf 3a ac 7f 3e 3b d5 2d 73 ba
       0.014361016 0.0015853016 0.0029067798 -0.0009276544
000340 07 69 36 3c 73 b5 f8 b9 78 ea 23 bb f7 cb 17 3b
       0.011133439 -0.00047437436 -0.002501158 0.0023162344
000350 a7 d5 96 ba 8a 30 ca bb 70 5f 4f 3b 8f 54 b6 3b
       -0.0011507765 -0.006170337 0.0031642579 0.0055642794
000360 5d 22 e0 3b 98 18 16 bc 73 64 46 3c d0 05 cc bb
       0.006840034 -0.009161137 0.01210891 -0.006226279
000370 e8 24 c3 3a 98 78 01 bc 75 ce 20 3c 23 c3 c1 bb
       0.0014888318 -0.007902287 0.009814848 -0.0059131547
000380 eb 62 58 3b d6 68 0a bb 42 fe 2b bc 0f 88 d5 3b
       0.0033017944 -0.0021119616 -0.0104976315 0.0065164636
000390 27 ee 47 bc 5c a3 96 bc 2a 8c c5 bb 37 d6 de 3b
       -0.012202776 -0.018388443 -0.0060286717 0.0068004387
0003a0 07 e6 2a 3c 72 70 fd 3b ea 88 c9 3a d3 c3 b2 3c
       0.010430819 0.007734352 0.0015375887 0.021821892
0003b0 b8 07 6f 3c 9f 92 79 bb 20 31 0c bc a9 a6 08 bb
       0.014589243 -0.0038081778 -0.008556634 -0.002085129
0003c0 1f 7e 13 3c e2 78 bf 3b 91 72 c4 3c 37 bb d5 38
       0.009002238 0.005843268 0.02398041 0.00010191503
0003d0 cd 2b 24 ba a7 20 8c bb c0 cb 60 bc 34 41 08 3c
       -0.00062626303 -0.0042763534 -0.013720453 0.008316327
0003e0 1d 11 6b 39 b1 30 21 bc 43 04 53 bb a4 91 35 ba
       0.00022417722 -0.009838269 -0.0032198585 -0.0006926304
0003f0 27 c4 84 bb a1 dd 9f 3b 5e b1 b7 bb df 35 47 bc
       -0.0040517035 0.004878715 -0.0056058606 -0.01215884

action_model._discrete_distribution.branches.0.bias f4 [6]
000000 00 00 00 00 00 00 00 00 00 00 00 00 00 00 00 00
       0.0 0.0 0.0 0.0
000010 00 00 00 00 00 00 00 00
       0.0 0.0

action_model._discrete_distribution.branches.1.weight f4 [3, 128]
000000 ad 81 04 3c 52 c3 0d 3c ca 27 b9 3b 58 b5 b3 ba
       0.008087558 0.008652525 0.005650495 -0.0013710661
000010 3d 11 7a 3b 35 cf 59 bc 53 ad 52 bc c6 61 c9 bc
       0.0038157247 -0.013294031 -0.0128587065 -0.024582755
000020 47 60 01 3c e3 39 1c bc 53 85 90 bb 5a f7 e1 3b
       0.007896489 -0.009535286 -0.0044104247 0.0068959417
000030 d8 9c 89 3b d8 b5 6a bc c5 c3 f5 b9 4b 5c bf bb
       0.0041996054 -0.0143255815 -0.000468759 -0.0058398596
000040 e3 f0 b9 3b ec 14 29 bb d8 6e ca 3b 9e 18 4c bc
       0.005674468 -0.0025799824 0.0061777644 -0.012457041
000050 b0 31 6c 3c 33 e8 14 bb 30 ad 27 bc 9f d0 2a 3a
       0.014416143 -0.002272141 -0.010234162 0.00065160723
000060 38 38 8a 3b 0b 32 c7 3b c0 cf 4f bb 8a 4c 93 bb
       0.0042181276 0.0060789636 -0.0031709522 -0.004495208
000070 08 2a fb ba 45 7f 7d 3b 10 8b 77 3b bb 16 51 b8
       -0.0019162307 0.0038680595 0.0037772097 -4.9850652e-05
000080 83 ee 2e 3c 48 29 46 3b 0b 08 10 bc 04 b3 c6 ba
       0.010676983 0.0030237008 -0.00879098 -0.0015159552
000090 b8 94 0f 3c 90 77 62 bc 9b 06 88 bc bb 32 0f 3b
       0.008763485 -0.013822451 -0.016604712 0.0021850306
0000a0 b5 2f 16 3c 93 29 d5 ba 48 48 78 bb d8 eb 68 bb
       0.009166648 -0.0016263 -0.003788488 -0.0035540964
0000b0 f5 36 6c bb ff 3e ef 3b 50 60 16 3c 8d 69 e2 b9
       -0.00360435 0.007301211 0.009178236 -0.0004318472
0000c0 1b 40 14 3c eb 9c f8 bb b8 6d 3c bb 6c 1d 99 bb
       0.009048487 -0.0075870655 -0.002875192 -0.004672697
0000d0 cb 87 a1 ba 40 98 61 bc 3b 2b 48 bc cb 32 be bb
       -0.0012323795 -0.013769209 -0.012217338 -0.005804395
0000e0 0f e0 3f bc a5 8f 24 b9 e7 d1 a5 3c fd e5 6e bb
       -0.011711135 -0.0001569377 0.02024169 -0.0036453002
0000f0 7f 4a 40 3b 68 75 e6 3a 67 01 fd 3b 90 a9 b7 ba
       0.0029341278 0.0017582597 0.0077211144 -0.0014012326
000100 98 2f fa bb 95 07 38 3b dd 61 a6 3b f3 ad 7e b9
       -0.007635068 0.002808069 0.005077584 -0.00024288129
000110 bf 6e 42 3b 72 a0 70 38 97 20 a0 b9 0f a0 4c 39
       0.002966806 5.7369885e-05 -0.0003054186 0.00019514583
000120 81 d4 80 bb 09 fb b0 3b 4e 59 bb 3c b8 22 d8 bb
       -0.0039315824 0.0054010195 0.022869732 -0.0065959357
000130 b7 57 fc 3b 4c 92 29 3b eb be 9d 3b fe 03 30 bb
       0.007700886 0.0025874553 0.004814019 -0.0026857848
000140 29 9e 08 bc 4f 7e dd b9 b8 f6 00 bc 8e 89 15 3b
       -0.00833849 -0.00042246512 -0.007871322 0.0022817585
000150 a3 fb e8 bb 88 01 5a ba f3 d0 21 bb d2 41 07 3c
       -0.0071100756 -0.0008316268 -0.0024691194 0.008255439
000160 3f 0f 30 bc d4 7c 33 bc 63 cd cc 3b ef da cb bb
       -0.010745822 -0.010955054 0.00625007 -0.0062211673
000170 37 0a 86 ba 48 e5 01 bc 8d c7 59 3c 07 55 8b 3a
       -0.0010226433 -0.0079282 0.0132922055 0.0010630199
000180 05 0d 7c 3a 47 8a d3 ba d0 40 98 ba 15 d8 79 bb
       0.0009614977 -0.0016139232 -0.0011615995 -0.003812318
000190 88 61 f8 ba db 71 be bb 3a 7d bf 3b 0f 21 ee 3b
       -0.0018949965 -0.0058119125 0.0058437856 0.0072671245
0001a0 fb 3f c1 bb ae b1 a5 3b c5 c7 c7 39 cf 92 a4 bc
       -0.0058975196 0.0050565815 0.00038105078 -0.020089535
0001b0 d2 39 1e 3c 92 10 8b 3c ed 98 70 bc 9b 63 6b 3c
       0.00965734 0.016975675 -0.014684898 0.0143670095
0001c0 ed d6 4a 38 74 7c 1b 3c fb e0 8b bb ad 70 d5 ba
       4.836072e-05 0.009490121 -0.004268763 -0.001628419
0001d0 bc ae a9 3b c9 8e 29 3c e2 93 9d 3a 10 94 68 3c
       0.0051783007 0.010348984 0.0012022222 0.014195457
0001e0 83 74 d3 3a 5b 13 1f bc 73 d9 76 bc c3 ee e8 bb
       0.0016132746 -0.009709205 -0.015066492 -0.0071085407
0001f0 42 75 30 3c e4 99 85 bc be 7b 84 3b db b9 4f bb
       0.010770144 -0.016308732 0.0040430715 -0.0031696472
000200 f3 22 17 bc 68 09 29 3c ff bd 9b 3b 70 51 3d bb
       -0.009224641 0.010317184 0.004752874 -0.0028887652
000210 f2 ad 62 3b ef 1c 12 3b 0e 69 8b bb 62 af ef 3b
       0.0034588543 0.0022295078 -0.004254467 0.0073146084
000220 1f d1 58 ba c8 d9 1e 3b ea 40 a4 3b 8d 96 98 ba
       -0.00082709076 0.0024238694 0.005012621 -0.0011641547
000230 29 d5 9e 3a 32 81 fb bb 81 e2 1f bb c3 ad c9 ba
       0.001211797 -0.0076753134 -0.0024396481 -0.0015386868
000240 db 34 30 bc 72 91 f4 bb fb ee 85 ba 9a 6a e7 bb
       -0.010754789 -0.0074636275 -0.0010218316 -0.0070622684
000250 5d e9 69 3b 43 7c 10 bc db 31 f6 bb 30 68 dd 3b
       0.0035692074 -0.008818689 -0.0075132675 0.006756805
000260 32 ab f4 3b 4d ca 1a 3c c8 9b b4 3b 45 f6 67 ba
       0.007466697 0.009447646 0.0055117346 -0.00088486477
000270 7b ba cd 3b 67 85 31 3c 10 8f fd bb c2 45 76 bb
       0.0062783337 0.010835028 -0.0077380016 -0.00375782
000280 6e 34 b4 bb e2 15 dc 3b 87 5c 99 3b 13 de 5d bc
       -0.005499414 0.006716476 0.0046802196 -0.013541716
000290 2e 30 0d 3c 4f e2 13 3c d3 43 03 bc 7d 14 85 bb
       0.008617444 0.009026124 -0.008011776 -0.0040612803
0002a0 c1 9f b5 bb b7 3e 12 3b ed 08 e2 3b e3 9d 97 3a
       -0.005542726 0.0022315213 0.0068980367 0.001156744
0002b0 40 8b e9 bb d5 58 49 3c 87 2c 3c 3b 39 26 11 bc
       -0.0071271956 0.012289246 0.0028713064 -0.008859211
0002c0 27 52 a9 bb 23 40 30 3a 99 9e c7 bb 3f a4 61 bc
       -0.005167264 0.00067234243 -0.0060919044 -0.0137720695
0002d0 88 ff 88 3c 41 2e 8b ba ec 88 c4 bb 2e 83 27 3b
       0.01672341 -0.0010618643 -0.0059977677 0.0025560367
0002e0 9f 4f dd b9 ad fa 61 bb 47 53 f8 3a 3b 30 32 bc
       -0.00042211727 -0.003448169 0.0018945717 -0.010875757
0002f0 4d f4 91 3c f0 ec 07 3c 3b 67 fa bb b7 cf 2f bc
       0.017816687 0.008296236 -0.0076417006 -0.010730675
000300 c5 4c 2a 3b ff fe 17 bb e8 72 a9 bb d3 a2 78 bc
       0.00259857 -0.002319276 -0.0051711686 -0.015175539
000310 8d fb 2c bc 83 f5 01 3b 40 5b 2b 3c 65 08 9a bb
       -0.010558021 0.0019830174 0.010458767 -0.0047007077
000320 6c 90 9e 3b 82 59 62 bc 3e 25 97 3c 31 04 49 bb
       0.004838994 -0.013815286 0.018450376 -0.0030672664
000330 c6 b6 20 3c 45 9d b5 3b 53 67 59 3b 47 21 3f bc
       0.009809202 0.0055424296 0.0033173158 -0.011665649
000340 98 94 dc 3a 46 5c 1b bc a2 64 55 3b 0c 87 23 3a
       0.0016828952 -0.009482449 0.0032561203 0.000623808
000350 d0 6b 0a bc 0c 06 c8 39 97 09 a3 bb ca 78 8b bb
       -0.008448556 0.00038151478 -0.0049755084 -0.0042563425
000360 33 0f 84 bc 10 76 7b bb ed bc f4 3b 68 ae 9b 3b
       -0.016120529 -0.0038369931 0.007468811 0.0047510155
000370 e5 f4 0d 3c b8 39 34 bb 83 74 e6 3a 88 bb 77 bb
       0.008664344 -0.0027500223 0.0017582331 -0.0037800986
000380 a3 cb 44 bc 6b 13 eb 3a 15 7d c0 3a f5 fc 66 bc
       -0.012011441 0.0017934864 0.0014685715 -0.014098396
000390 03 db 9a 3a be 9c 24 3c 24 53 98 3b 82 f5 15 3a
       0.0011814538 0.010047136 0.004648583 0.00057204824
0003a0 95 16 4f bc e3 2f d5 ba f6 b1 96 3c 2d 71 9b 3b
       -0.012639661 -0.0016264882 0.018395405 0.004743716
0003b0 0f d6 b8 3a 51 f6 b0 3c 67 e7 0e bc 81 ba a9 ba
       0.001410188 0.021601828 -0.008722163 -0.0012949259
0003c0 bb d8 c6 ba 27 d0 b0 3b ea ba f4 bb 03 25 0c ba
       -0.0015170792 0.0053959074 -0.007468571 -0.00053460913
0003d0 c8 f5 ab bb dd e5 25 bb 95 44 78 3b e3 bc 40 3c
       -0.0052478053 -0.002531401 0.0037882675 0.011763784
0003e0 6a a0 1d bb 76 68 38 3c 75 7f 58 bb 21 06 00 3c
       -0.0024051913 0.011255374 -0.0033034955 0.007813961
0003f0 3f 0c 8b 3b 79 15 a0 3b c0 36 bc 39 68 5f f3 39
       0.004243403 0.0048853722 0.00035898946 0.00046419655

action_model._discrete_distribution.branches.1.bias f4 [3]
000000 00 00 00 00 00 00 00 00 00 00 00 00
       0.0 0.0 0.0

action_model._discrete_distribution.branches.2.weight f4 [3, 128]
000000 c7 55 5f bb 2c e8 00 bb cb 5d 90 3a ba be 2d bb
       -0.0034078227 -0.0019669635 0.0011014281 -0.0026511387
000010 61 fa 2b 3b a5 69 e0 bb 45 d8 72 bb cc 12 44 3c
       0.0026241767 -0.0068485313 -0.0037055176 0.011967372
000020 43 c7 c8 b9 69 d3 93 bc fa 49 df 39 e0 11 dd 3b
       -0.00038295434 -0.018045144 0.0004258899 0.0067465156
000030 46 7d 24 bc 98 09 67 bb ef b1 9d 3a 8a 8a cb bc
       -0.010039633 -0.003525352 0.0012031178 -0.024846334
000040 b5 ed 8f ba fd d3 76 bb 0e 2f 0b 3c c3 93 d6 bb
       -0.0010980876 -0.0037662976 0.008495105 -0.0065483763
000050 22 b3 78 3c a2 8f b4 3c 5d 3c 64 bc 5f f1 58 3b
       0.015179427 0.022041146 -0.013930407 0.0033102853
000060 76 b5 3c 3c 87 ee 35 ba 34 b6 3b 3c b2 05 d9 3b
       0.011517873 -0.00069401454 0.011457015 0.0066229934
000070 9c 52 c4 ba 15 3f 45 3c cb 9a ac bc 67 3b 5b 3c
       -0.0014978233 0.012038966 -0.021069905 0.013380862
000080 5b f0 13 3a ee 2e 89 3a f7 f5 72 bb af 6f a6 bb
       0.0005643421 0.0010466257 -0.0037072876 -0.0050792317
000090 87 5a 02 3c 7d ee 16 ba 3d 5b 20 bc bf 5b 56 3c
       0.007956154 -0.00057575834 -0.009787378 0.013083397
0000a0 db ac ae 38 8f 47 14 bc e5 77 30 3c 8b 22 ce bb
       8.3291634e-05 -0.009050264 0.010770773 -0.006290739
0000b0 d3 ac ca 3b e3 2d 4d bc ac 0b 94 3b 12 63 6e bb
       0.006185153 -0.012523147 0.004517993 -0.0036374968
0000c0 35 40 d7 3a f8 83 ea 3a 7b df 1b 3c 2d f3 bf bb
       0.0016422333 0.0017892113 0.009513731 -0.0058578462
0000d0 53 5b 49 3c 92 cb 7d bc 6d b3 c9 3a 15 c7 ec bb
       0.01228984 -0.0154904295 0.0015388556 -0.007225881
0000e0 17 3b ba 3a 75 dd 2f 3b 10 3c 21 bc e0 58 dc 3a
       0.0014208284 0.002683488 -0.00984098 0.0016811155
0000f0 27 23 0f bc 83 05 09 bc d0 c7 ef 3b 1b db 11 bc
       -0.008736408 -0.0083631305 0.0073175207 -0.0089023365
000100 40 18 55 bc 63 6b d1 3b e8 15 73 bb 46 e6 a8 bb
       -0.01300627 0.0063909753 -0.0037091915 -0.005154404
000110 39 da 89 ba 40 f6 8b 3a 5a f3 bb 3a 75 4a 64 3b
       -0.0010517306 0.0010678247 0.0014339492 0.003483442
000120 65 e0 63 bb af 69 ba b8 3a 06 ac bb 1e cf 1a bb
       -0.00347712 -8.888856e-05 -0.0052497657 -0.0023621987
000130 3f e1 36 3c 4f 88 06 bb 68 64 2f 3c ab 1f fa 3b
       0.011162101 -0.0020528024 0.010705091 0.0076331696
000140 e0 1a 0c 3b b5 34 45 bc 55 a8 e7 bb db b6 66 3b
       0.0021378323 -0.012036492 -0.0070696273 0.0035204205
000150 56 49 1d bc 08 a3 a1 3b 3f 8b 8b bc d7 d6 29 3a
       -0.009600004 0.004932765 -0.017034171 0.0006478852
000160 80 93 dd bb b7 42 8f 3c 57 f4 55 3c e7 33 ff ba
       -0.006761968 0.017487867 0.013058743 -0.0019470424
000170 a8 60 ee 3b 37 77 41 3c 2b ad 06 3b 8b 4d 64 ba
       0.007274706 0.011808208 0.0020549993 -0.00087090646
000180 73 b8 9f 3b 2b 31 61 3b 95 ff a4 3b 77 76 19 3c
       0.004874283 0.0034361582 0.0050353506 0.009366623
000190 9a 73 a8 3b 2f 3a 0e 3b 24 16 9b bb e7 93 f8 3b
       0.005140734 0.002170216 -0.004732864 0.0075859907
0001a0 72 b7 64 bc 72 cf 9f 3b 5a 53 fe 3b df cd 25 3a
       -0.013959752 0.0048770243 0.007761401 0.00063249277
0001b0 8c 3a 35 3c 68 81 1e bc ef 47 82 bc a6 e9 02 3c
       0.011061322 -0.009674408 -0.015903441 0.007990276
0001c0 b3 7c 30 ba 15 2f 1a 3c 33 b8 13 3c c1 20 15 bc
       -0.0006732449 0.009410639 0.0090160845 -0.009102047
0001d0 d1 0c c0 bb 3f 63 57 3c 26 6c 17 3c 35 40 0b 3c
       -0.005860903 0.013146221 0.009242093 0.008499195
0001e0 fb 9d 81 bc a8 16 62 bc 7a 39 52 3c d3 5f f7 3b
       -0.015822401 -0.013799347 0.012831086 0.007549265
0001f0 fd 7c 82 ba a1 a6 8a 3c 50 79 7e bc cb 5a 15 3a
       -0.0009955462 0.016925158 -0.015531853 0.0005697428
000200 47 2d 24 bc 1d 27 5a 3c 38 8f e9 bb 60 40 cb b8
       -0.010020561 0.013314989 -0.0071276687 -9.691785e-05
000210 ef 8f 48 3a 52 81 69 3c 48 d1 61 bc a3 a5 82 3b
       0.00076508423 0.014252024 -0.013782807 0.0039870306
000220 f2 42 a7 bb d4 f5 3c 3c d3 76 76 39 05 7a 3b bc
       -0.005104416 0.011533219 0.00023504654 -0.011442666
000230 1b 81 39 bc ef dc 2f bc 73 70 d4 bb 9d 5e 51 3c
       -0.011322285 -0.010733827 -0.0064831316 0.012778905
000240 a7 12 39 bc fc 95 48 3c b3 e6 97 b9 3d 3d d2 3b
       -0.011295951 0.01224279 -0.0002897285 0.0064159916
000250 49 63 46 bb 23 b4 4b bc bb f0 41 bc 42 ac 5c bc
       -0.003027158 -0.012433085 -0.01183718 -0.013468804
000260 7f 98 3a bb 8b 6d e8 bb 25 da 6f ba 57 99 53 bc
       -0.0028472242 -0.0070931367 -0.00091496325 -0.012914977
000270 93 10 f7 ba 40 c8 fb bb 7f c0 74 bc d7 24 4a bb
       -0.0018849544 -0.007683784 -0.014938473 -0.0030844712
000280 ab b7 4f 3b 6a 8b b7 bb ef 91 96 3a 90 ae f8 bb
       0.0031695168 -0.0056013362 0.0011487583 -0.007589169
000290 f8 08 99 bb 60 8d ef ba dd 8f b9 3c 4d 74 59 3c
       -0.0046702586 -0.0018276386 0.022651607 0.013272357
0002a0 12 4e cf 3b 58 9e 39 3c 02 af d5 bb 37 d9 a8 3b
       0.0063264454 0.011329256 -0.0065211067 0.005152847
0002b0 28 0f 57 39 90 1b 2b 3c fd 18 ca bb dd 97 40 3c
       0.00020509644 0.010443583 -0.0061675296 0.011754957
0002c0 ad 6a d9 3b 2f 21 5c 3b 8d 1e 64 3a fe cf 3f bc
       0.006635031 0.0033589115 0.0008702062 -0.011707304
0002d0 eb 7f a0 bb dd 64 ea 39 46 81 96 bb 5b b8 3c 3c
       -0.0048980615 0.00044707107 -0.0045930473 0.011518563
0002e0 e7 77 f1 bb 1d 37 53 3b e5 4f f1 3b 7d 9b 30 3c
       -0.00736903 0.0032228895 0.0073642605 0.010779259
0002f0 4f a8 3a bc ab 2a 9f bb 44 01 18 bc 55 df 57 3b
       -0.011392667 -0.0048573813 -0.0092776455 0.0032939513
000300 bf a1 c8 bc 3b 38 45 bc b8 87 3f bb 03 9b 43 3c
       -0.024491189 -0.012037332 -0.0029225182 0.011938813
000310 0f c7 8c 3c 67 06 8f ba 7e d9 04 bc 5f 9d a0 3b
       0.017184762 -0.0010911942 -0.008108495 0.0049015726
000320 65 b7 6c 3b b4 9b 82 3c 88 8a d2 3b 40 5c 5a ba
       0.0036120054 0.015943386 0.0064252056 -0.00083297864
000330 f8 c6 f7 b9 9e d7 85 bc 65 9c 30 bc 15 ae e2 bb
       -0.00047259755 -0.016338166 -0.010779475 -0.006917725
000340 3a c1 b4 39 a8 fc 74 b9 a5 43 e1 3b e1 91 ae bc
       0.0003447624 -0.00023363775 0.006874519 -0.021309795
000350 e6 6b 17 3c ba b2 de bb 76 12 87 bb bb bc 8e 3c
       0.009242034 -0.006796208 -0.0041220738 0.017423978
000360 68 80 06 bb 07 d0 4d 39 bc 05 16 bc 0f ac dc ba
       -0.0020523313 0.0001962782 -0.009156641 -0.0016835945
000370 69 e2 3c 3c 3b dc b9 3c 27 36 26 3c a4 04 94 bc
       0.01152859 0.022688022 0.010144747 -0.01806862
000380 3d 8b fe 3b 6f b3 55 3c 44 6b 11 3c 5b a5 99 bb
       0.0077680633 0.013043269 0.008875672 -0.0046889014
000390 5f 70 b5 bb c0 20 36 3b b4 2b 31 bc bf 23 96 bb
       -0.0055370773 0.0027790517 -0.010813642 -0.004581898
0003a0 b4 4b 1a 3c 8b 27 0b 3c 55 7c 2b 3b e5 03 2b 3c
       0.009417463 0.0084933145 0.0026166637 0.01043794
0003b0 97 4d ec ba dd e2 93 3b d3 80 c9 bb b2 3f b8 ba
       -0.0018028495 0.004513128 -0.0061493902 -0.0014057069
0003c0 6b 5e 27 3c 0a 3f bb bc 21 5d 19 b6 70 a1 05 3c
       0.010215382 -0.022857208 -2.2852985e-06 0.0081561655
0003d0 bd 0a 2b 3c 3d e1 91 3b 31 c9 02 bc c5 e7 d2 3b
       0.010439572 0.0044518993 -0.007982538 0.0064363205
0003e0 c5 3f f9 3a e9 71 9b 3c 88 cd 28 bb db 57 fd 3b
       0.0019016197 0.018975215 -0.0025757272 0.0077314205
0003f0 28 20 4d 3a 90 09 c4 3c 5f a9 90 b9 c3 c3 28 3c
       0.0007824921 0.023930341 -0.00027592012 0.0103005795

action_model._discrete_distribution.branches.2.bias f4 [3]
000000 00 00 00 00 00 00 00 00 00 00 00 00
       0.0 0.0 0.0

action_model._discrete_distribution.branches.3.weight f4 [48, 128]
000000 fa d5 71 bb 5b db b0 3b 12 87 40 3a 07 be bd 3a
       -0.0036901222 0.005397243 0.0007344346 0.0014476188
000010 d0 1d 0b 3c f0 43 11 bb 19 dd 22 3c 97 ce 21 3c
       0.008490995 -0.0022165738 0.009940409 0.009875915
000020 73 0c 90 bb 40 3c a4 3b ab 70 2f bc 1d 2e 15 3c
       -0.0043960153 0.005012065 -0.0107080145 0.009105233
000030 9d 71 65 3c a4 ee 19 bb 96 b2 18 3c 7a e8 78 3a
       0.014004138 -0.0023488188 0.009319922 0.0009495091
000040 87 c5 88 bb e7 b4 9c 3b 5f c1 37 3b c8 e9 16 bc
       -0.0041739377 0.0047823074 0.0028038842 -0.009211011
000050 e4 b2 04 3b 47 79 21 bc ae 62 13 bc 90 dd d9 b9
       0.0020248229 -0.009855575 -0.008995695 -0.00041554542
000060 32 10 8f bb 2d 79 1c bc 78 32 73 bb 8f c2 47 3c
       -0.0043659443 -0.009550375 -0.003710894 0.0121923825
000070 1a fe 34 bb b2 6c 75 bb 7e 08 1e bc a4 3e 93 bc
       -0.0027617277 -0.003744882 -0.009645579 -0.017974205
000080 bf bb 4e bb b1 ce 9f 3a 66 78 1c 3a 7e cf 15 bb
       -0.003154501 0.0012192336 0.00059688685 -0.002285927
000090 79 0c 07 3c d7 2e 01 bb 5b ea e0 3a 78 31 5f 3c
       0.00824272 -0.0019711757 0.0017159687 0.013622634
0000a0 d1 10 35 bb 58 93 fc 3b 6c 01 c7 3a 7e d7 3a bc
       -0.0027628432 0.0077079944 0.0015182919 -0.011403916
0000b0 23 8d ba ba 5a ac 2c 3c a6 2c 1d 3c 8a 46 d7 39
       -0.0014232736 0.010539139 0.009593165 0.0004106055
0000c0 eb a2 44 3c 93 73 db bb 7a 72 30 3c 0e 42 2a bb
       0.012001733 -0.006697127 0.010769481 -0.0025979313
0000d0 d8 fb 07 3c 47 df e6 3a fe 9d cc 3b ff b8 3f bc
       0.00829979 0.0017614149 0.00624442 -0.011701821
0000e0 f7 b9 6b 38 3d a2 f0 3b bb 5e 33 bc b8 a7 2c 3c
       5.620156e-05 0.007343559 -0.0109478785 0.010538034
0000f0 d3 14 56 3c f9 e3 88 3b a2 96 eb bb 8f 61 54 bc
       0.013066488 0.004177567 -0.0071895877 -0.012962713
000100 e6 fe b3 3b 32 d0 0a 3c 2b 17 65 3c 78 17 48 3c
       0.0054930327 0.008472489 0.013982574 0.012212627
000110 a7 34 98 ba 76 70 37 3b 15 f5 51 bc 83 a7 14 3b
       -0.0011612371 0.0027990616 -0.01281478 0.0022682853
000120 d7 91 11 bc ef ad 3a bc eb 8e 64 3c 5f 1e b3 bb
       -0.008884869 -0.011394008 0.01395009 -0.005466267
000130 b1 75 32 bc df 3f a3 b8 2e cd 06 bb 7b 2d 43 bc
       -0.010892318 -7.7843426e-05 -0.0020569074 -0.011912699
000140 c9 8c 4c 3b 73 fb 40 bc 86 b4 28 3c e7 7a 06 bc
       0.0031211844 -0.0117787 0.010296946 -0.008208013
000150 53 79 4e bb 80 68 95 bc d4 52 b5 3a 8f 9e 9e bb
       -0.003150542 -0.018238306 0.0013833889 -0.004840679
000160 c3 cd 8b 39 50 40 c2 3b 6b 41 53 3c 3b 2b 03 3b
       0.0002666545 0.005928077 0.012894015 0.002001478
000170 2f 1d b1 ba 73 4c b4 3b c6 ec 21 bc 5c 6d 9d 3b
       -0.0013512726 0.0055022775 -0.009883111 0.0048042964
000180 1b 4a d8 bb e4 3c 83 bb 4f 73 88 ba 73 a6 3a 3c
       -0.006600631 -0.0040050615 -0.0010410341 0.011392224
000190 f7 8b 0a bc 8b 3f fa ba 53 f2 b4 3b 8f 22 43 3a
       -0.008456222 -0.0019092424 0.0055220514 0.00074438093
0001a0 21 a3 40 3c 57 4b f4 bb ab f0 48 bb 57 23 21 3c
       0.011757643 -0.0074552703 -0.0030661027 0.009835086
0001b0 04 40 40 3c 47 ef c8 b9 aa 2e c3 3b e8 e4 92 3b
       0.0117340125 -0.00038325248 0.0059564905 0.004482854
0001c0 a7 43 d9 bc ff 7e f4 3b 5e 1f 22 3a 3d 6a ba bb
       -0.026521517 0.007461428 0.00061844836 -0.005688934
0001d0 8f 57 2d bc 75 fc 86 3c 2d 08 07 bb 24 8f 09 bc
       -0.010579958 0.016477803 -0.0020604238 -0.008395944
0001e0 4a 27 16 bb 70 0e 16 3c 71 95 81 bb b0 ea 34 3c
       -0.0022911602 0.009158716 -0.0039545824 0.011042282
0001f0 dd e4 4a bb 8a d8 6e 3b 83 65 f8 3a cb 61 db bb
       -0.0030959167 0.0036444985 0.0018951151 -0.0066950074
000200 cf 53 1c bc 94 27 09 bc 0e d4 b2 ba 45 dc 24 bb
       -0.009541466 -0.008371253 -0.001364352 -0.0025155705
000210 76 1c 04 3c 4e 88 2c ba fd 1e 5d 3b b3 0d 23 3a
       0.008063426 -0.000658159 0.0033740394 0.0006219998
000220 61 d0 3a 3c 95 5a 00 3c 58 f6 35 bb c0 49 f6 3b
       0.01140222 0.007834096 -0.002776524 0.007516116
000230 fb a4 b4 3b 25 c0 23 bb e7 ba de 3b f3 33 25 3b
       0.0055128313 -0.0024986353 0.006797183 0.0025207966
000240 1a 5e 7a 3b 70 33 46 3c fd 15 fc 3b 98 de 32 3a
       0.0038203062 0.012097225 0.007693051 0.000682333
000250 a9 3e 4a 3b b5 a0 59 3c e2 61 b6 3b a5 ae 70 bc
       0.0030860102 0.013282944 0.0055658678 -0.014690076
000260 b6 2a 20 3b 83 2f 9a 3c 8b cd ff ba 81 f9 c4 3b
       0.002443952 0.018821483 -0.0019516213 0.0060111885
000270 b2 cb f9 3b 1d f7 5c 3b 17 65 01 bc b9 1e 86 ba
       0.0076231593 0.0033716627 -0.007897637 -0.0010232545
000280 03 94 11 3b 83 45 6c 3b bd da f4 bb c3 6b 57 b9
       0.0022213466 0.0036052174 -0.0074723647 -0.00020544142
000290 0a 85 83 bc a0 f7 5d 3c ef e3 f8 b9 33 72 9b 3a
       -0.016054649 0.013547808 -0.0004747207 0.0011859596
0002a0 72 dc c0 ba 17 a1 73 ba 9d 43 6c 3b a3 fa 15 bc
       -0.0014714135 -0.00092937186 0.0036051043 -0.009153995
0002b0 15 29 9d 3a 33 91 1e bc 43 16 8a bb 4f c5 14 bb
       0.0011990393 -0.009678173 -0.0042140796 -0.0022700613
0002c0 fe 63 07 39 f2 93 0b 3c 77 d0 de ba 39 90 16 bb
       0.00012911853 0.00851916 -0.0016999383 -0.0022974147
0002d0 cb 5f a3 3b 6b 2f 91 bb 43 5c 1a 3c 38 d2 d0 3b
       0.0049857846 -0.0044307015 0.009421411 0.0063727163
0002e0 8d cf 0f bc 4b 93 ae 3c 06 da 9f 3b af b4 a2 3c
       -0.008777511 0.02131047 0.0048782853 0.019861547
0002f0 70 e8 3d ba bc 85 07 bc 10 10 a3 bb a8 49 16 3b
       -0.0007244414 -0.008271631 -0.00497628 0.0022932086
000300 bd d1 66 bc 77 e5 89 39 0b b7 5b bb 25 7b 55 3c
       -0.014088091 0.0002630164 -0.003352585 0.013029848
000310 af 53 cc 3b ef 35 2f 3b 65 af b0 3b d0 e3 77 3c
       0.006235562 0.0026735028 0.0053920024 0.015129998
000320 50 b7 da 3b dc 78 18 bb d5 c2 70 3b 8d e3 65 3b
       0.0066746846 -0.0023265397 0.0036737223 0.0035078258
000330 2c 8c 47 bb f8 34 e0 bb 0d 7a 56 3c 33 8a 84 bb
       -0.003044854 -0.006842252 0.013090623 -0.004044795
000340 6f 09 9e bb 38 c7 8b bc 1f 1d 79 39 2d 36 86 3c
       -0.004822902 -0.017062768 0.00023757339 0.016383255
000350 b2 e1 65 3c 4d d6 a3 bb 49 b8 8c 3a 16 80 23 bc
       0.014030861 -0.004999912 0.0010736074 -0.009979269
000360 1e fd 37 3a 27 9b 89 3b 00 b8 03 bc 3b 72 2a bc
       0.00070186134 0.004199404 -0.0080394745 -0.010403211
000370 51 47 2a bc 5d a2 1d bc 57 60 b7 3b d3 6d 00 3c
       -0.01039298 -0.00962123 0.0055962014 0.007838684
000380 60 2c 1f 3b 21 96 a4 bb ab 6e df bb 13 67 71 bb
       0.0024287924 -0.0050227796 -0.0068186126 -0.0036835119
000390 12 b8 8b 3b 67 2d a0 3b 36 6a b8 bc 2e 11 14 3c
       0.0042638863 0.004888225 -0.022511583 0.009037299
0003a0 3b 23 0e 3a 68 84 75 3b e1 41 3b bb 33 b7 3c bb
       0.000542212 0.0037462953 -0.0028573202 -0.0028795719
0003b0 cc cb a9 bc e3 5a 83 3c 48 6b 7e bb 87 7f 15 3b
       -0.02072706 0.01603455 -0.0038821269 0.0022811608
0003c0 6b d8 2b ba 9a 7f 25 bb dc d5 14 3c ec 18 92 3b
       -0.0006555381 -0.0025253058 0.009084191 0.0044585373
0003d0 ef bb 8c 3c f3 94 54 bc 2a f3 54 3c f1 e2 9b 3b
       0.017179457 -0.012974965 0.012997428 0.004757278
0003e0 fe 01 8f 3b 0e 8f a5 3b 2d 41 54 3c 2f 42 9d 3b
       0.004364251 0.005052454 0.012954992 0.0047991495
0003f0 73 aa 33 3c da 52 25 3b 9d 79 0c 3c f7 d5 e8 3b
       0.010965931 0.0025226385 0.008573917 0.0071055847

action_model._discrete_distribution.branches.3.bias f4 [48]
000000 00 00 00 00 00 00 00 00 00 00 00 00 00 00 00 00
       0.0 0.0 0.0 0.0
000010 00 00 00 00 00 00 00 00 00 00 00 00 00 00 00 00
       0.0 0.0 0.0 0.0
000020 00 00 00 00 00 00 00 00 00 00 00 00 00 00 00 00
       0.0 0.0 0.0 0.0
000030 00 00 00 00 00 00 00 00 00 00 00 00 00 00 00 00
       0.0 0.0 0.0 0.0
000040 00 00 00 00 00 00 00 00 00 00 00 00 00 00 00 00
       0.0 0.0 0.0 0.0
000050 00 00 00 00 00 00 00 00 00 00 00 00 00 00 00 00
       0.0 0.0 0.0 0.0
000060 00 00 00 00 00 00 00 00 00 00 00 00 00 00 00 00
       0.0 0.0 0.0 0.0
000070 00 00 00 00 00 00 00 00 00 00 00 00 00 00 00 00
       0.0 0.0 0.0 0.0
000080 00 00 00 00 00 00 00 00 00 00 00 00 00 00 00 00
       0.0 0.0 0.0 0.0
000090 00 00 00 00 00 00 00 00 00 00 00 00 00 00 00 00
       0.0 0.0 0.0 0.0
0000a0 00 00 00 00 00 00 00 00 00 00 00 00 00 00 00 00
       0.0 0.0 0.0 0.0
0000b0 00 00 00 00 00 00 00 00 00 00 00 00 00 00 00 00
       0.0 0.0 0.0 0.0
