Assets/Scripts/RL/results/MyTrainingRun2/Character/Character-15.onnx (onnx, 188197 bytes, 11 tensors)

discrete_act_size_vector f4 [1, 4]
00000000: 0000 c040 0000 4040 0000 4040 0000 4042
6.0 3.0 3.0 48.0

network_body._body_endoder.seq_layers.0.weight f4 [128, 155]
00000000: f6c3 e4bd 435a 6e3c 91b8 1cbd 7e7d 1c3c
00000010: cbdd 4d3d 81bf 1b3d 4153 b0bc b1a3 4a3c
00000020: 698d b2bd e54c 20be fd13 a9bc 8e70 3f3d
00000030: 6ed7 9ebd a179 e0bd 88b5 a53d 74df 803c
00000040: 15ea 80bb c38d bfbd a4fc abbd b688 1abe
00000050: 9084 46bd 1769 c439 afb6 a2bc 594b 303d
00000060: 75a5 1b3e 3e16 e33c e6c2 163d 623e ffbd
00000070: 6ef9 b9bc b148 3e3d f3b3 c0bd bad2 e53d
00000080: 1c60 513d f174 b33c aa60 9ebd 3e18 053d
00000090: dc78 8cbb 2dd8 2bbd 3d9d 47bd 9322 18bd
000000a0: 1c9c 85be b5db e2bb 2348 94bd cb13 ff3c
000000b0: 2ed4 843d 38a2 413c 33de 97bd 4d48 843d
000000c0: e304 04be d393 12bc 1fbd 4fbd f24c a33d
000000d0: e8d1 e4bc e5b7 a83d a310 49bc b0c1 cd3c
000000e0: cbf7 973c 3959 edbc 7850 403d 71f5 eb3b
000000f0: 68d1 c53d 86b6 6fbd 4ab6 4b3d f96d ba3d
00000100: e194 3d3d 59d2 12bd e00a 223c 05ed b83c
00000110: cce9 393d fb4d 0ebd f1dd 4a3d aa06 10be
00000120: 1632 93bd 6aaa 833d de7f 303d 0969 03bd
00000130: 877e 91bd 0f0a 053e c9cb b73d 2b6b b93c
00000140: fbdc 03bd be11 303c a027 0cbd 0d6e 07bd
00000150: eccf 253d c8c4 f13d 67f0 e23d 3911 51b8
00000160: b66a b93d f03f 05be 3893 90bd 9708 ee3d
00000170: 9d83 a0bc dbef 63bb e834 abbc 3586 793d
00000180: 9a5b 8b3d 65e0 85bd d3e2 2d3d d0fd 0e3d
00000190: 03c9 353d b6f7 98bd 0c61 5ebd 1865 46bc
000001a0: 2fd1 623d ba0f 1d3e f2b7 9a3c 6621 f73c
000001b0: a7ce 0b3e fc8b dbbc 5fab 65bd 4496 bebd
000001c0: 47de 953d 589e 3abd 3d12 88bd 8d83 713d
000001d0: 7acf 9fbb 6619 0dbd 26db 103e ed97 283e
000001e0: c180 67bd 3f66 9c3c 6ed3 2dbd d7f7 f03d
000001f0: 07ee 723c b899 09be 89a8 023d c2db fb3c
00000200: d769 f03c 5f27 a93a 870e a23d fb6f 78bc
00000210: 7ffd ca3c fa6e 7abd 353f 4cbd e389 593d
00000220: bab2 c73c 3e53 8f3c 3041 0f3e 62fe f2bd
00000230: c7ed 9cbd 9714 d83d 9408 84bd c23b 27bd
00000240: f1bb ec3d f4df 0c3c a677 493d 46d9 df3d
00000250: 85af 5cbd 0dc8 513d aff2 ebbd 2705 d03d
00000260: c63a 6d3d 6ff0 773d f7a9 80bd 31e9 383d
00000270: ad84 2ebd 5a84 433d 96fc 3fbb 9d65 fd3d
00000280: 8dcf 143d f1ac 9bbd f5bc 44bd e41d 373e
00000290: c456 0cbd 2bad 27be e01a 22bd 7c3c b73c
000002a0: 01fd 09bd 2159 7aba 814a fcbd 261f 91bd
000002b0: 87a5 77bc a0d7 d93d 484e 77bd abd0 bcbc
000002c0: fe6c 0c3d aec0 0fbd 21c8 8dbd 9a07 433e
000002d0: ad49 97bd 5fc4 f1bd 622a 60bd 7f62 6fbd
000002e0: 9b6f b2bd fd53 7d3d 83ba 863d 1414 3c3d
000002f0: 25a8 5dbb 8e9e c1bd 899e e33d ce52 ad3d
00000300: 2acb bebd 0529 873b 3c12 c0bc f985 acbc
00000310: 4ce0 3bbe 401b e53c 2053 dfbd 263d bebd
00000320: cdf8 313d f23c ef3d 77d6 6bbd 5690 38bd
00000330: 806d 4abd 4cba ddbd 0f56 92bb f7d6 63bd
00000340: 7cf1 54bc f234 0c3d 728a d3bd 1a94 29bc
00000350: 6483 0abe c5d8 353d 6c0d 983d a754 e2bc
00000360: 4ef6 d5bd 0dd7 d23d 4903 a13d cbef 3d3d
00000370: 1ceb d4bc c758 eb3d 774f 76bb 9cad 05be
00000380: 11ff 0fbe 115c 0ebb d661 4c3d 6d85 f93c
00000390: fda6 a9bd 0517 b93d 01d6 fa3c 8094 7b3d
000003a0: 1d7b 6e3d 9f0f 243d c617 9fba 3584 543d
000003b0: 7b05 7fbc 4e80 d83d 41cf 0c3d fbdb 603c
000003c0: 13da 3cbe 4ea8 ef3a 549a 14be e35f 383c
000003d0: 3d97 9abc 82dc 2bbd c1f8 b1bc 4fa4 e0bd
000003e0: be64 89ba 2da3 aebd 9fba ee3d 9efe 9cbd
000003f0: 3c86 2c3d 59f2 2e3d 5955 0cbd b871 6dbc
-0.11170189 0.014547887 -0.038261954 0.009551404 0.050260346 0.03802443 -0.021524074 0.012368129
-0.08718378 -0.15654333 -0.020639414 0.0467382 -0.07755934 -0.10960699 0.08091265 0.01573155
-0.0039341548 -0.09353211 -0.08397797 -0.15091214 -0.048466265 0.0003746233 -0.019862501 0.043040607
0.15199836 0.027720567 0.036806963 -0.124630705 -0.022701945 0.046456043 -0.094093226 0.112218335
0.051117048 0.021906348 -0.07733281 0.032493822 -0.0042868685 -0.04195421 -0.04873394 -0.037142348
-0.26095665 -0.006923164 -0.072403215 0.031137368 0.064857826 0.011818461 -0.07415428 0.06459103
-0.12892489 -0.008946377 -0.05071747 0.079736605 -0.027932122 0.082382 -0.012272033 0.025116771
0.018550774 -0.028973209 0.04695174 0.0072008898 0.09659082 -0.058523677 0.04973439 0.09103007
0.04628456 -0.035845134 0.009890288 0.022573957 0.04538898 -0.034742337 0.049528066 -0.14065042
-0.071872875 0.06428988 0.043090694 -0.03208259 -0.07104211 0.12992118 0.08974416 0.02263411
-0.032193165 0.010746418 -0.034217477 -0.033063937 0.040481493 0.11805111 0.11081009 -4.9845523e-05
0.090535566 -0.13012671 -0.0705933 0.11622732 -0.019594008 -0.0034780416 -0.020899251 0.060919005
0.06804581 -0.065369405 0.042452645 0.034910023 0.044381153 -0.07469122 -0.05429177 -0.012109064
0.055375274 0.1533803 0.01888654 0.030167293 0.1365305 -0.026800148 -0.056071635 -0.09306005
0.07317787 -0.045561165 -0.06644104 0.058963347 -0.004877028 -0.03444805 0.14146098 0.16464205
-0.056519274 0.019091723 -0.042437963 0.11766022 0.014827258 -0.13437545 0.03189901 0.030744437
0.029347343 0.001290541 0.07912927 -0.015163417 0.02477908 -0.06114099 -0.049864966 0.053110015
0.024377216 0.017495748 0.13989711 -0.11864926 -0.0766254 0.10550802 -0.06446949 -0.040828474
0.115592845 0.008598316 0.04918637 0.109301135 -0.053878326 0.051216174 -0.115208976 0.10157233
0.05791738 0.06053203 -0.06282418 0.045144264 -0.042607 0.047733642 -0.002929484 0.12372897
0.03633075 -0.07601345 -0.048031766 0.17882496 -0.034262434 -0.16374652 -0.03957641 0.022367708
-0.03368855 -0.00095500244 -0.12318898 -0.07086019 -0.015115148 0.1063683 -0.06037739 -0.02304872
0.03428363 -0.035095863 -0.06922937 0.19045869 -0.073870994 -0.11805033 -0.05472792 -0.058443543
-0.08712693 0.061847676 0.06578543 0.045917585 -0.0033822146 -0.0945407 0.111142226 0.08463059
-0.09316094 0.004124763 -0.023446195 -0.021059977 -0.18347281 0.027967095 -0.10904527 -0.09289007
0.043450166 0.11681546 -0.057577576 -0.045059524 -0.049420834 -0.10826549 -0.0044658254 -0.05562493
-0.0129970275 0.03423018 -0.10329141 -0.010350252 -0.13526684 0.04439618 0.07424435 -0.027628256
-0.104473695 0.10294924 0.07861955 0.046371263 -0.025991015 0.11491542 -0.0037583986 -0.13054508
-0.14062144 -0.0021722356 0.04989799 0.03045913 -0.082838036 0.09037594 0.030619623 0.061420918
0.05822288 0.04005396 -0.0012137822 0.051883895 -0.0155652715 0.10571347 0.03437734 0.013724322
-0.18442564 0.0018284412 -0.14511997 0.01125333 -0.018870944 -0.04195834 -0.02172506 -0.109688394
-0.0010482294 -0.08527217 0.11656689 -0.07665752 0.042120203 0.04271159 -0.03426108 -0.014492445

network_body._body_endoder.seq_layers.0.bias f4 [128]
00000000: 0000 0000 0000 0000 0000 0000 0000 0000
00000010: 0000 0000 0000 0000 0000 0000 0000 0000
00000020: 0000 0000 0000 0000 0000 0000 0000 0000
00000030: 0000 0000 0000 0000 0000 0000 0000 0000
00000040: 0000 0000 0000 0000 0000 0000 0000 0000
00000050: 0000 0000 0000 0000 0000 0000 0000 0000
00000060: 0000 0000 0000 0000 0000 0000 0000 0000
00000070: 0000 0000 0000 0000 0000 0000 0000 0000
00000080: 0000 0000 0000 0000 0000 0000 0000 0000
00000090: 0000 0000 0000 0000 0000 0000 0000 0000
000000a0: 0000 0000 0000 0000 0000 0000 0000 0000
000000b0: 0000 0000 0000 0000 0000 0000 0000 0000
000000c0: 0000 0000 0000 0000 0000 0000 0000 0000
000000d0: 0000 0000 0000 0000 0000 0000 0000 0000
000000e0: 0000 0000 0000 0000 0000 0000 0000 0000
000000f0: 0000 0000 0000 0000 0000 0000 0000 0000
00000100: 0000 0000 0000 0000 0000 0000 0000 0000
00000110: 0000 0000 0000 0000 0000 0000 0000 0000
00000120: 0000 0000 0000 0000 0000 0000 0000 0000
00000130: 0000 0000 0000 0000 0000 0000 0000 0000
00000140: 0000 0000 0000 0000 0000 0000 0000 0000
00000150: 0000 0000 0000 0000 0000 0000 0000 0000
00000160: 0000 0000 0000 0000 0000 0000 0000 0000
00000170: 0000 0000 0000 0000 0000 0000 0000 0000
00000180: 0000 0000 0000 0000 0000 0000 0000 0000
00000190: 0000 0000 0000 0000 0000 0000 0000 0000
000001a0: 0000 0000 0000 0000 0000 0000 0000 0000
000001b0: 0000 0000 0000 0000 0000 0000 0000 0000
000001c0: 0000 0000 0000 0000 0000 0000 0000 0000
000001d0: 0000 0000 0000 0000 0000 0000 0000 0000
000001e0: 0000 0000 0000 0000 0000 0000 0000 0000
000001f0: 0000 0000 0000 0000 0000 0000 0000 0000
0.0 0.0 0.0 0.0 0.0 0.0 0.0 0.0
0.0 0.0 0.0 0.0 0.0 0.0 0.0 0.0
0.0 0.0 0.0 0.0 0.0 0.0 0.0 0.0
0.0 0.0 0.0 0.0 0.0 0.0 0.0 0.0
0.0 0.0 0.0 0.0 0.0 0.0 0.0 0.0
0.0 0.0 0.0 0.0 0.0 0.0 0.0 0.0
0.0 0.0 0.0 0.0 0.0 0.0 0.0 0.0
0.0 0.0 0.0 0.0 0.0 0.0 0.0 0.0
0.0 0.0 0.0 0.0 0.0 0.0 0.0 0.0
0.0 0.0 0.0 0.0 0.0 0.0 0.0 0.0
0.0 0.0 0.0 0.0 0.0 0.0 0.0 0.0
0.0 0.0 0.0 0.0 0.0 0.0 0.0 0.0
0.0 0.0 0.0 0.0 0.0 0.0 0.0 0.0
0.0 0.0 0.0 0.0 0.0 0.0 0.0 0.0
0.0 0.0 0.0 0.0 0.0 0.0 0.0 0.0
0.0 0.0 0.0 0.0 0.0 0.0 0.0 0.0

network_body._body_endoder.seq_layers.2.weight f4 [128, 128]
00000000: 5fa1 e23d 36e8 353d 615d b0bd f2d1 0dbc
00000010: 81cc 7cbd 1588 aabd f090 21be efda b9bd
00000020: fa2e 88bd c99e 163e 31ae 89ba f6c1 a7bd
00000030: 8b0e 97bb 1cbb c43c 7b4c db3d e96c cf3d
00000040: faca 17bd 5007 debb 1312 813c 81c2 e0bc
00000050: ca6b f63c b56e e5bb cd6d a1bd 3e60 e03d
00000060: 8994 5bbe 8e43 e83d 65b4 2b3d 4ad5 043c
00000070: e25e 59bd a5d5 c0bd 3036 cebc 2a64 2abe
00000080: 07c7 333c 54cd 25bd cf55 02bd 2536 7ebd
00000090: 3402 44bd 3b31 7b3d 2e0e 4a3d 91e3 4cbc
000000a0: e061 cfbc 0506 493d 0450 813d f266 033e
000000b0: aeaf 1b3e c426 babd 6ac2 c7bb 1add 943c
000000c0: b1f8 e03c 4460 a7bd 8281 103d ef33 22bd
000000d0: 8a09 cd3b d7a2 f23d 022e f93c 659e 423c
000000e0: ee6c 3d3e f9a9 cdbd e70a a03d ae72 e0bd
000000f0: ff5c 603d c4e4 813b dc8a 523d c182 dd3d
00000100: a605 203d d47e e43c 2a01 043d c313 cd3c
00000110: d1ba 9dbc f74f 27bd 4ee9 0b3e 3186 fbbd
00000120: 6e9c 48bc 12c7 e7bc c693 053d 2812 b63c
00000130: a896 bfbc 5042 6a3d 6abc dc3c 2d6f f5bd
00000140: 0e05 1d3c fe11 b53d 6cdf b1bd abe9 ef3b
00000150: 917e 853d 830d 1ebe eb54 73bd 4764 903d
00000160: f443 b83c 2ea6 aa3d cdaf bd3d 63c9 8a3c
00000170: 6201 8f3e a695 2a3d a8f1 943d 3c79 13be
00000180: 046f 79bd a4f7 6f3c 97d5 823d 36c1 27be
00000190: 640d dcbc 18ef 8d3d 4895 1f3d ca47 4f3b
000001a0: 9728 8c3c f6ef 203c 8ba1 9d3d c465 b03d
000001b0: 4f85 303d a938 5d3d f4d2 aabd cb61 073e
000001c0: 4dc8 f83d 4a16 833d 1f38 dcbd e7ca 74bc
000001d0: 434d 633d 745c d9ba be5e 023d 1e83 893a
000001e0: 48af 193d 9369 b0bd 74ed 013d bda2 1d3e
000001f0: 387a 94bd e29b 47bc 8dec ba3d 3b79 75bd
00000200: 9418 1b3c f311 d03d ca3d 773d 5df9 ffbc
00000210: 49aa 05be fb45 013d 46c2 19bd 6177 f23d
00000220: 2667 8ebd 1898 99bd 031d e0bc 79ed 94bd
00000230: a558 503d 369a cd3b e0f3 d4bd aa9e 0bbe
00000240: 70cb 943d 0141 3c3d 6718 0e3d 8db7 893d
00000250: edd1 8dba 7aa4 1c3c 818e b43d a7fb 4cbd
00000260: 7cb8 88bc 8a61 ea3c 13e2 31bd d070 15ba
00000270: 6374 7ebd 64e7 153d ee0b d33d 28dc 56bd
00000280: d133 943d 41aa 18bc 1f5c ed3c 34b6 7a3d
00000290: 359e e63c 4429 61bb 0af2 debd 1289 753d
000002a0: 7c59 883d 83e8 973c cb45 af3c bef7 89bd
000002b0: 2f08 75be 98d1 02bc 1aca 02be fbe5 4abc
000002c0: b6b2 4ebe fd82 31bd 85d9 ebbb e5be a6bb
000002d0: 5fda 9dbc 28a3 fa3c d401 f5bd 4432 3fbd
000002e0: be00 4fbd cb6f 5b3c 0da7 10bd d642 23bd
000002f0: e4b5 8ebd 4f95 353d 026c 7bbd 7964 65bd
00000300: f113 f23d 64c7 af3d e8f9 b5bd 26ce 1bbe
00000310: db61 febd 307a 0cbe 3cf2 aa3d e164 d33d
00000320: aafb 3bbe 0c7b 253d 9efc 0dbd 0f7e 713d
00000330: 2af7 1e3d d448 003d 8fe5 3c3d b1fd bbbd
00000340: 7d8c abbd f394 a23d a53d 45bb 3776 f53b
00000350: 710d 213d 88d6 6b3c b8db bfbd dfdf 04bc
00000360: 1276 b3bd f822 1e3e 92af 6bbd f47c 4d3d
00000370: 61e7 debc 860b 493d 9ba1 10be cb7d 8a3b
00000380: 1922 1cbe f954 4cbc 5659 79bd fd9f 33be
00000390: c42c aebc 4f9c 18bb 8b31 393e 93bf b43c
000003a0: 916c 9c3d 979d 023e d0b7 66bd 6a63 cfbc
000003b0: 760c ad3d 8e32 a0bd e6c4 c1bd f895 ad3d
000003c0: a622 b03d 4bdd 1ebe 4c97 043e 8635 b53c
000003d0: 748e da3c e0b2 c93d 19be 90bd d449 303d
000003e0: bd34 8c3d 8e78 ffbd b755 80bb c319 c03d
000003f0: 98c1 88bc 1e72 66bd a182 1b3d 2c48 bfbc
0.11065935 0.044410907 -0.086115606 -0.008656012 -0.061718468 -0.08326737 -0.15777946 -0.090749614
-0.06649585 0.14709009 -0.0010504184 -0.08191292 -0.004609888 0.024015002 0.10707947 0.10128195
-0.037058808 -0.006775774 0.015755689 -0.027436497 0.030080695 -0.0070017227 -0.07882271 0.10955857
-0.2144338 0.1134101 0.041920085 0.008107493 -0.053069003 -0.094157495 -0.025172323 -0.16639772
0.010972745 -0.04047902 -0.031820115 -0.062063355 -0.047853664 0.061326247 0.04932993 -0.012505428
-0.025315225 0.049078006 0.0631409 0.1283224 0.15203735 -0.09089425 -0.006096174 0.018171836
0.027462335 -0.08172658 0.03527976 -0.03960031 0.0062572407 0.118474655 0.030417446 0.0118785845
0.18498585 -0.10042185 0.078145795 -0.109593734 0.054776188 0.0039640386 0.051401958 0.10815955
0.039067887 0.027892508 0.032227673 0.025033837 -0.01925412 -0.040847745 0.13663217 -0.12281454
-0.012244327 -0.028293166 0.03261163 0.022225454 -0.023387268 0.057192147 0.026945312 -0.11984096
0.009583725 0.08841322 -0.086851925 0.0073215566 0.06518281 -0.15434842 -0.059407156 0.070503764
0.02249334 0.083324775 0.09262047 0.016941732 0.27930743 0.041646622 0.07272655 -0.14401716
-0.06089689 0.0146464445 0.06388395 -0.16382298 -0.026861854 0.06930369 0.038960725 0.0031628483
0.017109198 0.009822836 0.076968275 0.0861316 0.043095883 0.054009113 -0.08341017 0.13220899
0.12147579 0.06400736 -0.10752892 -0.014940954 0.055493604 -0.0016583339 0.031828634 0.0010491346
0.037520677 -0.08613887 0.031720594 0.15394111 -0.07249874 -0.012183161 0.0912715 -0.059930068
0.009466309 0.101596735 0.06036166 -0.031246835 -0.1305324 0.03156088 -0.03753879 0.11839176
-0.06953268 -0.07499713 -0.027357584 -0.07271857 0.050865788 0.006274487 -0.10398078 -0.13634744
0.07265365 0.04596043 0.03469124 0.06724463 -0.0010820009 0.009560699 0.08816243 -0.050044682
-0.016689532 0.028610963 -0.04342849 -0.00057007093 -0.062122714 0.036597624 0.1030501 -0.05245605
0.07236446 -0.009317935 0.02897459 0.06120892 0.02815161 -0.0034356872 -0.10886009 0.059945174
0.06657693 0.018543487 0.021395585 -0.06736706 -0.23928903 -0.007984541 -0.12772408 -0.012383933
-0.2018536 -0.04333781 -0.007197561 -0.0050886744 -0.019269167 0.030595377 -0.11963239 -0.046678796
-0.050537817 0.013393353 -0.035315562 -0.03985866 -0.06968287 0.044331845 -0.0613823 -0.05600402
0.1182021 0.085829526 -0.088855565 -0.15215358 -0.12421008 -0.13718486 0.08346984 0.103219755
-0.18357721 0.04040055 -0.034664743 0.05895811 0.038809933 0.031319454 0.04611736 -0.09179247
-0.083764054 0.07938566 -0.0030096557 0.007490899 0.03931946 0.01439441 -0.0936808 -0.008110016
-0.087627545 0.15443027 -0.057540484 0.050167993 -0.02720994 0.049083255 -0.14124148 0.0042264215
-0.15247382 -0.012471431 -0.060876213 -0.175415 -0.02126158 -0.0023286527 0.18085305 0.022064006
0.07637895 0.12755428 -0.05632764 -0.025315959 0.08449642 -0.078221425 -0.094613835 0.0847587
0.08600359 -0.15514104 0.1294834 0.022120249 0.026679255 0.09848571 -0.07067508 0.043039158
0.068459965 -0.12474166 -0.003916468 0.09379914 -0.016693875 -0.056261174 0.037966374 -0.023349844

action_model._discrete_distribution.branches.0.weight f4 [6, 128]
00000000: 7984 3bbc 892f 05bc bd92 e2bb 677b 753c
00000010: 8d2f 60ba df4b 483b c7b7 713a fbec 3abb
00000020: 00ec 5d3c a5ce b9ba e401 a93a d503 25bc
00000030: b52e 38bc d8dd 5d3c bf3e dfbb ddc8 6c3a
00000040: ca13 793c e369 ccbb a600 493c d38f d7bb
00000050: b87b 193b 2a38 d0bb 9572 e93b 88bc 90ba
00000060: f076 03bb 817e 91bc dfc3 2e3b 737b 013c
00000070: 0794 51b8 4fae 673c 004f b83b cd9f a1b9
00000080: 7a19 d637 8482 433c a29b 033c 4140 9f3c
00000090: 009e 7b3a 3afb 793a 7f66 85bb 196c a13b
000000a0: bf8e 493c 23e7 80bb ed87 e83b 33d7 4bbb
000000b0: 1fa9 e537 93fb ddbb d708 9c3b 7363 623b
000000c0: cf20 0ebc 3386 163c 95a7 df3a 6eb7 243c
000000d0: d22a 4cbc 19a0 9c3b 7643 29bc 38f0 a8bb
000000e0: 85dd 5cba c408 373b c3b0 0dbc 672c 153c
000000f0: 90b0 bd3b d3ec eb3b b8de 1bbc c01c 5c3c
00000100: 2d92 90bb afbc adbb 0f1a 40bc 8ac0 3e3c
00000110: 2ec4 8bbc aa7e 063c 23da 223c 233c 463c
00000120: 784a 7f3b 99d5 033b 6281 27bc 4cd6 b1bb
00000130: a5d7 54ba d2b5 b63b 3de9 80bc a088 4e3c
00000140: ca7f b83b 0817 b23a 339c 603b aa48 28bb
00000150: 45ec abbb 2906 9bbc 237c d7ba bac6 b2bb
00000160: 57df 693b a50f aa3b b6e7 993a 7ee6 95bb
00000170: fa91 70bc 15ab 5bbc cf95 273b a8d6 603b
00000180: 6d08 023c fa25 e4bb 175b 34bc 1071 a8bb
00000190: c24c 8ebc 75d7 db3a 0148 0aba 9af0 c53c
000001a0: a247 2f3a b9c8 2d3c 16d0 adbb ba97 793c
000001b0: 8027 7b3b a78d a83a 8b61 08bb 4a8f c83b
000001c0: 8905 943b ab86 40bb 20ed 013b aee2 ac3b
000001d0: 904b 01bc 9387 3fbc d80b ab3c b995 9fbc
000001e0: 8361 363c 439c 393c e5b5 d2ba c5be 203c
000001f0: 8f76 2e3a e3e4 ebbb b967 4c3c 2cbd b0ba
00000200: d157 08bc d24a 82bc 22e3 d13b 57c7 dcbb
00000210: a7c6 ed3b a0d0 68ba 17b9 bcbb d3f1 75bc
00000220: c76b d03b 0fec 8d3c 1231 a83a 93a1 193c
00000230: 4aa5 1cbc d9fc 20bc c72d 56bc df06 15bb
00000240: 2b02 3a3c 956d 413b 2784 ecbb d95e 383c
00000250: 7340 22bb abe7 373c eda2 1f3c b5d5 353c
00000260: 8090 2abc ef73 a4bb 2860 0b3c 5b6e 35bc
00000270: a0dc 703b 56b9 a7bc 3b36 df3b 7766 acbb
00000280: eb4a 7abc 5443 aab9 9636 3f3c 6e1e adbc
00000290: 2862 bf3a 9d04 31bc 7b45 5b3b 0480 173b
000002a0: 4b47 773b c528 fcbb bdaf b03a 5801 09bc
000002b0: 875c 0d3b af8c 33bc 7566 13ba d761 e2bb
000002c0: 2d70 813b 1b9f 81bc 98c4 5c3c e5a9 633a
000002d0: bffb 8c3b 46ef 1bbb cfeb 9fbc a266 773c
000002e0: db55 1dbb 5adc 66b9 9a24 563c d227 753c
000002f0: 3fe1 5c3a db42 86bb d488 42ba 063c 0d3c
00000300: 3fcd e53a efe5 3e3c bfff 6e3b f4b8 8dbb
00000310: 2b0e e6bb 0c4c 113c c35d ba3a 96e0 c7bb
00000320: 1654 08bc 076c 94bc 5298 773c c8ed afbb
00000330: a8f8 bbbb a696 c6ba 58b2 11bc 1147 1d37
00000340: baab 113c 05ae 93bb 8a68 673c b0c9 afbb
00000350: ba85 3eba 925c e2bb 3329 0fbc c197 9c3b
00000360: 583c fabb 43c3 2dba 04d8 c03a 6b42 98bb
00000370: 4102 07ba 184f 563c b48b 23bb 5a82 02bb
00000380: 026f 06bc 936c 263a 3fb5 9cbb 4fc8 99b9
00000390: 6379 9a3b 78ac d43b 96cf 153b 20f4 3d3c
000003a0: 72f4 753b c361 563c 9ea3 86bc e0cd 3d3a
000003b0: a36b 643c 435c 4b3b 3664 c4bb f3cd 33bb
000003c0: b221 f73b 0070 7abc 70fc 62bc 6f69 bf3b
000003d0: 35ed 113c b6bb b93a d252 7abc a8e1 25bc
000003e0: 4f19 9f3a 89a8 1a3b d077 593c f760 3fbb
000003f0: 6c4f a43a 050a 4fbc f30d fe3b 6562 813b
-0.011445158 -0.008129009 -0.006914465 0.014983035 -0.00085520075 0.00305628 0.00092208054 -0.00285226
0.013545036 -0.0014175965 0.001289424 -0.010071714 -0.011241605 0.013541661 -0.0068129 0.00090326165
0.015202472 -0.0062382086 0.012268221 -0.0065784245 0.002341969 -0.0063543515 0.007124255 -0.0011042515
-0.0020059906 -0.017760517 0.0026667041 0.007902968 -4.9967344e-05 0.0141406795 0.005624652 -0.00030827374
2.5522651e-05 0.011932973 0.008032711 0.019439818 0.0009598434 0.0009536032 -0.0040710564 0.0049262163
0.0123021 -0.0039338036 0.0070962817 -0.003110361 2.737768e-05 -0.0067743747 0.004761796 0.003454414
-0.008674814 0.009187269 0.0017063493 0.010053499 -0.012461381 0.0047798273 -0.010331025 -0.0051555894
-0.0008425343 0.0027928809 -0.0086481 0.009104825 0.00578887 0.0071998625 -0.0095135495 0.013434589
-0.0044119568 -0.005302034 -0.011724963 0.011642585 -0.01706132 0.00820891 0.009939703 0.012099299
0.00389543 0.0020116328 -0.010223718 -0.0054271575 -0.0008119292 0.005575874 -0.015736217 0.012605816
0.005630468 0.0013587186 0.003427279 -0.0025678077 -0.0052466714 -0.018923836 -0.0016440194 -0.005455819
0.00356861 0.0051898533 0.0011742029 -0.004574596 -0.014683241 -0.013407488 0.002557147 0.0034307633
0.007936579 -0.006962535 -0.011008046 -0.005140431 -0.017370585 0.0016772585 -0.00052750116 0.02416258
0.00066863943 0.010606938 -0.005304347 0.015233928 0.0038323104 0.0012859599 -0.0020810093 0.006120597
0.0045172614 -0.0029377143 0.0019825175 0.0052760458 -0.007891551 -0.011690038 0.020879671 -0.019480573
0.011131647 0.01132876 -0.0016075937 0.009811108 0.000665524 -0.0071989163 0.012475901 -0.0013484112
-0.008321718 -0.015904818 0.00640525 -0.0067376303 0.007256347 -0.0008881185 -0.005759369 -0.015011269
0.0063605043 0.017324476 0.0012832007 0.009376901 -0.009560892 -0.009825909 -0.013072438 -0.0022739691
0.011353056 0.002951478 -0.007217902 0.011253082 -0.0024757653 0.011224668 0.009743434 0.011098315
-0.010410428 -0.005018703 0.008506812 -0.011073674 0.0036752596 -0.020474117 0.0068118847 -0.005261238
-0.015276651 -0.0003247509 0.011670729 -0.021132674 0.0014601396 -0.010804323 0.0033458162 0.0023117075
0.0037731703 -0.00769529 0.0013480108 -0.008362137 0.0021570043 -0.010958835 -0.0005622872 -0.006908636
0.00395014 -0.015822938 0.013474606 0.0008684679 0.0043024714 -0.002379374 -0.019521622 0.015100153
-0.0024007473 -0.00022016597 0.01307025 0.014963107 0.0008425898 -0.0040973253 -0.00074209017 0.008620268
0.0017532482 0.0116515 0.0036468355 -0.0043250266 -0.007020732 0.008868229 0.0014218617 -0.006099771
-0.008320829 -0.018117918 0.015112 -0.005368922 -0.0057364292 -0.0015151098 -0.008892618 9.374476e-06
0.00889104 -0.0045068287 0.014124045 -0.005364619 -0.00072678516 -0.006908008 -0.00873785 0.0047788327
-0.007636588 -0.00066285225 0.0014712815 -0.0046465895 -0.0005150177 0.013080381 -0.0024955096 -0.0019914121
-0.008205177 0.0006348576 -0.0047823484 -0.00029331676 0.0047141775 0.0064902864 0.0022859327 0.0115938485
0.0037529734 0.013084832 -0.01643544 0.00072404556 0.013941678 0.0031030334 -0.0059933914 -0.0027435988
0.0075418586 -0.015285492 -0.013854131 0.005841426 0.008906652 0.0014170322 -0.015278535 -0.010124601
0.001213828 0.002359899 0.013273194 -0.0029202083 0.0012535877 -0.012636666 0.0077531277 0.003948497

action_model._discrete_distribution.branches.0.bias f4 [6]
00000000: 0000 0000 0000 0000 0000 0000 0000 0000
00000010: 0000 0000 0000 0000
0.0 0.0 0.0 0.0 0.0 0.0

action_model._discrete_distribution.branches.1.weight f4 [3, 128]
00000000: edac 783c ef2d 2abc 3dd7 6dbb d5ee 423b
00000010: af5e 6dbc 8232 04bc db5b 3b3c 5c9b b73b
00000020: 9bab db3b 5d1d f4bb 5621 9c3c 4801 4fbb
00000030: fb07 5a3a da0d fdbb 42c0 963b 33c4 9fbb
00000040: 5274 e7ba aa30 08bb 1f7f 9c3b 37c8 e53b
00000050: 83ad f739 72ef 583c 4821 64bc 9bba 0f3c
00000060: ecab a7bb 00da 59bb 1890 8cbc 9f9d 1b3c
00000070: 1aa3 fa3b 8ab6 693c 5fbc 333a 87ec 43bb
00000080: 9f94 82bb ce89 01bc 130a 403b 2b49 f9bb
00000090: 035f 4f3c 8a05 153b 7f2b c9ba e74a 4ebc
000000a0: 877e 243c ae8d 93bc e7f9 7f3a 073c 4ebb
000000b0: 8e08 893b 104c 593b 0b2e 913a 4a76 54bc
000000c0: 9bf1 87bc 6fdf e23b 1733 bf3a abec 243c
000000d0: 2f55 083b 2323 f839 2a1d a03a 37cc c6bb
000000e0: a64d 1bbb 0eb9 3a3c f001 8a3b e585 cf3b
000000f0: 9ff4 3abb fc07 babc bbb9 15b8 5fac dabb
00000100: bf76 603b 987f 8cbc b67e ae3a 78cf 5eba
00000110: 558e 78bc 5bea c83a a78f c73b cf64 023a
00000120: c867 53bc fce6 823b 524b 74ba 3dfc 4d3c
00000130: e216 e43a ea4f 18bc 0dcd 20bc 879c 0fbc
00000140: b0f1 93bb 28c9 673c e000 fb3b 9dea f03b
00000150: b5b0 edba 12e0 7dba a069 123b 2fe0 c0bb
00000160: 4bea cdbb 8f93 e8bb 99eb 9e3b 1f8b dfbc
00000170: 6235 f7bb df71 1f37 a59f a7bb 4ac9 9dbb
00000180: 5093 943b 5a42 92b9 3d72 cd3a bba3 18bc
00000190: c32b 813c 7fed 773c c89f d43b 2151 b8bb
000001a0: 77ea e83b 723b d43b 5a16 dcb9 2514 093a
000001b0: 1adf 25bb bcd3 253b 5069 973b d532 ba3b
000001c0: 23ff fe3b 6344 63bc 7bd2 453c 8bd5 96bb
000001d0: 93ff 5b39 05bc 94bb a73f 483a 244c 9cbb
000001e0: 13e4 adbb 39b2 89bc 1798 b0bb e7d5 ec3a
000001f0: 53b9 abbb 3228 213b 8b68 3d3c da42 92bb
00000200: 8d64 bc3a 7168 94ba 3dea 723a ffb9 b73b
00000210: de58 3a3c f8dd 04bc 5e19 b8bb fc8e 80bb
00000220: 43ab ea3a 9d35 e73b ef31 95bb 83cb 013c
00000230: 1b62 09bc 024e a2b8 e389 223c 602b 8039
00000240: f597 f1bb 07e6 9e3a 705c 693c 9a0b 6cbc
00000250: d02c 293c 9c3f 863a 51a1 833c 03db d23b
00000260: da03 93bb 5ea4 4bbc 3597 7a3b cd0e 843c
00000270: 413f 2dbc 70dd 113b e9ca 993a 3bce 14bc
00000280: d70d 35bc a846 7f3c 5a94 58bc a3f7 21ba
00000290: d3ac 85bc 1b4d cfbb 9fef 74bc 88d3 ab3b
000002a0: c50d adbb ae6c c33c 5afd 1b3b ef0f 8a3c
000002b0: a909 153c 7105 183c fbf8 e9ba dbdc d7bb
000002c0: 8ffd 923b 979e 9abc 83d3 b93b 38b7 693c
000002d0: 0b2a 303b f38a 773a bb1a d33b d016 40bc
000002e0: 0100 00bc 3da1 81bc fdc4 71bc 9fb6 8bbb
000002f0: 401c 44ba ebe7 b13a 7ba4 b6bc 32a6 fbbb
00000300: db2e 923a f1b6 833c a70d a13b 1b5b 633b
00000310: 2790 d53a f3e3 b03b b048 993b 0a16 a1bb
00000320: dfd5 aaba 2e86 18bb 7c8e 163b ea01 d13a
00000330: 5ac7 343c b3dd 123c 8b45 54bb 72c1 fabb
00000340: 30aa 673c 1309 51bc d214 f9bb aaf7 7d3b
00000350: 67e8 89bc e7f3 f43b 70b3 ed3b 1d1f 90b9
00000360: 9bcb c93b b336 3f3c 2f34 51bb 4fa8 ea3b
00000370: f8f1 e43b be4e 2b3c ae39 a53b 152b be3b
00000380: 36cc 1abc b840 39bc 855d 6a3c abfb dc3b
00000390: 736b 163c bb95 ff3b 48c1 553c dcb7 95ba
000003a0: fe4f 8f3b b63d 2fbc e9b3 243c f655 993c
000003b0: 0e39 1a3c d6f9 c4bb 0c63 02bc f5c0 573b
000003c0: bbeb 753c 4751 023c 90c4 7c3a 9f3a 6bbb
000003d0: e001 93bc 48da a2bc f2f8 e6b8 c479 82ba
000003e0: 8310 3a3b d8bb 0cbc d25f da3b 974b 133b
000003f0: e0b2 8239 0676 43bc fb09 0c3c 4745 ca3b
0.0151779475 -0.010386928 -0.0036291622 0.0029744406 -0.014487906 -0.008068683 0.011435474 0.005603237
0.0067038066 -0.0074497894 0.019058865 -0.0031586457 0.0008317229 -0.0077225985 0.0046005556 -0.0048756837
-0.0017658568 -0.002078096 0.004775896 0.007012393 0.00047240788 0.013240682 -0.0139239505 0.008772518
-0.00511693 -0.003324151 -0.017158553 0.009498029 0.0076488378 0.014264712 0.00068563776 -0.002989562
-0.003985002 -0.00790639 0.002930288 -0.0076075993 0.01265693 0.0022738897 -0.0015348046 -0.0125911
0.010039932 -0.018011894 0.00097647164 -0.0031468885 0.004181928 0.003315691 0.0011076344 -0.012967655
-0.016594699 0.006923608 0.001458737 0.010066192 0.0020802727 0.00047328425 0.0012215723 -0.006066825
-0.0023697405 0.01139666 0.0042116567 0.0063331 -0.0028527153 -0.022708885 -3.5697343e-05 -0.0066733803
0.0034250466 -0.017150685 0.0013312909 -0.0008499543 -0.015170653 0.0015328632 0.0060901227 0.0004974128
-0.012903161 0.0039948206 -0.0009319085 0.012572345 0.0017401839 -0.009296397 -0.009814513 -0.008765346
-0.0045148954 0.0141470805 0.0076600164 0.007352187 -0.0018134328 -0.0009684573 0.002234079 -0.0058860998
-0.0062840334 -0.0070976685 0.004849863 -0.027288018 -0.0075442055 9.503651e-06 -0.0051154667 -0.0048152553
0.0045341626 -0.00027896726 0.0015674304 -0.00931638 0.015767938 0.015132307 0.006488774 -0.0056249057
0.0071080285 0.006476813 -0.00041978323 0.0005229137 -0.002530998 0.0025303205 0.0046207085 0.005682329
0.0077818795 -0.013871285 0.012074108 -0.004603093 0.00020980676 -0.0045390152 0.00076388795 -0.004769819
-0.0053067296 -0.016808616 -0.0053892243 0.0018069119 -0.005240598 0.0024590609 0.0115605695 -0.0044635357
0.0014373228 -0.001132263 0.00092664716 0.0056068893 0.011373727 -0.008109562 -0.0056182584 -0.003923295
0.0017903823 0.0070559517 -0.0045530717 0.007922056 -0.008385207 -7.739292e-05 0.00992057 0.0002444638
-0.007372851 0.0012122997 0.01424323 -0.014407063 0.010325626 0.0010242346 0.016068133 0.0064347996
-0.004486543 -0.012429325 0.00382371 0.016120339 -0.010574163 0.0022257231 0.0011733446 -0.009082372
-0.011050663 0.015580811 -0.0132189635 -0.00061785633 -0.01631776 -0.0063263304 -0.014949708 0.0052437223
-0.0052811825 0.023855533 0.0023802132 0.0168533 0.009096541 0.009278641 -0.0017850691 -0.0065876073
0.004485793 -0.01887445 0.005670966 0.014264874 0.0026880528 0.00094430073 0.0064423955 -0.011724189
-0.007812501 -0.015823955 -0.014756438 -0.0042637135 -0.0007481016 0.0013573145 -0.022295227 -0.007679724
0.001115288 0.016078444 0.0049149576 0.0034691754 0.0016293571 0.0053982674 0.0046778545 -0.0049159573
-0.0013033709 -0.0023273337 0.002297311 0.0015946005 0.011033857 0.00896399 -0.0032390084 -0.007652455
0.014139697 -0.012758511 -0.007601359 0.0038752356 -0.01683445 0.0074753645 0.0072540566 -0.00027489002
0.006158305 0.011670756 -0.0031921973 0.007161177 0.0069868527 0.010455785 0.0050422763 0.0058034756
-0.009448102 -0.011306934 0.014304523 0.0067438683 0.009180891 0.0077998317 0.01304657 -0.0011422592
0.0043735495 -0.010695865 0.01005266 0.018717747 0.009413017 -0.006011228 -0.007958185 0.0032921408
0.015009816 0.007953948 0.0009642327 -0.0035893095 -0.01794523 -0.019879475 -0.00011013624 -0.0009954502
0.002839119 -0.008589707 0.0066642547 0.0022475475 0.00024928804 -0.011929994 0.008547301 0.0061728093

action_model._discrete_distribution.branches.1.bias f4 [3]
00000000: 0000 0000 0000 0000 0000 0000
0.0 0.0 0.0

action_model._discrete_distribution.branches.2.weight f4 [3, 128]
00000000: 83e2 57bb 380a e63a a586 eb3a 5513 b9bb
00000010: 4c87 42bc 2902 a23b 9ec4 883b afb3 3ebc
00000020: 7039 263b c8d5 923b 1da2 31bb 7be7 3e3c
00000030: bd42 f1bb 233b 60bc 6a9c de3b 2642 3d3c
00000040: 0a6d dabb 58ec 03bc e394 363c a367 0c3c
00000050: 46a8 083c cd8c 90bb f3e8 91bb a7ea 433b
00000060: 7a11 f5bb 1693 263c 0315 d93b 3fd8 15bc
00000070: 7aa6 5abb db4f 223c 08f4 853b 1374 943c
00000080: dfeb 2b3b f9d8 453c 668e 30bc 0635 013c
00000090: ddde e03b 7725 4bbc b080 6ebc 63fb 803c
000000a0: e119 32bc 32e8 d4bb 4d72 80bc fa09 cd3b
000000b0: 5493 90bb b7dd bdbb 3e13 803c ebaa 4bbc
000000c0: 57fe 443b 47ef c33a a4cb 0f3c 9468 2e3c
000000d0: 70a4 9abc 279b efbb b231 f03b 8b4e 4a3c
000000e0: 5c79 963b 062e 003c 2ca7 07bc 13e2 7abb
000000f0: 1b0b 34bc 000e a13b 0f30 2abc 207d e9bb
00000100: e070 77ba 552e 853c 175c 923c 65b1 053b
00000110: 1554 a4ba e8f9 a7bb 2fca bb3b 258d 503c
00000120: 0703 433a 48f1 78bc 29d0 39bb 230f e3bb
00000130: 1743 e7bb f504 f0bb f107 2b3c 8efb 21bc
00000140: 64ec a43b 67e1 b7bb 5b14 8dbb 41c6 1bbb
00000150: daf1 32ba df68 29bc 9b15 fd3b 8c93 1a3c
00000160: 0724 5938 da7b bebb 436e bb3b 3db7 d6bb
00000170: 83bb 12bc 9bd0 883c 2ad3 8e3c cf15 0f3c
00000180: f60e c33b 8efe 273c 1f41 153b 1ccc 843c
00000190: 7fa9 49bc aecc b33b 68e8 8f3b 6b71 363b
000001a0: 1f37 403a 20de f5bb 27b3 99bb cb93 fd3a
000001b0: c99d 4b3c 14af ca3b de30 9f3b a353 20bc
000001c0: 9e3c c43b 07b0 3c3c e218 313a 06c6 4a3c
000001d0: 57bd a7bb a01a 54bc 7b10 afbc 7628 9eb9
000001e0: 618b b23b 609b adbb f88b 0aba 7310 263c
000001f0: 783d 463b 71c2 0cbc 37ee 563b c599 1b3b
00000200: c093 46bc ef6e a53b b2ec f2bb 049f c93b
00000210: d29e 7c3c 750a d83a 121f 793c 96aa 30bb
00000220: 6c9f b93b 625a 1e3a 98df 383c cf4f ddb9
00000230: 88e0 64bc 133c 9dbb 7389 323a 3175 1e3b
00000240: 1dc2 fcbb d87b 9dba e0d4 0b3c f3c0 c5bc
00000250: 5b3a 1cbb e67b 30bb 87eb 2abc ee69 c1bb
00000260: a72d a33c e696 813b 1b8c 333c 413c 2abb
00000270: 2dce a43c 0ebb 043c 7d05 313c 4b39 283c
00000280: 5029 963b c44e 9c3a 4d81 2abc 1796 7cbb
00000290: 4bf2 11bb 1900 433c da16 5c3c 447f 95bb
000002a0: b24e d639 a7db 69bc e5d1 17bc 6da5 1ebb
000002b0: 8565 3dbc 7317 49bc af22 9e3b e3f4 d23b
000002c0: c1c4 35bc ffec 493c 1b52 223c 97fa c2bc
000002d0: 42e2 693c 7f19 06bb 72b5 98bb 04a5 aa3c
000002e0: a3b1 a93b e509 edbb 7b93 80b8 7ad4 8d3b
000002f0: b23e 013c b04f 69bc afce 87bc 5295 beba
00000300: e5e2 e13b 87ec 883c 3dce 4c3c 9676 8aba
00000310: b116 2cbc 1b7c 52bc 2338 b73a 3fd0 66bb
00000320: a080 b23a 4fed 23bc 6ff0 e03b aabe 38ba
00000330: eaee 66bc 4fa3 5dbb 0a95 69ba a922 2e3c
00000340: 5a50 873b a73f 10bc 51bc 843a 75a6 163b
00000350: 9b17 92bb 97a0 83ba 8306 813b 946d 163c
00000360: dfd6 00bc 5709 69bc 9429 953b 6bf6 e13b
00000370: 1d7e 5fbc 223f 5c3c 9013 473b 57fd ffbb
00000380: ea85 1f3c 5ce5 2bba c48d 9a3b 44b3 47bb
00000390: f8e5 063c a719 cdbb 2a6c 013b 0044 4bbb
000003a0: 0d81 683c fd50 4ebb 89cd 0b3c a136 a3bb
000003b0: 1656 913b 97c9 b4bb 3a7b 6bbc 4618 133c
000003c0: adc6 94bb 4568 583b f4b8 a0bb 328e dabb
000003d0: 6012 6d3b cd7c babb 476a d6ba 6e8b ab3b
000003e0: 95e1 fb3b 5f41 ccbb fa4c 6e3c 9bd0 b2bb
000003f0: ea74 6cbb 2bd8 893c b249 d9ba c262 6d3c
-0.0032941408 0.0017550653 0.0017969204 -0.0056480565 -0.011873078 0.004944105 0.004173829 -0.01163952
0.0025363825 0.004481051 -0.0027104684 0.011651869 -0.007362692 -0.013685974 0.0067935484 0.011551416
-0.0066658305 -0.008051954 0.011143896 0.008569631 0.008340901 -0.004411316 -0.0044528185 0.0029894502
-0.00747889 0.010166904 0.0066248192 -0.009145795 -0.0033363388 0.009906734 0.0040879287 0.018121755
0.002623312 0.012075656 -0.010776138 0.007886177 0.006862505 -0.012399069 -0.014557049 0.01574487
-0.010870428 -0.0064974064 -0.015679503 0.006257293 -0.004412094 -0.0057942527 0.015634175 -0.012430887
0.0030058825 0.001494863 0.008776579 0.010645051 -0.018877238 -0.007312197 0.007330143 0.012347828
0.004592104 0.007823473 -0.008279603 -0.0038281723 -0.010988976 0.004914999 -0.010387435 -0.0071255118
-0.0009439122 0.016257444 0.017866177 0.0020399925 -0.0012537265 -0.0051262267 0.0057308893 0.012728964
0.0007439111 -0.015194245 -0.0028352833 -0.0069292947 -0.0070575583 -0.0073248097 0.010438905 -0.0098866355
0.005033063 -0.005611587 -0.004305405 -0.0023769292 -0.00068262 -0.010339945 0.007723523 0.009434592
5.1770385e-05 -0.005813104 0.0057199313 -0.0065526054 -0.008955839 0.016701033 0.017434675 0.008733227
0.005952711 0.010253562 0.002277441 0.016210608 -0.012308477 0.005487046 0.0043917187 0.0027838598
0.00073324324 -0.007503286 -0.004690546 0.0019346414 0.012427756 0.0061854217 0.0048581203 -0.009785566
0.0059886714 0.011516578 0.0006755722 0.012376314 -0.0051190066 -0.012945801 -0.021370163 -0.00030166254
0.005448744 -0.005298063 -0.0005285139 0.010135758 0.003024904 -0.00859128 0.0032795796 0.0023742777
-0.012120187 0.0050486247 -0.00741347 0.0061529893 0.015418725 0.0016482609 0.015205162 -0.0026957146
0.0056647565 0.000604069 0.011283778 -0.00042211867 -0.013969548 -0.004798421 0.00068106427 0.0024178738
-0.00771357 -0.0012015058 0.00853464 -0.024139857 -0.0023838494 -0.0026929318 -0.010432131 -0.0059025204
0.01991923 0.003954756 0.010958697 -0.0025975856 0.020117844 0.008101238 0.010804531 0.010267566
0.0045825616 0.001192533 -0.010406804 -0.003854161 -0.0022269662 0.011901879 0.013433183 -0.0045622904
0.00040875893 -0.014273561 -0.009266351 -0.0024207488 -0.011559849 -0.012273657 0.004825912 0.006437884
-0.011094273 0.012324571 0.009907271 -0.023801131 0.0142751355 -0.0020461974 -0.004660302 0.020830639
0.0051786467 -0.0072338455 -6.130986e-05 0.0043283077 0.007888483 -0.01424019 -0.016578047 -0.001454035
0.006893503 0.016714348 0.012500343 -0.0010563906 -0.010503457 -0.012846972 0.0013978522 -0.003521934
0.0013618656 -0.010005309 0.0068645994 -0.0007047454 -0.0140950475 -0.0033819263 -0.0008910453 0.010628381
0.0041294517 -0.008804238 0.0010126923 0.00229874 -0.0044583804 -0.0010042366 0.003937544 0.009181399
-0.007863729 -0.014223418 0.0045520756 0.0068958304 -0.013640908 0.013442786 0.003037665 -0.007812183
0.009736517 -0.00065573095 0.004716607 -0.003047184 0.00823354 -0.0062591615 0.0019748309 -0.0031015873
0.014190924 -0.0031481378 0.00853289 -0.0049808775 0.004435311 -0.0055171954 -0.014372641 0.008977955
-0.0045402856 0.0033021134 -0.0049048606 -0.006669783 0.0036174282 -0.005691147 -0.0016358577 0.005235127
0.0076868036 -0.006233379 0.01454472 -0.0054569966 -0.0036080428 0.01682671 -0.0016577749 0.014488878

action_model._discrete_distribution.branches.3.weight f4 [48, 128]
00000000: b6f0 243c 6331 163b fb6a 07bb 511e b23b
00000010: 31d1 023b cb18 4bbb 6605 c4bb 7b3a 77bb
00000020: 3784 39ba 6e30 9fb8 17c2 853c 1828 57bc
00000030: 677d a73b de8f 853c 4877 68bb 32a4 ed3b
00000040: 0078 9bbb 1721 523c 7f87 febb 8fbb 343c
00000050: 7d95 0f3c 4d48 e43b e897 a73b b5b6 d8ba
00000060: cd27 abbb 2b5a 04bc 47cb 2f3c 7b2c 443a
00000070: 6207 f63b ba61 d239 bbe5 0abc 3744 0fbc
00000080: 13b6 afbb 0e76 07bc 1836 f8ba 755c 04bb
00000090: 1307 023c c053 763c a23f daba 0a0d babb
000000a0: 9969 443c 3b5a d5bb 725c f8bc 37e3 1abc
000000b0: 7b3b 113c 4631 96bb 14f9 01bb 93a4 a4b9
000000c0: cf02 da3b 25ea d03b b5ef 56bc 03eb 923b
000000d0: 8375 433a ddd0 753c 2e37 23bb afd4 34bb
000000e0: ab4e 363b 0b13 bd3c ef12 933c b309 8b3b
000000f0: 02e6 38bc 4566 d8bb 1a04 34bc 9098 94bb
00000100: 5ffc 9c3b dc9b 2fbc 4f37 903c f7a9 083c
00000110: 7ded 393b 6f0b 003c 3fda 863b 33bd 963a
00000120: 4faa 993b e872 d5bb ab3f 84bb 59a4 123b
00000130: df6b 8bb9 e3a4 8db8 b36b b7bb 6e5a 983b
00000140: 3d9a 95bb 532c efbb fbe4 923b 27df 8abc
00000150: d60c 9fbc 9311 40bc 1743 583c f370 823c
00000160: 1fc4 00bc 092f bc3c 77de ab3b bbda 7a3c
00000170: eb42 36bc 0768 ac3b c79c 0d3c bb68 613b
00000180: 25ab 6fba 225e 0ebc 1fd8 a13b 1369 2f3c
00000190: 4c42 23bc 1ec2 a73a 82c3 083c 2b8d c8bb
000001a0: dcb5 2dbc 958e 6f3c 43bc f1b9 a5b0 cf3a
000001b0: 5afc a2bb 8dce d03b 3bf1 873b d524 583b
000001c0: 276d de3a da98 dc3b fd88 883b 0554 50bb
000001d0: dd0f c4bc 7fe7 26bc ca1a e7bb 9cb2 3d3c
000001e0: 672d 683b f181 34b9 3f7c 3c3b 433c d83b
000001f0: ff31 a8bc 6d07 7cbc 6555 363b 0171 1d3c
00000200: 5af1 243b f8cf d83b 63f8 103c 3764 77bb
00000210: 43fe 0a3c 0d38 e1bb d7bb 52bc 9a45 80ba
00000220: a760 e93b ebbf 35bc 637d 4bbc 28d4 d839
00000230: 0fd5 19bb b19b 9f3a e85b 88bc 2925 013b
00000240: 2e47 46bc 238e c3b9 5cbc 2b3b 94b8 a9ba
00000250: fae0 14bc adfe fc3a 0f9f 74bc 4ddc 143a
00000260: fff7 6bbb ed50 f23b 8b99 8b3c 4964 843c
00000270: 8fa3 43bb ad4d f53b 2b0c a3b8 4305 45bc
00000280: cb38 56bb d3d0 7ebb 3936 813c 77a0 5a3b
00000290: d192 8e3c b7d7 ebbb fdaa b43b 15e8 e039
000002a0: b7d8 083c 2f49 9a3a 09c8 90bb 2f9e fb3b
000002b0: df03 14bc 65b6 68bb 8664 8c3c b147 223c
000002c0: e9bd 263b 47fc 163c c489 89ba d3f3 f73a
000002d0: 2fb1 653b b9e1 013c bfe2 c2bb 7c3c 06bc
000002e0: 3ad1 fabb a0bf ff3a 9bdf ef3b 4364 953a
000002f0: 1aca f1bb 3e7b 0d3c 9b21 7c3b 0900 20bc
00000300: f923 b13b 380f 2c3c 68f1 14bc 0359 7b3a
00000310: c3d6 3e3c 4aca 3d3c d161 aa3a b45b bdbb
00000320: b351 7e3b 59f8 273a d324 93bc 33da 2fbb
00000330: 2302 f4bb 4d09 8d3b c9e1 943b 43ab 00bb
00000340: 6e62 023a eac9 68bb ebb7 3ebb 2e74 2dbb
00000350: 230f a7ba 0ddb 913c 6517 cb3b 23fb 44bb
00000360: eab3 723c 85d3 173c a38c 08bb 32fa 4dbc
00000370: e2d5 3bbc e80f 92bb 1e33 98bb 8116 a43b
00000380: 83bf 9fba 7d2b 5bbc ab72 b73b aada 4ebb
00000390: 8fb1 65bc ad6c 633b 613a bdbb 195e adbb
000003a0: 0bb4 91bb 0c5c 203c 2f5a 12bb f069 5fbc
000003b0: 454b fa3b b2b9 823c 7f63 0abc 382b 763c
000003c0: a815 62bb 7349 5fba 7be3 013a b30c c43b
000003d0: 80f9 e43a e06b ff3b e7bc 2b3c 4732 fdbb
000003e0: 988e 19bc 2551 52bc 221b 3bbb 3331 77bc
000003f0: 0358 83bc 38ec cf3b 7482 a2bb 4609 35bc
0.010067156 0.002291762 -0.002066313 0.005435743 0.0019961114 -0.003099012 -0.005982089 -0.0037724066
-0.00070768915 -7.5907315e-05 0.0163279 -0.013132118 0.0051113847 0.016303953 -0.0035471488 0.0072522396
-0.0047445297 0.012825272 -0.0077676172 0.011031046 0.008763668 0.0069666267 0.005114544 -0.0016533943
-0.0052232505 -0.008078138 0.010729617 0.0007483435 0.0075082043 0.00040127133 -0.008477624 -0.008744291
-0.005362281 -0.0082678925 -0.001893702 -0.002019671 0.007936257 0.015034616 -0.0016651044 -0.005677824
0.011988067 -0.0065110005 -0.030317519 -0.009453586 0.008864279 -0.0045835106 -0.00198323 -0.00031403135
0.006653167 0.0063755685 -0.013118674 0.004483582 0.000745617 0.01500341 -0.0024904716 -0.002759259
0.0027817886 0.02308037 0.017953364 0.0042430996 -0.011285307 -0.0066039884 -0.010987306 -0.0045347884
0.004790827 -0.010718312 0.017604498 0.008341304 0.0028370314 0.007815226 0.0041153724 0.0011500478
0.004689492 -0.006513942 -0.00403591 0.002237579 -0.00026592516 -6.7541165e-05 -0.0055975555 0.004649452
-0.004565506 -0.007298985 0.004482863 -0.01695211 -0.0194153 -0.01172294 0.013199589 0.015922999
-0.007859259 0.022971647 0.0052450257 0.0153109385 -0.011124353 0.0052614245 0.008643336 0.00343947
-0.0009142629 -0.008689435 0.0049390937 0.010706204 -0.009964537 0.001279894 0.008347394 -0.006120344
-0.010602441 0.014621397 -0.00046107368 0.0015845491 -0.0049739303 0.006372279 0.00414863 0.0032980938
0.0016969786 0.0067320885 0.004166721 -0.003178836 -0.023933345 -0.010187029 -0.007052754 0.011578228
0.0035427453 -0.00017214545 0.002876058 0.0065989806 -0.020531652 -0.01538263 0.0027821895 0.009609462
0.002516827 0.0066165887 0.0088482825 -0.0037748942 0.008483472 -0.006873137 -0.012862167 -0.0009786368
0.0071221176 -0.01109312 -0.012420031 0.000413568 -0.002347294 0.0012177137 -0.016645387 0.0019705987
-0.0121019315 -0.00037299198 0.00262048 -0.0012948685 -0.009086842 0.0019301974 -0.014930501 0.00056785793
-0.0036005971 0.007394901 0.017040988 0.016161101 -0.0029852127 0.0074860663 -7.774712e-05 -0.01202518
-0.003268766 -0.0038881793 0.015772926 0.0033359805 0.017403992 -0.007197346 0.0055135475 0.00042897524
0.00835245 0.0011771078 -0.0044183773 0.007678769 -0.009034126 -0.0035509106 0.017137777 0.009904788
0.0025442785 0.009215421 -0.0010493328 0.001891727 0.0035048237 0.007927352 -0.0059474404 -0.008193132
-0.0076543363 0.0019512065 0.007320357 0.0011397678 -0.0073788287 0.00863534 0.003847218 -0.009765633
0.0054058996 0.010501675 -0.009090759 0.0009588154 0.011647883 0.011583874 0.0012999122 -0.005778754
0.003880602 0.0006407551 -0.017961895 -0.0026832938 -0.007446544 0.0043040873 0.0045435173 -0.001963333
0.00049737736 -0.003552074 -0.0029101323 -0.0026466954 -0.00127456 0.017804647 0.006197857 -0.0030056916
0.014813403 0.009266739 -0.002083578 -0.012571858 -0.011464568 -0.0044574626 -0.0046447655 0.0050075655
-0.0012187812 -0.013377068 0.0055983863 -0.003156344 -0.014019384 0.0034702227 -0.0057747816 -0.0052907583
-0.0044465116 0.009787571 -0.0022331586 -0.013636097 0.0076383674 0.015957687 -0.008446573 0.015024953
-0.0034497771 -0.00085177197 0.00049548567 0.005982959 0.0017469376 0.007794842 0.01048205 -0.007726941
-0.009372376 -0.012836729 -0.0028550108 -0.015087414 -0.016033178 0.006345298 -0.004959399 -0.011049574

action_model._discrete_distribution.branches.3.bias f4 [48]
00000000: 0000 0000 0000 0000 0000 0000 0000 0000
00000010: 0000 0000 0000 0000 0000 0000 0000 0000
00000020: 0000 0000 0000 0000 0000 0000 0000 0000
00000030: 0000 0000 0000 0000 0000 0000 0000 0000
00000040: 0000 0000 0000 0000 0000 0000 0000 0000
00000050: 0000 0000 0000 0000 0000 0000 0000 0000
00000060: 0000 0000 0000 0000 0000 0000 0000 0000
00000070: 0000 0000 0000 0000 0000 0000 0000 0000
00000080: 0000 0000 0000 0000 0000 0000 0000 0000
00000090: 0000 0000 0000 0000 0000 0000 0000 0000
000000a0: 0000 0000 0000 0000 0000 0000 0000 0000
000000b0: 0000 0000 0000 0000 0000 0000 0000 0000
0.0 0.0 0.0 0.0 0.0 0.0 0.0 0.0
0.0 0.0 0.0 0.0 0.0 0.0 0.0 0.0
0.0 0.0 0.0 0.0 0.0 0.0 0.0 0.0
0.0 0.0 0.0 0.0 0.0 0.0 0.0 0.0
0.0 0.0 0.0 0.0 0.0 0.0 0.0 0.0
0.0 0.0 0.0 0.0 0.0 0.0 0.0 0.0
