Assets/Scripts/RL/results/MyTrainingRun2/Character/Character-19.onnx (onnx, 188197 bytes, 11 tensors)

discrete_act_size_vector f4 [1, 4]
0	0x40c00000	6.0
1	0x40400000	3.0
2	0x40400000	3.0
3	0x42400000	48.0

network_body._body_endoder.seq_layers.0.weight f4 [128, 155]
0	0x3d07a7e9	0.033119116
1	0x3daf42fe	0.085576996
2	0x3e010a1b	0.12601511
3	0xbcd3569c	-0.025798135
4	0x3d13a3e1	0.03604496
5	0xbd061a48	-0.032739908
6	0xbd865ca5	-0.06560639
7	0x3a809bcf	0.000981206
8	0x3da24566	0.07923393
9	0x3a89ba2b	0.0010507753
10	0xbe22098c	-0.15823954
11	0x3c4e36eb	0.012586336
12	0x3d9192f5	0.07108108
13	0x3c7eb50c	0.015546095
14	0xbccddaa7	-0.025128676
15	0x3d95d3f1	0.07315815
16	0x3e2f2f4f	0.1710789
17	0x3d535968	0.051598936
18	0xbe09a93b	-0.13443463
19	0x3bb2bbc6	0.0054545132
20	0xbdde6ea2	-0.10860945
21	0x3d47c75a	0.0487741
22	0xbe0f7452	-0.14009216
23	0x3d5550f0	0.05207914
24	0xbe13894d	-0.14407845
25	0xbc05bea7	-0.008163131
26	0xbdcac089	-0.099000044
27	0x3da9cba3	0.08290794
28	0xbd83091c	-0.06398222
29	0x3deccc8d	0.115624525
30	0xbc8fe8f4	-0.017567135
31	0x3d913d68	0.070917904
32	0x3d13c9f7	0.03608128
33	0xbdd6a224	-0.104801446
34	0xbb8193e0	-0.0039543957
35	0xbb6da124	-0.0036259377
36	0x3e38acca	0.18034664
37	0xbdd484ae	-0.10376869
38	0xbd4d949b	-0.05019055
39	0x3dfffa32	0.12498893
40	0x3c234434	0.009964991
41	0x3ce26f1a	0.027640868
42	0x3d3f2015	0.046661455
43	0x3e0b25fe	0.13588712
44	0xbe83859a	-0.25687867
45	0x3d5ef909	0.054436717
46	0x3e275b2c	0.16343373
47	0xbd83f4ca	-0.06443174
48	0xbd4e01de	-0.05029475
49	0x3c4c70ed	0.0124780955
50	0x3dbd665c	0.09248039
51	0x3c1d3964	0.0095962025
52	0xbd9a4aba	-0.07533784
53	0x3d35a806	0.044349693
54	0x3d7811b7	0.06056377
55	0xbe212cd0	-0.15739751
56	0x3cd01a34	0.02540312
57	0xbe363684	-0.17794234
58	0x3de9b652	0.11411728
59	0x3d5e26e0	0.054236293
60	0x3dce4349	0.100714274
61	0x3d93be9e	0.07214092
62	0xbda97aa9	-0.08275349
63	0xbd0a27ee	-0.033729486
64	0x3d020592	0.031743594
65	0xbac16b2c	-0.0014756671
66	0xbe15e4be	-0.1463804
67	0xbd09bf91	-0.033629958
68	0xbe0af710	-0.1357081
69	0x3dc19362	0.09451939
70	0x3c55d45d	0.01305112
71	0x3d197e63	0.037474047
72	0xbd397626	-0.04527869
73	0xbd2e2b05	-0.042521495
74	0xbdd29440	-0.10282183
75	0x3d91e5b6	0.07123892
76	0x3d7f4114	0.062317923
77	0xbcd6ae80	-0.026206255
78	0x3d7bb9eb	0.061456602
79	0xbd92455a	-0.07142134
80	0xbd096a23	-0.033548485
81	0xbddcb2d5	-0.10776297
82	0xbd9744c7	-0.07386165
83	0x3c8ff728	0.017573908
84	0xbbdb38df	-0.006690129
85	0x3b5f2662	0.0034049978
86	0x3ceb1325	0.028695652
87	0xbe552dec	-0.20818299
88	0x3d0f1e4b	0.034941
89	0x3c7b4f52	0.015338736
90	0x3e07fe13	0.13280515
91	0xbcbcdfdf	-0.023055969
92	0x3cc4330e	0.023950126
93	0x3d351350	0.04420787
94	0xbde8b1e9	-0.11362059
95	0xbc4b6d5e	-0.012416212
96	0xbdb33f95	-0.08752362
97	0xbd929d3c	-0.07158896
98	0xbce856fa	-0.028361786
99	0xbda76e3b	-0.08175322
100	0x3d2c6753	0.042090725
101	0xbd2df5cd	-0.042470742
102	0x3d9de339	0.07709355
103	0xbe0852fb	-0.13312905
104	0x3d0d6fb8	0.03453037
105	0xbd50efd6	-0.051009975
106	0x3e0d0033	0.13769607
107	0x3d4a0d92	0.049329348
108	0xbcb52e7f	-0.022116898
109	0x3d9f15a8	0.077678025
110	0xbce35390	-0.027749807
111	0x3be5d292	0.0070136273
112	0xbdb63cf6	-0.08898346
113	0x3d9e71c1	0.077365406
114	0x3d4a3d23	0.04937471
115	0x3df26dba	0.11837335
116	0xbd9d9ef8	-0.076963365
117	0xbd8e54b1	-0.06949747
118	0x3cd8f7f2	0.026485417
119	0x3d7c58d3	0.061608147
120	0x3d8c4f0d	0.06851015
121	0x3cac0b7c	0.02100157
122	0x3c2a83a3	0.010407361
123	0xbb881ada	-0.0041535916
124	0xbc88830f	-0.016664056
125	0x3dfaee7e	0.1225252
126	0xbe2c5feb	-0.16833465
127	0xbd1e07f6	-0.03858181
128	0x3d77f295	0.06053408
129	0xbce7987e	-0.028270956
130	0x3b07a8de	0.0020700018
131	0x3ca3fc92	0.020017896
132	0xbd6983b0	-0.057010353
133	0xbd9c490d	-0.07631121
134	0xbe036a3f	-0.12833498
135	0x3c92f410	0.017938644
136	0xbd2c7de8	-0.04211226
137	0xbe3710fb	-0.17877571
138	0xbdb9588b	-0.09050091
139	0xbcd5369f	-0.026027022
140	0x3d884e9d	0.06655619
141	0xbc808e5a	-0.015692879
142	0xbd72487f	-0.05915117
143	0x3ba263d1	0.0049557467
144	0x3cd11bc0	0.025525928
145	0xbcee05a3	-0.029055422
146	0xbbbe072f	-0.005799196
147	0xbcc69d4c	-0.024244927
148	0x3d905ba4	0.07048729
149	0x3bb9d638	0.005671289
150	0x3c0b9cc0	0.008521259
151	0xbba182bd	-0.0049289153
152	0xbde673a0	-0.112525225
153	0x3d721ac8	0.05910757
154	0xbd173de1	-0.036924247
155	0x3dd77c6f	0.10521781
156	0x3dbf6eb4	0.09347287
157	0x3d9e63fa	0.07733913
158	0xbd5b043a	-0.053470828
159	0x3d4ef70c	0.05052857
160	0x3de148be	0.110002026
161	0xbbc8c46f	-0.0061269323
162	0xbc1ac010	-0.009445205
163	0xbcd5bd9c	-0.02609139
164	0xbbeb92cd	-0.007189131
165	0xbd79d15b	-0.060990673
166	0xb9389757	-0.00017603986
167	0xbd8cebf4	-0.06880942
168	0x3cca4179	0.024689423
169	0x3e025b48	0.12730134
170	0x3d34e4f4	0.04416366
171	0xbc48edc8	-0.012263723
172	0x3d2572d4	0.04039271
173	0xbcd36e03	-0.025809294
174	0xbccc63d9	-0.024949955
175	0x3e3d1313	0.18464307
176	0xbe00bcb5	-0.12571986
177	0xbe24c142	-0.16089347
178	0x3dd6cfd9	0.104888625
179	0x3d3b990b	0.04580025
180	0xbde1b945	-0.110216655
181	0x3d4ca0e6	0.049958132
182	0xbd2da1dd	-0.042390693
183	0x3e13a374	0.14417821
184	0x3bc82a68	0.006108571
185	0xbe220bba	-0.15824786
186	0xbe27a926	-0.16373119
187	0x3d477ec2	0.04870487
188	0x3e5f5999	0.21811523
189	0xbd36e3ba	-0.04465077
190	0xbdf11c1a	-0.11772938
191	0x3e0c01be	0.1367254
192	0xbc9ae7d8	-0.01890938
193	0x3d054d83	0.032544624
194	0xbde2a887	-0.110673
195	0xbc84dcf1	-0.016218634
196	0x3d927759	0.0715167
197	0x3ca99cbb	0.020704618
198	0xbc91691a	-0.017750312
199	0xbd751d6a	-0.059842505
200	0x3c25a63f	0.010110437
201	0x3df815af	0.12113511
202	0xbd691ce6	-0.056912325
203	0xbcd18299	-0.02557497
204	0x3b830e40	0.0039995015
205	0xbd07f4e7	-0.03319254
206	0xbbc183be	-0.0059055975
207	0x3d6991b4	0.05702372
208	0x3d867365	0.065649785
209	0x3e3f6631	0.18691327
210	0xbd3927e4	-0.04520406
211	0x3dd358b1	0.10319651
212	0xbcb0c450	-0.021577984
213	0x3e2fb17a	0.17157546
214	0xbddaaaba	-0.10677095
215	0xbe18a59f	-0.1490693
216	0xbd921410	-0.07132733
217	0xbe2b8c48	-0.16752732
218	0x3df3e83b	0.11909529
219	0x3d141998	0.03615722
220	0xbe0085e6	-0.12551078
221	0x3d0e65fc	0.03476523
222	0x3d9df154	0.07712045
223	0x3d15dbb1	0.036586467
224	0x3d86da5a	0.06584616
225	0x3aed6a1c	0.0018113288
226	0xbd6e8564	-0.05823268
227	0x3dc48fb2	0.0959772
228	0x3d1bb704	0.038016334
229	0xbe069a15	-0.13144715
230	0x3d87b0ba	0.06625505
231	0xbc96964d	-0.018382216
232	0xbba65daf	-0.005077086
233	0xbd80d052	-0.06289734
234	0xbd16691e	-0.03672134
235	0x3d452901	0.048134807
236	0xbde7b076	-0.11312954
237	0x3cbbefed	0.022941554
238	0xbde08cbc	-0.10964343
239	0xbd0191b6	-0.0316331
240	0x3db9c721	0.09071184
241	0x3b96ae4d	0.004598415
242	0xbe0e964b	-0.1392452
243	0xbc3f8482	-0.011689307
244	0x3e0a368a	0.13497368
245	0xbd4251d2	-0.04744131
246	0xb9fa553d	-0.00047747223
247	0x3d8db8be	0.069200024
248	0xbc8a9f8d	-0.016921783
249	0x3e245bc7	0.16050635
250	0x3ce36f15	0.027762929
251	0x3d20d164	0.03926219
252	0x3b0fa706	0.0021919622
253	0x3e00c9d7	0.12576996
254	0x3de526c1	0.11189032
255	0x3c1bed9f	0.0095171025

network_body._body_endoder.seq_layers.0.bias f4 [128]
0	0x00000000	0.0
1	0x00000000	0.0
2	0x00000000	0.0
3	0x00000000	0.0
4	0x00000000	0.0
5	0x00000000	0.0
6	0x00000000	0.0
7	0x00000000	0.0
8	0x00000000	0.0
9	0x00000000	0.0
10	0x00000000	0.0
11	0x00000000	0.0
12	0x00000000	0.0
13	0x00000000	0.0
14	0x00000000	0.0
15	0x00000000	0.0
16	0x00000000	0.0
17	0x00000000	0.0
18	0x00000000	0.0
19	0x00000000	0.0
20	0x00000000	0.0
21	0x00000000	0.0
22	0x00000000	0.0
23	0x00000000	0.0
24	0x00000000	0.0
25	0x00000000	0.0
26	0x00000000	0.0
27	0x00000000	0.0
28	0x00000000	0.0
29	0x00000000	0.0
30	0x00000000	0.0
31	0x00000000	0.0
32	0x00000000	0.0
33	0x00000000	0.0
34	0x00000000	0.0
35	0x00000000	0.0
36	0x00000000	0.0
37	0x00000000	0.0
38	0x00000000	0.0
39	0x00000000	0.0
40	0x00000000	0.0
41	0x00000000	0.0
42	0x00000000	0.0
43	0x00000000	0.0
44	0x00000000	0.0
45	0x00000000	0.0
46	0x00000000	0.0
47	0x00000000	0.0
48	0x00000000	0.0
49	0x00000000	0.0
50	0x00000000	0.0
51	0x00000000	0.0
52	0x00000000	0.0
53	0x00000000	0.0
54	0x00000000	0.0
55	0x00000000	0.0
56	0x00000000	0.0
57	0x00000000	0.0
58	0x00000000	0.0
59	0x00000000	0.0
60	0x00000000	0.0
61	0x00000000	0.0
62	0x00000000	0.0
63	0x00000000	0.0
64	0x00000000	0.0
65	0x00000000	0.0
66	0x00000000	0.0
67	0x00000000	0.0
68	0x00000000	0.0
69	0x00000000	0.0
70	0x00000000	0.0
71	0x00000000	0.0
72	0x00000000	0.0
73	0x00000000	0.0
74	0x00000000	0.0
75	0x00000000	0.0
76	0x00000000	0.0
77	0x00000000	0.0
78	0x00000000	0.0
79	0x00000000	0.0
80	0x00000000	0.0
81	0x00000000	0.0
82	0x00000000	0.0
83	0x00000000	0.0
84	0x00000000	0.0
85	0x00000000	0.0
86	0x00000000	0.0
87	0x00000000	0.0
88	0x00000000	0.0
89	0x00000000	0.0
90	0x00000000	0.0
91	0x00000000	0.0
92	0x00000000	0.0
93	0x00000000	0.0
94	0x00000000	0.0
95	0x00000000	0.0
96	0x00000000	0.0
97	0x00000000	0.0
98	0x00000000	0.0
99	0x00000000	0.0
100	0x00000000	0.0
101	0x00000000	0.0
102	0x00000000	0.0
103	0x00000000	0.0
104	0x00000000	0.0
105	0x00000000	0.0
106	0x00000000	0.0
107	0x00000000	0.0
108	0x00000000	0.0
109	0x00000000	0.0
110	0x00000000	0.0
111	0x00000000	0.0
112	0x00000000	0.0
113	0x00000000	0.0
114	0x00000000	0.0
115	0x00000000	0.0
116	0x00000000	0.0
117	0x00000000	0.0
118	0x00000000	0.0
119	0x00000000	0.0
120	0x00000000	0.0
121	0x00000000	0.0
122	0x00000000	0.0
123	0x00000000	0.0
124	0x00000000	0.0
125	0x00000000	0.0
126	0x00000000	0.0
127	0x00000000	0.0

network_body._body_endoder.seq_layers.2.weight f4 [128, 128]
0	0xbdd230ee	-0.10263239
1	0xbd140f72	-0.036147542
2	0xbdbc854c	-0.09205112
3	0xbe004490	-0.12526155
4	0xbd01da32	-0.031702228
5	0x3d87fe83	0.06640341
6	0x3d30eac5	0.043192644
7	0x3d651c8c	0.055935428
8	0xbd8e7d3e	-0.06957482
9	0xbdaf550c	-0.08561143
10	0xbe0351fc	-0.12824243
11	0x3c7c26dc	0.015390124
12	0xbd71c355	-0.059024174
13	0x3e171c83	0.1475697
14	0x3d4eb1f8	0.050462693
15	0xbcf2bc9d	-0.029630953
16	0x3d124036	0.035705768
17	0x39578403	0.00020553176
18	0x3def3e3f	0.116817944
19	0xba4ccac5	-0.00078121974
20	0x3e1c65c0	0.1527319
21	0xbe04b092	-0.12957981
22	0x3d80618c	0.062686056
23	0x3b33cf56	0.0027436814
24	0x3df2eaf4	0.1186122
25	0xbd856f07	-0.065153174
26	0xbccf0333	-0.02527008
27	0x3cea05ea	0.028567273
28	0xbcd29762	-0.02570695
29	0xbdf4a1c3	-0.11944916
30	0xbcf9ea3b	-0.030507198
31	0xbd0bd85a	-0.034141876
32	0x3df51115	0.11966149
33	0xbd739884	-0.059471622
34	0xbe0c96b9	-0.13729371
35	0xbd2796e0	-0.04091537
36	0x3bfce114	0.007717261
37	0xbd14aa97	-0.0362955
38	0x3c00c9e1	0.007860632
39	0x3cf3a063	0.029739564
40	0xbc6674b7	-0.014065913
41	0x3e1c010d	0.15234776
42	0x3ca642c9	0.020295518
43	0xbdabd5e3	-0.08390405
44	0xbc8801e6	-0.016602468
45	0xbdfaaaf9	-0.12239642
46	0x3d92dd75	0.07171146
47	0xbd3916ef	-0.045187887
48	0x3cd98f5d	0.026557619
49	0xbd6d83c8	-0.057987005
50	0x3ddec009	0.108764715
51	0x3d92a6ce	0.07160722
52	0x3d28c916	0.041207395
53	0x3e371705	0.17879875
54	0xbd5cbfc9	-0.053893838
55	0xbd30b790	-0.04314381
56	0x3ce73925	0.02822549
57	0x3dc28f08	0.09499937
58	0xbda4b633	-0.08042564
59	0xbdb3719c	-0.08761904
60	0xbdc59c84	-0.096489936
61	0xbda24cce	-0.079248056
62	0x3d283ca1	0.041073445
63	0xbd9def73	-0.07711687
64	0x3b04556b	0.0020192515
65	0x3cb83774	0.02248738
66	0xbe3af2b1	-0.18256642
67	0x3e15a1c6	0.14612493
68	0xbce9fe89	-0.028563755
69	0x3c295638	0.010335498
70	0xbd528f8e	-0.051406436
71	0x3da72504	0.08161357
72	0x3d144716	0.036200605
73	0xbd73d17e	-0.05952596
74	0x3d6d971f	0.05800545
75	0xbce3f58e	-0.02782705
76	0xbdb28dc4	-0.08718446
77	0x3c885b47	0.016645087
78	0xbd031c56	-0.032009445
79	0x3d7022a9	0.058626805
80	0x3d3b636f	0.045749124
81	0x3cbdf9ac	0.023190342
82	0xbdbfe3f3	-0.0936965
83	0xbbd7cf2f	-0.0065859775
84	0xbc21b2c5	-0.009869282
85	0xbc619392	-0.013768094
86	0xbe0055b2	-0.1253269
87	0x3a84d6f0	0.0010134857
88	0x3d92b234	0.07162896
89	0x3d06d3fd	0.03291701
90	0xbdf24cd3	-0.11831059
91	0x3e412694	0.18862373
92	0xbcd0c35b	-0.025483778
93	0xbe0b574a	-0.13607517
94	0x3da33436	0.07968943
95	0xbd0a69ed	-0.033792425
96	0xbdd32ce4	-0.103112966
97	0xbe21dfad	-0.15807982
98	0x3da0074b	0.07813891
99	0x3d0b4e58	0.03401026
100	0x3d7f647f	0.0623517
101	0xbd2895ad	-0.041158367
102	0x3d465758	0.04842314
103	0xbd6ae93d	-0.05735134
104	0x3dd0ea20	0.10200906
105	0x3d71ec83	0.059063446
106	0xbd2d3e63	-0.042295825
107	0xbda3bf45	-0.07995466
108	0x3d293d52	0.041318245
109	0x3df0ec68	0.11763841
110	0xb9d901ad	-0.00041390714
111	0xbb162966	-0.002291286
112	0x3d88c3be	0.0667796
113	0xbba74959	-0.0051051793
114	0xbe82953d	-0.25504485
115	0x3cf76da6	0.030203652
116	0xbd4a99af	-0.04946297
117	0xbdb886cf	-0.09010088
118	0xbdc4ac3a	-0.09603162
119	0xbd91131d	-0.07083724
120	0x3db3db9c	0.087821215
121	0x3d42616b	0.047456186
122	0xbe037825	-0.128388
123	0xbd3eea23	-0.04661001
124	0x3d1a4b0b	0.037669223
125	0xbd4a8bf1	-0.049449865
126	0xbc04320a	-0.008068571
127	0xbe203c1f	-0.15647934
128	0xbe0ce4d7	-0.1375917
129	0x3d1d3645	0.038381834
130	0xbcf6361a	-0.030055095
131	0x3d7ab482	0.061207302
132	0xbd929dea	-0.07159026
133	0x3ccc43e8	0.024934724
134	0xbce305a1	-0.027712645
135	0x3ce7c8dd	0.028294021
136	0x3d752d05	0.059857387
137	0xbd663a96	-0.056208216
138	0xbdb77bf7	-0.08959191
139	0x3e383b63	0.17991404
140	0x3dffe969	0.12495691
141	0xbd0f557d	-0.034993637
142	0x3c1ca8d4	0.009561736
143	0x3c387f2a	0.011260787
144	0x3e4afa1b	0.1982197
145	0xbcca491d	-0.024693066
146	0xbdd97150	-0.10617316
147	0xbcb7a3fd	-0.022417063
148	0xbd5d40af	-0.054016765
149	0xbcef75f4	-0.02923105
150	0x3c2fe5a5	0.010735904
151	0x3db5ad34	0.088709265
152	0x3e0b8ed9	0.13628711
153	0x3d1de22f	0.038545784
154	0xbd5d2d0a	-0.05399803
155	0x3e9dded4	0.30834067
156	0x3cb5e687	0.02220465
157	0x3d14bdd1	0.036313836
158	0xbb95334b	-0.0045532337
159	0x3d04e3f1	0.032443944
160	0xbded9cc8	-0.11602169
161	0xbdac16ed	-0.0840281
162	0xbd25b92f	-0.040459808
163	0xbdc6ce02	-0.097072616
164	0xbc8a4a91	-0.01688126
165	0xbd504d64	-0.050855055
166	0x3dd12150	0.10211432
167	0xbd232b5c	-0.039836273
168	0xbcb55c1e	-0.022138651
169	0xbe12adaf	-0.14324068
170	0xbe3cc3ac	-0.18434018
171	0x3c4105aa	0.011781136
172	0x3d9ced65	0.07662467
173	0xbb530f7e	-0.003220528
174	0xbd40a322	-0.047030576
175	0x3dd2d91c	0.102953166
176	0x3c82c816	0.015964549
177	0x3da4577a	0.08024497
178	0x3d061dc0	0.032743216
179	0xbdc1e15e	-0.094668135
180	0xbdc15c6b	-0.094414555
181	0x3df9f019	0.12203998
182	0xbc807a1c	-0.015683226
183	0xbd0926d1	-0.033484284
184	0xbd8bf38f	-0.068335645
185	0xbc97b144	-0.018517144
186	0xbd36798d	-0.044549514
187	0xbdd3866d	-0.10328374
188	0x3d533e92	0.051573344
189	0x3c84a635	0.016192535
190	0x3d0e94db	0.03480993
191	0x3da2b80f	0.07945263
192	0xbd8cce85	-0.06875328
193	0x3d3cc8a3	0.04608978
194	0xbd2b43e0	-0.041812778
195	0x3c529699	0.012853288
196	0x3d422a68	0.047403723
197	0x3df0a27f	0.11749744
198	0x3d1bcf93	0.038039755
199	0xbe7f6520	-0.2494092
200	0x3dc2d25e	0.095127806
201	0x3deb88db	0.115007125
202	0x3cbaa770	0.022784919
203	0xbc2551f6	-0.010090342
204	0xbe459d34	-0.1929825
205	0x3d250bd2	0.040294476
206	0xbb63207c	-0.0034656813
207	0xbc52d5dd	-0.012868372
208	0x3cf81b3b	0.030286422
209	0xbd1ce5fd	-0.03830527
210	0xbe23b283	-0.15986066
211	0xbd549ad8	-0.051905483
212	0xbccf39ff	-0.02529621
213	0x3d265794	0.040610865
214	0x3dabc273	0.083866976
215	0xbd048db9	-0.03236172
216	0x3d24df18	0.04025182
217	0xbd9a4658	-0.07532948
218	0xbcbf3de1	-0.023344936
219	0xbdb64a8b	-0.08900937
220	0xbd3bc94d	-0.045846272
221	0xbd796369	-0.06088582
222	0xbde01609	-0.10941703
223	0x3da08f7a	0.07839866
224	0xbd89def5	-0.06731979
225	0x3d86f949	0.06590516
226	0x3c058fd2	0.008151965
227	0x3dc1eba8	0.09468776
228	0x3e161241	0.14655401
229	0x3da4167d	0.08012102
230	0xbe0ff81c	-0.1405949
231	0x3e1c5f16	0.15270647
232	0xbd1db05a	-0.03849826
233	0x3e809a41	0.25117686
234	0xbd26147b	-0.040546875
235	0xbcb5861d	-0.022158677
236	0xbe191c8d	-0.14952298
237	0xbdae65e9	-0.085155316
238	0x3d944a08	0.07240683
239	0x3c7989ee	0.015230639
240	0x3c2960a8	0.010337986
241	0x3d0d84bb	0.03455041
242	0xbc575671	-0.013143168
243	0xbd0dbe84	-0.034605518
244	0xbd90afad	-0.070647575
245	0xbd27623c	-0.040865168
246	0x3ccb701b	0.02483373
247	0xbdc734df	-0.09726881
248	0x3e21dd07	0.15806971
249	0x3df532ca	0.11972578
250	0xbcd37acf	-0.025815396
251	0xbc80d335	-0.015725711
252	0x3dbabc4d	0.09117947
253	0xbe2337d3	-0.15939264
254	0xbe1fd477	-0.15608393
255	0xbd895b1d	-0.067068316

action_model._discrete_distribution.branches.0.weight f4 [6, 128]
0	0x3bbd3c52	0.005775013
1	0x3ac6f432	0.0015178977
2	0xbbc9aaea	-0.0061544077
3	0x3ad231da	0.0016036585
4	0xbc26888b	-0.01016439
5	0x3a545843	0.000810031
6	0xbb60a818	-0.003427988
7	0xbbcc7acb	-0.006240224
8	0x3a23d21d	0.0006249266
9	0x3b9faa67	0.0048726085
10	0x3cafc3e3	0.02145571
11	0x3ba5f512	0.005064615
12	0x3b22ed13	0.0024860546
13	0x3bc6a350	0.006061949
14	0x3c06310e	0.0081904065
15	0x3c932f63	0.017966932
16	0xbc5f8b0f	-0.013643994
17	0x3c07283d	0.00824934
18	0x38227f34	3.8742277e-05
19	0x3b5ee80b	0.003401282
20	0x3a99992c	0.0011718622
21	0x3c51f538	0.012814812
22	0xbc195e69	-0.009360888
23	0xbc3a2b43	-0.011362853
24	0xbb796027	-0.0038051696
25	0x3c1ecbf1	0.009692178
26	0xbbd58d77	-0.006517108
27	0x3b90fa8e	0.0044243997
28	0x3bfd46f7	0.007729407
29	0x3c2cbdcf	0.010543301
30	0x3bb8ecc0	0.005643457
31	0xbc01538e	-0.007893456
32	0xbc85cad2	-0.016332064
33	0xbb32fb3b	-0.002731039
34	0x3ca3e5b0	0.020006984
35	0x3b17b8eb	0.0023150991
36	0x3c8ea622	0.017413203
37	0xbb2d5e27	-0.0026453824
38	0x39ece275	0.0004518215
39	0xbb675413	-0.0035297915
40	0x3bc43d26	0.005988735
41	0xb98cd11a	-0.00026858674
42	0xbc239de7	-0.009986377
43	0xbaf4cdab	-0.0018677016
44	0x3a5f995b	0.00085296266
45	0x3c85eb0d	0.016347433
46	0xbc59fd72	-0.013305055
47	0x3a953f95	0.0011386747
48	0x398d5f14	0.00026964454
49	0x3ae069a5	0.0017121328
50	0xbc3278d7	-0.010893068
51	0x3b550b5f	0.0032507998
52	0xbc8b5cfc	-0.017012112
53	0x3b3686d5	0.0027851362
54	0xbbbe6da9	-0.0058114124
55	0x3c3c29fb	0.011484618
56	0x3b6a794f	0.0035777872
57	0x3c6ef123	0.014583859
58	0xb9aadb7b	-0.00032588452
59	0xbbb13e6f	-0.005409054
60	0xbbf0fdb8	-0.0073544644
61	0x3bcc42a5	0.0062335306
62	0x379524d3	1.7779332e-05
63	0xbb7f2187	-0.0038929896
64	0x3ab26d4f	0.0013612899
65	0xbba5e551	-0.005062737
66	0x3ba5fc1f	0.0050654556
67	0xbb6b4308	-0.0035898108
68	0x3c16306b	0.009166817
69	0x3a1a2de1	0.000588147
70	0xbc86aa2a	-0.016438562
71	0x38037bef	3.1348256e-05
72	0x3c12531f	0.00893095
73	0x3a7c1f47	0.0009617698
74	0xbbf65bc2	-0.0075182626
75	0xbbcf91aa	-0.006334503
76	0xb8dedaf0	-0.00010626565
77	0x36c54d79	5.8800765e-06
78	0xbab01132	-0.0013432859
79	0x3c8c3193	0.017113483
80	0xbc346b76	-0.011011949
81	0x3b2910f6	0.0025797463
82	0xbb95bbc6	-0.0045695035
83	0xbc746f5a	-0.014919126
84	0xbc12e576	-0.008965841
85	0xbc05cdbc	-0.008166727
86	0xbc81cd72	-0.015845034
87	0x3b5efc12	0.0034024757
88	0x39d22c8a	0.00040087505
89	0xbbbface4	-0.0058494676
90	0xbac20b1d	-0.0014804337
91	0x3999cf4a	0.00029336876
92	0xb9c767fe	-0.00038033718
93	0xbbfc38bb	-0.0076971925
94	0x3b0dffc6	0.0021667345
95	0xbbd8852b	-0.0066076717
96	0xbada4f8b	-0.0016655786
97	0x3b081b4c	0.0020768223
98	0xbc27045c	-0.01019391
99	0xbae0e122	-0.0017156939
100	0x39ee37e8	0.0004543655
101	0x3b8c50ee	0.0042821085
102	0x3bb25a09	0.005442862
103	0xbc62d5ed	-0.013844949
104	0x3bae1d6a	0.005313565
105	0xbb1fbf66	-0.0024375557
106	0x3b031f81	0.0020007791
107	0xbbaea6b2	-0.00532993
108	0x3ac2f2f9	0.0014873437
109	0x3bb6b532	0.0055757994
110	0xbbdc38ca	-0.006720637
111	0x39027463	0.00012441124
112	0x3a6232fb	0.00086288125
113	0xbc20c9d3	-0.009813744
114	0x3ca780cf	0.020447163
115	0x3c2741b6	0.010208538
116	0x3a976027	0.0011549041
117	0xb9e16b9d	-0.00042995522
118	0x3c79bcef	0.015242799
119	0x3a8976a7	0.0010487632
120	0xbbcddb8f	-0.006282277
121	0xbcad65e6	-0.021166753
122	0xbc7314ff	-0.014836549
123	0x3ca403f0	0.020021409
124	0x3b94e266	0.0045435904
125	0xbc4d045b	-0.012513245
126	0x3bab5b55	0.0052293935
127	0x3b780055	0.0037841995
128	0x3c5b01eb	0.0133671565
129	0xbb645cfa	-0.0034845457
130	0xbcbfbebd	-0.02340638
131	0x3b9f7c99	0.004867148
132	0x3c3175ad	0.010831279
133	0x3adb94f2	0.0016752763
134	0xbc4e53f5	-0.012593259
135	0x3bd0fe13	0.0063779443
136	0xba8501cf	-0.0010147634
137	0x3a3e06d7	0.0007248944
138	0xbc107773	-0.008817541
139	0xbc337fa9	-0.0109557295
140	0x3a83f1cb	0.0010066567
141	0x3b51a788	0.0031990726
142	0xbb22ff17	-0.0024871284
143	0x3c723535	0.014783193
144	0xbc036b39	-0.008021169
145	0x3a576ea7	0.00082180876
146	0x3b9990ea	0.0046864646
147	0x3c12608f	0.008934154
148	0xbbbba336	-0.0057262434
149	0xbc077394	-0.008267302
150	0x3aec584f	0.0018031689
151	0x3c0fd281	0.008778215
152	0x3a3b9f1f	0.0007157195
153	0x3b5a455b	0.00333055
154	0x3c0e1d2e	0.008673949
155	0x3baff769	0.0053700698
156	0x3a348e23	0.0006887635
157	0xbbb0e5b1	-0.005398475
158	0x3ca4bec2	0.020110492
159	0xbb38c9eb	-0.0028196524
160	0x3bb490cc	0.005510425
161	0x3ae41c9d	0.0017403547
162	0x3be7eadb	0.0070775575
163	0x3b971c10	0.0046114996
164	0x3b3f2d70	0.002917137
165	0xbbca690b	-0.006177073
166	0x3c4f10af	0.012638255
167	0xbbc0a0cb	-0.005878543
168	0xbc601468	-0.01367674
169	0xbb9e32c3	-0.0048278286
170	0xbbcfa6a3	-0.0063370033
171	0x3c34bc7f	0.011031269
172	0x3b7c89f5	0.0038534377
173	0xba5a42ea	-0.0008326011
174	0xbbd4864d	-0.0064857365
175	0xbb0c51c4	-0.002141104
176	0xbb290a0a	-0.0025793337
177	0xbb884cd0	-0.0041595474
178	0xba68408f	-0.00088597176
179	0x3c683162	0.01417193
180	0x3c2dbb73	0.010603773
181	0x3bf3f2d7	0.0074447202
182	0x3b0a9329	0.0021144843
183	0xbb442ca2	-0.002993383
184	0x3a8e2237	0.0010843937
185	0x3abbe446	0.0014334999
186	0xbc1a5f70	-0.009422168
187	0x3b6e7568	0.0036385898
188	0xbb966253	-0.004589358
189	0x3b9ee98b	0.004849618
190	0x3b6e2d2b	0.003634284
191	0xbca1eb37	-0.01976548
192	0xbb7ec815	-0.0038876582
193	0x3be4c885	0.0069819116
194	0xbc0463e2	-0.008080455
195	0xbaa22371	-0.0012370182
196	0xbb278dab	-0.0025566618
197	0xb9d4505d	-0.00040495666
198	0xbbafb26a	-0.005361845
199	0x3b982330	0.0046428666
200	0xbb92c3b3	-0.0044788956
201	0xbb452c34	-0.0030086162
202	0xbba44a53	-0.005013743
203	0xbc02c694	-0.007981915
204	0x3bade553	0.0053068786
205	0x3bc75b49	0.00608388
206	0x3c081739	0.008306318
207	0xbbcccfa0	-0.0062503368
208	0x3c0ca822	0.008585008
209	0xbbb53ba8	-0.005530793
210	0xbc634f6d	-0.013873917
211	0x3c1c302d	0.00953297
212	0xbc2fbdb6	-0.010726383
213	0x3c8b35c7	0.016993416
214	0x3b184143	0.0023232258
215	0x3ae56f13	0.0017504416
216	0x3c35d4c0	0.011098087
217	0xbc51b393	-0.0127991615
218	0x39a95e74	0.00032304565
219	0x3c00bf11	0.007858054
220	0xbc519370	-0.0127914995
221	0x3bf9e6e2	0.0076264003
222	0x3bbca367	0.0057567838
223	0xbc6bfcba	-0.014403516
224	0xbbd8bf5f	-0.00661461
225	0x3be9aced	0.00713121
226	0x3b53006f	0.0032196303
227	0xbc643fb7	-0.013931206
228	0x3b5156da	0.0031942637
229	0xbb86fade	-0.004119261
230	0x3c3c70ca	0.0115015
231	0x3c90dde0	0.017683923
232	0x3c1157dd	0.008871046
233	0x39f9601a	0.00047564582
234	0x3c3b1694	0.011418957
235	0xbbdab2c7	-0.006674144
236	0xbc0dfb3f	-0.008665859
237	0x3c64ceff	0.013965367
238	0x3b2e42da	0.002659014
239	0x3b801f40	0.0039099753
240	0xbbeb7c97	-0.007186483
241	0x3bb26823	0.005444543
242	0x3b95df1d	0.0045737163
243	0xbc8a514b	-0.016884467
244	0xbb07841d	-0.002067811
245	0xbc8bf018	-0.017082259
246	0xbabe085e	-0.0014498343
247	0x3b6ffe65	0.0036620137
248	0x3c1d2a83	0.009592655
249	0x3c00e88e	0.007867945
250	0xbc95d59f	-0.018290339
251	0x3c846de7	0.016165687
252	0x3bb5dd6f	0.0055500786
253	0x3c048db3	0.008090424
254	0xbc6ec9db	-0.014574493
255	0x3bfc89ca	0.0077068554

action_model._discrete_distribution.branches.0.bias f4 [6]
0	0x00000000	0.0
1	0x00000000	0.0
2	0x00000000	0.0
3	0x00000000	0.0
4	0x00000000	0.0
5	0x00000000	0.0

action_model._discrete_distribution.branches.1.weight f4 [3, 128]
0	0xbbd4eeaf	-0.00649818
1	0x3aec49ed	0.0018027403
2	0xbbacc56e	-0.005272559
3	0x3c3f0013	0.011657733
4	0xbbc13ee6	-0.0058973907
5	0xbc0c0622	-0.008546384
6	0xbccfb61b	-0.02535539
7	0xbc1cc3a4	-0.009568129
8	0x3bfd8f80	0.007738054
9	0xbc3e8258	-0.011627756
10	0xb9df4af7	-0.00042589728
11	0x3b735da8	0.003713468
12	0xba802e87	-0.0009779491
13	0xbc2115d8	-0.009831868
14	0x3bd69a73	0.0065491735
15	0xbae8ee4d	-0.0017771214
16	0xbc02e03b	-0.007988031
17	0xbb7f13a8	-0.0038921628
18	0xbc7bf9f5	-0.015379419
19	0xbaa7881b	-0.0012781651
20	0x3c6ca258	0.014443003
21	0x390008a7	0.00012210254
22	0x3bdb4415	0.0066914656
23	0x3c54c1ef	0.0129856905
24	0x3c49adde	0.01230952
25	0xbca7bdc6	-0.020476233
26	0x39d8b8ca	0.0004133641
27	0x3c51d755	0.012807687
28	0x3a38699e	0.0007034781
29	0x3b6997eb	0.0035643529
30	0xba30b229	-0.0006740415
31	0xb9b08bb5	-0.00033673426
32	0x3bde25c0	0.0067794025
33	0x3bd42518	0.0064741485
34	0xbb2e6ad0	-0.0026613958
35	0xbbeae278	-0.0071681105
36	0xbb19093e	-0.0023351456
37	0xbcbe8f41	-0.023261668
38	0xbbe7d027	-0.0070743742
39	0xbbd5c928	-0.006524224
40	0xbab3b3cd	-0.0013710201
41	0xbb28c951	-0.002575476
42	0x3be45b10	0.0069688633
43	0xbcb800af	-0.022461263
44	0xbaa0b353	-0.0012260474
45	0xbb6f7ebd	-0.0036544048
46	0x3a70f78a	0.00091921596
47	0xbc063565	-0.008191441
48	0x3c8fef4e	0.017570164
49	0x3c292f87	0.010326273
50	0x3bb143a8	0.0054096766
51	0x3bfff1cf	0.0078108083
52	0x3b063e11	0.0020483772
53	0x3b20c56e	0.002453174
54	0x3c66f4a7	0.014096416
55	0xb9c162e0	-0.00036885496
56	0xba3532cf	-0.0006912173
57	0xbbf5e45f	-0.0075040306
58	0xbc28791b	-0.01028278
59	0xbc0c6029	-0.008567848
60	0xbc31f913	-0.010862607
61	0x3b64bd5b	0.0034902904
62	0xbbf125fb	-0.007359264
63	0xbc7c5e7b	-0.015403385
64	0xbb8a0eab	-0.0042131743
65	0x3b96b847	0.0045996043
66	0x3c61fd43	0.013793292
67	0xbb36ad76	-0.0027874387
68	0xbc15f247	-0.009152002
69	0xb8684992	-5.5381628e-05
70	0x3c4f72ab	0.012661616
71	0x3c027063	0.007961365
72	0x3aefaebd	0.0018286329
73	0xbb500317	-0.0031740123
74	0xbbfcd14d	-0.0077153803
75	0xbb51d54b	-0.0032018002
76	0x3b83287f	0.0040026302
77	0x39e85ef3	0.0004432123
78	0x3a1030c7	0.00055004325
79	0x3c3c4551	0.011491136
80	0x3c1d8098	0.009613179
81	0xbc48240c	-0.0122156255
82	0xbb7a58d0	-0.003819991
83	0xbc767c07	-0.015044219
84	0xbbb4dbe5	-0.0055193775
85	0x3b8762b9	0.0041316417
86	0x3b52c075	0.003215817
87	0xbc403877	-0.011732212
88	0xbba1e619	-0.00494076
89	0xbc087eea	-0.00833104
90	0x3aaf9b6d	0.0013397761
91	0xbbe65680	-0.0070293546
92	0xbb86adba	-0.0041100653
93	0x3c0b25bf	0.008492886
94	0xbb64c805	-0.003490926
95	0x3bfcc008	0.0077133216
96	0xbb3693d7	-0.0027859116
97	0x38b32fdf	8.544302e-05
98	0xbbac66db	-0.0052612848
99	0x3c09e85c	0.008417215
100	0xbc3d7925	-0.011564528
101	0x3c343a9e	0.011000304
102	0x3c23aed9	0.009990417
103	0xbb2de48e	-0.0026533934
104	0x3971b11d	0.00023049531
105	0x3b5d4f4d	0.003376919
106	0x3c22523f	0.009907304
107	0x3c20e85f	0.009821027
108	0x3bb526d4	0.0055283103
109	0xbaedc333	-0.0018139839
110	0x3bb74039	0.0055923727
111	0xbb6d78d8	-0.0036235359
112	0xbbf517c3	-0.0074796393
113	0xbc076f87	-0.008266336
114	0xbad2d0b5	-0.0016083928
115	0xbaa6227f	-0.0012675076
116	0x3c399aa1	0.01132837
117	0x3c0364c4	0.00801963
118	0x3c567f0d	0.013091815
119	0x3c2884db	0.010285581
120	0xbace34ff	-0.0015732347
121	0x3bbe33c5	0.0058045113
122	0x3c5faf98	0.013652705
123	0x3c159d56	0.00913175
124	0xbc226142	-0.009910883
125	0x3b231a33	0.0024887442
126	0xbb16c134	-0.0023003342
127	0x3bf5f367	0.0075058225
128	0xbb3682df	-0.0027849001
129	0xbb8e7990	-0.0043479875
130	0x3c9a6ff7	0.018852217
131	0x3c7c1d47	0.01538784
132	0x3bddc5c5	0.0067679607
133	0x3c6b6c13	0.014369029
134	0xbb81814e	-0.003952182
135	0x360b9626	2.0800012e-06
136	0xbb487a25	-0.0030590382
137	0xbb947590	-0.004530616
138	0x3c22089b	0.009889747
139	0x3981afa1	0.0002473565
140	0x3c251cff	0.010077714
141	0x3c194b50	0.009356335
142	0xbbc37b6c	-0.005965641
143	0xbb65166f	-0.0034955998
144	0x3c56f12a	0.013119021
145	0x38259062	3.9473533e-05
146	0x3c9e51db	0.019326141
147	0x3c60c435	0.013718654
148	0x3aaefb8b	0.0013350112
149	0x3be7bb58	0.0070718937
150	0xba8860ab	-0.0010404786
151	0xbbc7fa57	-0.006102841
152	0xbb842d03	-0.004033686
153	0xbbe51cdf	-0.006991967
154	0x38a07b08	7.652311e-05
155	0xbb345cf0	-0.0027521215
156	0x3aad3622	0.0013214985
157	0x3c157f97	0.009124658
158	0xbc634997	-0.013872526
159	0x3917679d	0.00014439081
160	0xbbcae3bb	-0.0061916984
161	0x3acd1ead	0.0015649401
162	0x3b8ca3e1	0.004291997
163	0xbc03db9b	-0.0080479635
164	0xbc759ffa	-0.014991755
165	0xb6f70245	-7.361438e-06
166	0xbb0b2a29	-0.0021234846
167	0xbbae893a	-0.0053264173
168	0x3bf9013b	0.0075990236
169	0x3c2238c7	0.009901232
170	0xbba1f2b7	-0.004942264
171	0xbb44a380	-0.003000468
172	0xbadc1fa5	-0.0016794099
173	0x3a63a9f8	0.000868469
174	0xbb47f6eb	-0.0030512165
175	0xbb9af00d	-0.0047283233
176	0x3b34aa6b	0.0027567397
177	0xb9ed60b3	-0.0004527621
178	0xbcb056c7	-0.021525754
179	0x3c2ab39c	0.010418799
180	0xbb43f7b6	-0.0029902286
181	0xbae61ead	-0.001755675
182	0xbc9233b3	-0.017846918
183	0x3c5d7d15	0.013518591
184	0xba58fe9d	-0.00082776864
185	0x3b54740f	0.003241781
186	0xba4459e7	-0.0007490203
187	0xbbf6cc43	-0.007531674
188	0xba946bd6	-0.0011323642
189	0xbb9f0f1e	-0.004854097
190	0xb90ed854	-0.00013622764
191	0x3c3149e4	0.01082084
192	0x3b503612	0.003177051
193	0xb9a5332f	-0.00031509387
194	0x3c00ca80	0.00786078
195	0x3a57961f	0.0008223969
196	0xbae84202	-0.0017719867
197	0x3b867d6d	0.0041043074
198	0xbc2df3d5	-0.010617216
199	0x3c08b19b	0.008343126
200	0x3b0ada0e	0.00211871
201	0x3c5aa948	0.013346024
202	0xbb146fc8	-0.0022649635
203	0xbab32253	-0.0013666846
204	0x3bd4b6bb	0.0064915097
205	0x3c4d5432	0.012532281
206	0xbb1542e9	-0.0022775477
207	0xbc734f20	-0.014850408
208	0x3bbf3821	0.0058355485
209	0x3c856bd8	0.016286775
210	0x3aee6973	0.0018189385
211	0x3b40b222	0.002940305
212	0x3c4f9918	0.012670778
213	0x3bb03903	0.00537789
214	0x3b201ef5	0.0024432514
215	0x3b7c81a7	0.0038529427
216	0xbb735102	-0.0037127142
217	0xbc20ecd3	-0.009822088
218	0x3c056434	0.008141566
219	0x3c49e944	0.012323681
220	0xbc3fd948	-0.011709519
221	0xba3578af	-0.00069225853
222	0x3a3ea4f8	0.0007272507
223	0x3b3dd58a	0.002896639
224	0xbc2027bf	-0.009775101
225	0x3b8a3ec3	0.0042189076
226	0x3c2a96e3	0.010411951
227	0xbc309258	-0.010777079
228	0x3bc4cda5	0.00600596
229	0x3c84a551	0.01619211
230	0xb910b066	-0.00013798624
231	0xba8adbcb	-0.0010594068
232	0xbbe6b6a7	-0.007040817
233	0x3bb672e9	0.0055678976
234	0xbc13a83f	-0.009012281
235	0xbb363eaa	-0.0027808347
236	0x3b4cfa08	0.003127696
237	0xbab222e5	-0.0013590722
238	0xbbcb4e53	-0.0062044053
239	0xbc09c003	-0.008407596
240	0x3b7e02d8	0.003875902
241	0x3c8ab72e	0.01693305
242	0xbc5ec04d	-0.013595653
243	0x3c130291	0.00897278
244	0xbc7580d5	-0.014984329
245	0xbcd221f7	-0.025650961
246	0xbb8a7a71	-0.004226022
247	0xbc7f5eea	-0.015586594
248	0x3b64e6ab	0.0034927528
249	0xbaf3b63a	-0.0018593736
250	0xbbba5eb7	-0.0056875604
251	0xbc026e7c	-0.007960912
252	0x3b912022	0.0044288794
253	0xbc033649	-0.008008548
254	0xbc33b6af	-0.010968848
255	0xbb4abae9	-0.003093416

action_model._discrete_distribution.branches.1.bias f4 [3]
0	0x00000000	0.0
1	0x00000000	0.0
2	0x00000000	0.0

action_model._discrete_distribution.branches.2.weight f4 [3, 128]
0	0x3c3162ee	0.010826809
1	0xbc2d867b	-0.010591145
2	0x3ad885a3	0.0016519319
3	0x3ace724a	0.0015750614
4	0xbb8070c7	-0.003919694
5	0x3be25f5a	0.0069083394
6	0xbb975d36	-0.004619266
7	0xbc793193	-0.015209573
8	0xbc0c0954	-0.008547146
9	0x3c8c72c5	0.01714457
10	0xbc119b19	-0.008887076
11	0xbc799780	-0.015233874
12	0xbbc50fbb	-0.006013838
13	0x3c1608d6	0.00915738
14	0xbbe233ad	-0.006903133
15	0xbbca43af	-0.0061726193
16	0x39fe6088	0.00048518577
17	0x3a954dec	0.001139102
18	0xbb8fc6fd	-0.004387735
19	0x3ba2b71b	0.0049656755
20	0x3b7ea977	0.0038858333
21	0xba81dd79	-0.0009907923
22	0xbac985ed	-0.0015374996
23	0x3b2df687	0.0026544647
24	0x3c29965f	0.010350793
25	0x3c07d087	0.008289463
26	0x3c29fdef	0.010375484
27	0xbc0e5071	-0.008686171
28	0xbad84dff	-0.0016502737
29	0x3babe0d9	0.00524531
30	0x3bbf9a38	0.0058472417
31	0xbbeed1bb	-0.0072881854
32	0x3c351808	0.011053093
33	0xbc83181f	-0.016002713
34	0x3b74c265	0.0037347313
35	0x3b188eb0	0.0023278408
36	0xbc37a120	-0.011207849
37	0x3ae2bd87	0.0017298915
38	0xbbcca025	-0.0062446767
39	0x3b7f7872	0.0038981703
40	0x3b9954a7	0.004679281
41	0x3c4b6c5f	0.012415974
42	0x3bb2ffe1	0.005462632
43	0xbbaf8ea3	-0.00535758
44	0xbbebceb5	-0.0071962723
45	0xbcb6df2e	-0.022323217
46	0x3c09351d	0.00837448
47	0x3c26e3f0	0.0101861805
48	0xbba2d38d	-0.0049690665
49	0xba9dbe31	-0.0012034831
50	0x3b5bc983	0.0033536858
51	0x3c2b379f	0.010450273
52	0xbacfb737	-0.0015847449
53	0xbc2605e2	-0.0101332385
54	0xbab5282b	-0.0013821175
55	0x3bffccf5	0.007806415
56	0x3baeeffb	0.0053386665
57	0xbbd6962f	-0.006548665
58	0xbc094f97	-0.008380792
59	0x3af70efa	0.0018849068
60	0xbbe6d7e0	-0.0070447773
61	0xbb0488d1	-0.002022315
62	0x3cbf2c09	0.023336427
63	0x3a503127	0.00079418946
64	0xbca706d3	-0.020388996
65	0xbace476d	-0.0015737839
66	0x3b0e909f	0.0021753681
67	0x3c7a6f3d	0.01528531
68	0x3c1d43a6	0.009598648
69	0x3c5ffd12	0.0136711765
70	0x3a4e4173	0.0007868029
71	0x3ae10972	0.0017168953
72	0xbc546b9d	-0.01296511
73	0xb9d9eacf	-0.0004156441
74	0xbb4cbd14	-0.003124063
75	0x3ba41ae6	0.0050080894
76	0xba679537	-0.00088341854
77	0xbc409db8	-0.011756353
78	0x3b479220	0.0030452088
79	0xbb8d371b	-0.0043095476
80	0x3c85e725	0.01634557
81	0x3b24f5b2	0.002517086
82	0x3baaf09f	0.0052166726
83	0x3c0aa622	0.008462461
84	0xbbba8073	-0.005691582
85	0x3bcb54ec	0.006205192
86	0xbc61416b	-0.013748507
87	0x3c21bfdf	0.009872406
88	0xbb7f683d	-0.0038972043
89	0xbc4b3db7	-0.012404851
90	0xbc0b8720	-0.008516103
91	0x3b4ff060	0.0031728968
92	0x3c113549	0.008862802
93	0xbc121462	-0.008915992
94	0xbc845921	-0.016155781
95	0xbc12b30b	-0.00895382
96	0xbbac84ad	-0.0052648396
97	0x3b0efaf3	0.0021817058
98	0x3ad974f2	0.0016590639
99	0x3c0e9d97	0.0087045645
100	0x3bc4bf95	0.0060042837
101	0xbc9e7ba8	-0.019346073
102	0x390e9ad8	0.00013599859
103	0x3c0eb8b5	0.00871103
104	0xbb98f2f4	-0.004667634
105	0x3c65273a	0.013986403
106	0x3c8ee611	0.017443689
107	0x3b8f4457	0.0043721604
108	0x3c91b969	0.017788606
109	0xbbdeac9f	-0.0067954804
110	0xbc02b122	-0.007976802
111	0xbc07d570	-0.008290634
112	0xbc332eaa	-0.010936419
113	0x3b33add5	0.0027416844
114	0xbc262a73	-0.010141957
115	0x3bdd0678	0.006745156
116	0x3b50b758	0.0031847563
117	0xbb069e07	-0.002054097
118	0x3c38a8e8	0.011270739
119	0xbcccf43f	-0.02501881
120	0x3a64506f	0.00087094953
121	0xbc2f01f9	-0.010681623
122	0xbc54e577	-0.012994162
123	0xba794807	-0.0009509329
124	0x3c4cd157	0.012501082
125	0x3c04b629	0.008100071
126	0x3bdd8e9a	0.006761384
127	0xbb81dcbe	-0.003963082
128	0xbc1f1bbe	-0.009711204
129	0xbbc0a8b8	-0.005879488
130	0xbc60f8e0	-0.013731211
131	0x3b965b9d	0.004588558
132	0xbbe78c5f	-0.007066294
133	0xbac91657	-0.0015341741
134	0xbb9c7d48	-0.004775677
135	0x3ac48736	0.0014993909
136	0xbc44b57d	-0.012006161
137	0x3a808370	0.0009804796
138	0x3bf8c580	0.007591903
139	0xba829cef	-0.0009964983
140	0x3c2ddb0f	0.01061131
141	0xbc3898a5	-0.011266862
142	0xba9f3e07	-0.0012149223
143	0x3c1485ea	0.009065131
144	0xbbe95898	-0.007121157
145	0x3cb90fb7	0.022590501
146	0x3b739a0a	0.0037170672
147	0xbc2c392a	-0.010511676
148	0xbc9f67f0	-0.019458741
149	0xbbc2bb05	-0.0059427046
150	0xb741b010	-1.1544689e-05
151	0xbc214003	-0.009841922
152	0x3b1157fb	0.0022177685
153	0xbaae1494	-0.0013281279
154	0x3c6d5dca	0.014487693
155	0x35a72743	1.2453896e-06
156	0xbb51cf67	-0.003201449
157	0x3b89ffff	0.0042114253
158	0xbb98fd1c	-0.004668845
159	0x3aba69d2	0.0014222211
160	0xbb863767	-0.00409596
161	0x3b853fea	0.004066457
162	0x3a9127f1	0.0011074526
163	0x3a541898	0.0008090823
164	0x3a5c9433	0.00084144174
165	0xbc0d82a0	-0.0086371
166	0x3b6160a3	0.0034389875
167	0x3beac19b	0.007164193
168	0xbc13708f	-0.008999004
169	0xbb766407	-0.0037596242
170	0x3b8b3410	0.0042481497
171	0x3b28ec93	0.0025775775
172	0x3b6a505b	0.0035753462
173	0xbb4cacdd	-0.0031230964
174	0xbc0d0cff	-0.008609056
175	0x3bfc6d47	0.0077034566
176	0xb935b7f3	-0.00017330032
177	0xbc142152	-0.009041147
178	0xbbe25375	-0.0069069215
179	0xb91da4dd	-0.00015034103
180	0x3c853183	0.01625896
181	0x3c688203	0.014191153
182	0xbbf650bb	-0.007516948
183	0x3c38e7f3	0.01128577
184	0x3b74c303	0.0037347681
185	0xbc99e329	-0.018785076
186	0x3bc3c5ed	0.0059745223
187	0xba352428	-0.000690999
188	0xbba00a73	-0.004884058
189	0xbb8c972f	-0.0042904834
190	0xbc31bb95	-0.010847946
191	0xbc16dd0e	-0.009207977
192	0xbc28264a	-0.010263035
193	0x3c05b767	0.008161402
194	0x3b037338	0.002005769
195	0x3bc87af3	0.0061181723
196	0xba0ffacb	-0.0005492388
197	0x3c1c4fef	0.009540542
198	0x3af2ec38	0.0018533533
199	0xbc702590	-0.014657393
200	0xbb3283cc	-0.0027239202
201	0xbccd526f	-0.025063721
202	0x3bd7e60f	0.0065887044
203	0xbb8ff65f	-0.0043933834
204	0x3beceae0	0.0072301477
205	0xbc68f0cf	-0.0142175695
206	0x3b583f6b	0.0032996784
207	0xbc23bfa7	-0.009994424
208	0x3c6e6c6f	0.01455222
209	0xba3884eb	-0.0007038849
210	0x3bcf38ed	0.0063239248
211	0x3c8f4299	0.01748781
212	0x3b441404	0.0029919157
213	0xbb681032	-0.0035410044
214	0xbc39a800	-0.011331558
215	0x3bd8288f	0.006596632
216	0x3bca8c84	0.0061813015
217	0x3c54daab	0.012991588
218	0xbc991fd8	-0.018691942
219	0xbb913f63	-0.004432605
220	0x3cc2e9df	0.023793159
221	0x3c3614ca	0.011113355
222	0x39e11882	0.00042933604
223	0xbb527a5b	-0.0032116387
224	0x3c057de7	0.008147693
225	0x3c3d56a5	0.011556302
226	0xbbde51c7	-0.006784651
227	0x3acfe353	0.0015860595
228	0x3b5a577b	0.0033316303
229	0x3c91a043	0.017776614
230	0xbc8a6043	-0.016891604
231	0x3bb44ebb	0.0055025495
232	0xbb1b438e	-0.0023691389
233	0x3bbb5740	0.005717188
234	0xbc1389d0	-0.009005025
235	0xbb5ddd67	-0.003385389
236	0xbc23508a	-0.0099679325
237	0x3bb72f53	0.0055903583
238	0x3c9528d8	0.018207952
239	0xbc84ba58	-0.016202137
240	0x3c3e035a	0.011597479
241	0xbc324337	-0.010880283
242	0x3c7b418a	0.01533545
243	0x3c2f5800	0.010702133
244	0x3c484432	0.01222329
245	0x3c475b9f	0.01216784
246	0x3b46a083	0.0030308075
247	0x3ba52cf4	0.005040759
248	0x3b97dfd3	0.004634836
249	0xbb92adfb	-0.0044763065
250	0xbb29ef3b	-0.0025929946
251	0x3b7d05b8	0.0038608145
252	0x3be478ef	0.006972424
253	0xbc003b60	-0.007826656
254	0x3b8a7877	0.0042257863
255	0x3a5dfc82	0.00084681076

action_model._discrete_distribution.branches.3.weight f4 [48, 128]
0	0xbc53d9e7	-0.01293037
1	0x3b59a215	0.003320818
2	0xb80f8a1a	-3.4222474e-05
3	0xbb4c2d31	-0.0031154866
4	0x3b9fdc42	0.0048785517
5	0x3c8f3f13	0.01748613
6	0x3c256e37	0.010097078
7	0x3b97b73c	0.0046299975
8	0xbc539c7f	-0.01291573
9	0x3c1cc787	0.009569055
10	0x3b34e877	0.002760438
11	0xbb81b13f	-0.003957897
12	0xbbf7c1e0	-0.0075609535
13	0x3c9c27ce	0.01906195
14	0xbbb507ef	-0.0055246274
15	0xbadde6bb	-0.0016929725
16	0x3c10b538	0.008832268
17	0xbc0052ee	-0.007832272
18	0x3bd99eca	0.0066412436
19	0xbc371c22	-0.011176141
20	0xbb9f6fa6	-0.0048656045
21	0xbbe3d492	-0.0069528306
22	0x3ca6589e	0.020305928
23	0x3c92b796	0.017909806
24	0x3c680320	0.014160901
25	0xbb6c142f	-0.0036022773
26	0x3c3ea9b4	0.01163714
27	0x3bb7dbb6	0.0056109084
28	0x3b4c18dd	0.003114275
29	0x3c1255a3	0.00893155
30	0x3c75f305	0.015011554
31	0xbc400b55	-0.011721452
32	0xbc628298	-0.013825081
33	0xbc03c7e4	-0.008043263
34	0x3ad4289b	0.0016186418
35	0x3aba2dec	0.001420436
36	0xbc36cfbc	-0.011157926
37	0xbafef4a5	-0.0019451572
38	0x3c08f8d1	0.008360104
39	0xbc597b17	-0.013273976
40	0x3b22a488	0.0024817307
41	0x3c3fe8ab	0.011713187
42	0xbb3bfd95	-0.0028685082
43	0xbbc62698	-0.006047081
44	0xbc2d86c3	-0.010591212
45	0x3ba4cef5	0.005029554
46	0xbb8fbe43	-0.0043866946
47	0xbb857deb	-0.0040738485
48	0xbba66362	-0.0050777653
49	0x3be5f432	0.0070176357
50	0xbc65bfd3	-0.014022785
51	0x3a752947	0.0009352159
52	0xb9d3fa18	-0.0004043139
53	0xbc1de7de	-0.009637801
54	0x3a46301d	0.000756027
55	0xbab6db7f	-0.0013950913
56	0xbc521058	-0.0128212795
57	0x3bc0bc78	0.005881842
58	0x3bb12e57	0.0054071355
59	0xbbd77e4a	-0.006576334
60	0x3b5ea0c7	0.0033970342
61	0xbb2a09dd	-0.002594582
62	0x3a6bb700	0.00089918077
63	0xbb6ac087	-0.0035820322
64	0x3c9bb268	0.01900597
65	0x3c0948f4	0.00837921
66	0xbc7bb65b	-0.015363301
67	0x3b4d7a18	0.003135329
68	0x3b846e86	0.0040414957
69	0xbc28cad7	-0.010302267
70	0xbb5cc650	-0.003368754
71	0x3bfddd05	0.007747295
72	0xbbf24c83	-0.007394375
73	0xbc16abf9	-0.009196275
74	0x3bf9ff1d	0.007629289
75	0x3c1494ad	0.00906865
76	0x3b11908f	0.0022211408
77	0xbb17767a	-0.002311139
78	0xbada29f5	-0.0016644584
79	0xbb24c3eb	-0.002514119
80	0x3c6bfc7d	0.01440346
81	0xbc260040	-0.010131896
82	0xbbade0e3	-0.0053063496
83	0xbc2def1f	-0.010616093
84	0xbc134a44	-0.008989874
85	0xbc1ea315	-0.0096824365
86	0xbc127de0	-0.008941144
87	0x3be1407a	0.0068741413
88	0xbad9be0d	-0.0016612426
89	0x3b99d86b	0.0046949885
90	0x3bd9e193	0.006649205
91	0x3b0b74f8	0.0021279436
92	0xbbfd57c2	-0.007731409
93	0x3c548355	0.012970765
94	0x3bd452c5	0.0064795935
95	0x3c03e033	0.008049059
96	0xbc460087	-0.012085087
97	0xbc2dde20	-0.010612041
98	0xbb967bf3	-0.0045924126
99	0xbc7fe20d	-0.01561786
100	0xbad58cc8	-0.0016292566
101	0xbafa3a55	-0.0019090871
102	0x3c806724	0.015674181
103	0xbaf86b78	-0.0018952927
104	0x3b03097e	0.0019994671
105	0xba6c9a9f	-0.0009025726
106	0xbbd17a92	-0.0063927853
107	0xbc8fecc7	-0.017568959
108	0xbba7f50d	-0.005125648
109	0x3c6f25d5	0.014596422
110	0xbc02d480	-0.007985234
111	0x3c53fa6a	0.012938121
112	0xbbec745a	-0.0072160186
113	0xbae06af5	-0.001712172
114	0xb9dccfe5	-0.00042116563
115	0xba3c17f2	-0.0007175199
116	0xbc20f785	-0.009824638
117	0xbbcce9da	-0.006253463
118	0x3b34788b	0.002753767
119	0xbab0cf43	-0.0013489503
120	0xba4a4e3b	-0.0007717346
121	0xbb56d695	-0.003278171
122	0xbbea011d	-0.007141246
123	0xbc920b96	-0.01782779
124	0xbbf77dc0	-0.0075528324
125	0x3c38b9b9	0.0112747485
126	0x3c2af942	0.010435404
127	0xbbb02d28	-0.005376477
128	0xbbe66910	-0.0070315674
129	0x3c5536af	0.013013526
130	0xbbf02fdf	-0.0073299254
131	0x3abbaa6f	0.0014317761
132	0xbc3d02e3	-0.011536333
133	0xbc4f6305	-0.012657885
134	0x3bc286bb	0.0059364713
135	0x3a2885bc	0.00064286194
136	0xbbfca87b	-0.007710514
137	0x3c5e32eb	0.0135619445
138	0xbceb5dc3	-0.028731233
139	0xba81e8de	-0.0009911319
140	0xbc074aff	-0.008257627
141	0xbaeb5643	-0.0017954785
142	0xbc65f510	-0.014035478
143	0xbafb6060	-0.0019178502
144	0xbb5206ab	-0.0032047431
145	0x3c8a4d35	0.016882518
146	0x3b0aa59d	0.0021155842
147	0xbc1882ab	-0.009308497
148	0x3c47bca1	0.012190969
149	0xbc4a33ef	-0.0123414835
150	0xbbc0396a	-0.0058662193
151	0x3bba5452	0.0056863213
152	0x3c98c063	0.018646425
153	0xb956c208	-0.00020480913
154	0x3bb984c0	0.005661577
155	0x3b9a25b7	0.004704203
156	0xbbc0b667	-0.005881119
157	0xbbcecec5	-0.00631127
158	0xbc10537d	-0.008808968
159	0xbbd9b5c8	-0.0066439845
160	0x3b66d9d5	0.0035225053
161	0x3bb444f3	0.0055013834
162	0x3b378292	0.002800141
163	0x3c567d42	0.013091387
164	0x3c7d16b3	0.015447306
165	0xbb60aa53	-0.0034281209
166	0xbb7743f2	-0.0037729708
167	0xbc6158f8	-0.013754122
168	0x3b090a8e	0.0020910832
169	0xbc0571f3	-0.008144843
170	0xbb54b5a7	-0.0032456906
171	0x3bc69622	0.0060603777
172	0x3c90e6c3	0.01768816
173	0xbb4452ef	-0.002995666
174	0xbc38417c	-0.011246081
175	0xbbc528d3	-0.0060168295
176	0x3c3b8084	0.011444215
177	0xbb467cb7	-0.0030286738
178	0xbbd975d7	-0.006636362
179	0x3c2eeda7	0.010676778
180	0x3b1f4005	0.0024299633
181	0x3bc43b94	0.0059885476
182	0xbc0c4487	-0.00856126
183	0xbbfc894b	-0.0077067963
184	0xba45e90b	-0.000754968
185	0xbbbb2488	-0.005711142
186	0xbc8a6224	-0.0168925
187	0xbc5aa867	-0.013345814
188	0xbc9294c0	-0.017893195
189	0xbbc77814	-0.0060873125
190	0xbc290194	-0.010315318
191	0x3c24d49a	0.010060454
192	0xb84518ec	-4.699167e-05
193	0x3b7c7dda	0.0038527162
194	0x3c8a4945	0.01688064
195	0xbb8b4d6f	-0.004251174
196	0xbbeb1717	-0.0071743834
197	0xbc1ca62f	-0.009561106
198	0xbc08e244	-0.008354727
199	0xbac946d3	-0.001535619
200	0xbc5bc2b7	-0.013413123
201	0xbbb3f3cb	-0.005491709
202	0xbb66eeef	-0.003523763
203	0xbbd7813d	-0.0065766857
204	0xbbd5ca1d	-0.006524338
205	0x3c287b95	0.0102833705
206	0xbc546b43	-0.012965026
207	0x3b72e2e8	0.0037061516
208	0x3a19da23	0.0005868992
209	0x3b8cbf00	0.00429523
210	0xbc56f6b3	-0.013120341
211	0xbbc01b31	-0.0058626165
212	0x3b843d65	0.004035639
213	0xb9d161f8	-0.0003993658
214	0xbb2dcb0e	-0.0026518735
215	0x3ad80948	0.0016482258
216	0xbc1350b6	-0.008991411
217	0xbc3a2a65	-0.011362647
218	0xbad4b12f	-0.0016227121
219	0x3b845852	0.004038849
220	0x3be4d3f0	0.0069832727
221	0x3b0a5f63	0.0021113984
222	0x3c55f227	0.013058222
223	0xbb43d1b1	-0.0029879624
224	0xbb1d6d49	-0.0024021438
225	0xbb778aba	-0.0037771896
226	0x3a9f1283	0.0012136254
227	0xbc5749c2	-0.013140144
228	0x3c21cde5	0.009875749
229	0x3c353a93	0.011061328
230	0xb893fadf	-7.0562346e-05
231	0xbbf43b92	-0.0074533904
232	0xbc244cab	-0.010028045
233	0x3bf315ff	0.0074183936
234	0xbb286419	-0.0025694428
235	0x3c13c52b	0.0090191765
236	0xbb57b83a	-0.0032916204
237	0xbb3600c7	-0.002777146
238	0xbbd50a8b	-0.006501501
239	0x3b34f62f	0.0027612557
240	0xbc9896a3	-0.018626517
241	0x3bb14049	0.0054092747
242	0xbbe01b57	-0.0068391967
243	0x3cb61813	0.022228276
244	0x3c05664f	0.008142068
245	0x3ad9a320	0.0016604401
246	0xba0a1cfb	-0.00052686007
247	0x3b3684d2	0.0027850163
248	0xbc87f858	-0.016597912
249	0x3b0c33a9	0.0021393097
250	0xba097473	-0.00052434875
251	0x3b8d4fbd	0.004312484
252	0x39b0e6a3	0.00033741174
253	0xbbfa1f7b	-0.0076331473
254	0x3c1d7b07	0.009611852
255	0xbc153c26	-0.009108579

action_model._discrete_distribution.branches.3.bias f4 [48]
0	0x00000000	0.0
1	0x00000000	0.0
2	0x00000000	0.0
3	0x00000000	0.0
4	0x00000000	0.0
5	0x00000000	0.0
6	0x00000000	0.0
7	0x00000000	0.0
8	0x00000000	0.0
9	0x00000000	0.0
10	0x00000000	0.0
11	0x00000000	0.0
12	0x00000000	0.0
13	0x00000000	0.0
14	0x00000000	0.0
15	0x00000000	0.0
16	0x00000000	0.0
17	0x00000000	0.0
18	0x00000000	0.0
19	0x00000000	0.0
20	0x00000000	0.0
21	0x00000000	0.0
22	0x00000000	0.0
23	0x00000000	0.0
24	0x00000000	0.0
25	0x00000000	0.0
26	0x00000000	0.0
27	0x00000000	0.0
28	0x00000000	0.0
29	0x00000000	0.0
30	0x00000000	0.0
31	0x00000000	0.0
32	0x00000000	0.0
33	0x00000000	0.0
34	0x00000000	0.0
35	0x00000000	0.0
36	0x00000000	0.0
37	0x00000000	0.0
38	0x00000000	0.0
39	0x00000000	0.0
40	0x00000000	0.0
41	0x00000000	0.0
42	0x00000000	0.0
43	0x00000000	0.0
44	0x00000000	0.0
45	0x00000000	0.0
46	0x00000000	0.0
47	0x00000000	0.0
